best_tmd_4bit.pt (torch, 216533 bytes, 18 tensors)

conv1.weight f4 [32, 3, 7]
000000 d6 1d 21 3e 66 c9 21 3e 7c 5c 87 bd 18 18 44 3e
       0.15734038 0.15799484 -0.06609437 0.19149816
000010 31 bd 60 bd aa 09 46 3d a1 40 c8 bd 3a 9c 20 3e
       -0.054867927 0.04834906 -0.09777952 0.15684596
000020 97 a7 51 3e 9d 3e e8 bd 30 b1 58 3e 1a cf c7 3d
       0.20474087 -0.113400675 0.21161342 0.09756298
000030 9d 08 72 3e 4c 4f 91 3d 88 9f fd 3d 57 d1 b9 bc
       0.23636098 0.07095203 0.12383944 -0.022682829
000040 df 2d 2a 3e 37 80 73 3d e6 4a ae bd c1 4b 8b 3d
       0.16619061 0.059448447 -0.085103795 0.06801558
000050 27 22 a9 bd 36 93 2f 3d 02 b5 8b bc 21 0c 62 3e
       -0.08258467 0.042865 -0.017054085 0.2207494
000060 a8 a0 02 be 14 da 11 bd bc ff 02 3b 27 17 a4 bd
       -0.12756598 -0.035608366 0.0019988855 -0.080122285
000070 76 5a 2b bd 2c 23 75 be 71 6c 46 3e 4b c6 42 be
       -0.041834317 -0.23939198 0.19377305 -0.19020955
000080 ab cb 20 3e c6 e1 95 3c ff 52 a8 bd 67 ac ce 3d
       0.15702693 0.018296134 -0.08218955 0.10091477
000090 fb 1c b4 3d 88 db 54 3e b1 01 33 3c 66 e9 53 bd
       0.0879459 0.2078687 0.010925696 -0.051736258
0000a0 7e da fd 3b ec 2e 23 bd 20 48 7e 3d e0 1a 28 3e
       0.0077469936 -0.03983967 0.062080503 0.16416502
0000b0 eb e3 d1 3d a2 81 f2 bd 41 b6 e3 3d db a0 ff 3c
       0.1024855 -0.11841132 0.111187465 0.031204632
0000c0 7b fd b9 3d c0 79 10 be 87 6e 58 be 38 53 51 bd
       0.09081551 -0.14108944 -0.21135913 -0.051104754
0000d0 51 5f 1c be 35 9f 5e 3e e8 1f db 3d 12 f5 07 3e
       -0.15270735 0.2174042 0.10699445 0.1327708
0000e0 8f eb e3 3d 3b df 80 3d 3c f4 62 3e 87 e2 97 bd
       0.111289136 0.06292578 0.2216348 -0.074162535
0000f0 51 41 4e 3d 9f 86 c0 bd 1d ba b0 3d 68 25 88 bd
       0.05035526 -0.09400677 0.08629248 -0.0664776
000100 99 83 93 3d 12 0b 23 bd 46 7d 3e 3e 3c bc e7 bd
       0.07202835 -0.03980548 0.18602476 -0.113152
000110 34 73 b0 bd a5 34 f5 bd 99 59 75 3e d7 67 11 3e
       -0.08615723 -0.11972932 0.2395996 0.14199768
000120 85 e4 72 3e a1 5c 2b be 7a 6f 5b be 48 cf 2c be
       0.23719986 -0.16734554 -0.21429244 -0.16875947
000130 12 92 03 be ef 0b 81 3c b0 19 95 3d ef 5c 41 3e
       -0.1284869 0.01575276 0.0728029 0.18883108
000140 46 51 84 bd 30 48 02 be 9a 3f d2 3d 2d b9 b6 bd
       -0.06460814 -0.1272285 0.10266037 -0.08922038
000150 52 a6 0b 3e f6 7f 44 bd 69 73 09 3e 54 53 34 be
       0.13637665 -0.047973596 0.13422932 -0.17609912
000160 91 d7 f7 bd e9 2d 94 3d 60 a7 47 3d e6 2e 8b bd
       -0.12101663 0.07235319 0.048743606 -0.067960545
000170 df 34 29 3e 5d 9c 42 3e 66 dd 2b be 64 d6 11 be
       0.16524075 0.1900496 -0.16783676 -0.1424194
000180 c5 23 62 3e a5 3c 18 bd 8f 51 b0 bd cd 8d 2d be
       0.22083957 -0.03716721 -0.08609306 -0.16948624
000190 7b b6 5b bd 1c 72 b4 3d 52 f5 c0 bc db 90 c8 bd
       -0.053640824 0.08810827 -0.023554478 -0.09793254
0001a0 f4 3b 61 3c 03 64 3e be 66 b8 59 be 4b e7 e9 bd
       0.013747204 -0.18592839 -0.21261749 -0.11421069
0001b0 b5 a0 35 be e4 ce 23 be e6 6c 47 3e ba d9 03 3d
       -0.17737086 -0.15996891 0.19475135 0.032190062
0001c0 bb f5 a0 3d 9b 9f 51 be e8 c5 e5 bd 5e 48 89 3c
       0.07859369 -0.20471041 -0.11219388 0.01675814
0001d0 27 e0 da 3d ef 93 01 be d8 1c 91 bc 96 e3 84 bd
       0.10687285 -0.12654088 -0.01771395 -0.06488721
0001e0 0b 91 a0 3b c5 a2 98 bd 50 bb 80 bd 23 0e 53 be
       0.004900103 -0.07452921 -0.06285727 -0.20610861
0001f0 72 6c 6c be 86 b1 31 be c0 ac 9f bd fb 0f 33 be
       -0.23088244 -0.17352876 -0.07796621 -0.17486565
000200 be 3d 4d 3e 35 26 1f bd 89 d9 4c 3e df 59 b2 3d
       0.20043084 -0.038854796 0.20004858 0.08708548
000210 a5 d5 23 be bd db 5b 3e 01 55 d9 bc d9 23 70 bd
       -0.15999468 0.21470542 -0.02652979 -0.058627937
000220 48 75 42 be a9 e7 45 be 6b fc b0 3d 4f cc 86 bc
       -0.18990052 -0.19326653 0.08641895 -0.016454844
000230 2b c4 47 3d 41 09 17 be d0 42 3c 3e d3 4b d4 bd
       0.048771065 -0.14749624 0.18384862 -0.10366025
000240 98 01 17 3d 13 fa d1 3d f9 c0 25 3e 70 62 35 3e
       0.036866754 0.10252776 0.16186894 0.17713332
000250 5e 5a 69 3e f1 61 17 be 66 af 75 3d 10 d3 db bd
       0.22788379 -0.14783455 0.059981726 -0.10733616
000260 06 1d cc bc 2f d8 45 be f1 f9 0d 3e 8f 24 6b be
       -0.024916183 -0.19320749 0.13864876 -0.22963165
000270 c2 26 ac 3d 0d b5 9a 3d 46 51 27 3d ac 79 41 be
       0.0840583 0.07554064 0.040848993 -0.1889407
000280 a1 ed 4b 3e 68 0b d5 3b c8 4e 86 3c de 5f 1f be
       0.19914867 0.006501604 0.016394988 -0.15563914
000290 1c 6b de 3d 92 6e 7f bc 20 47 31 bd e7 cb 6f 3e
       0.10860273 -0.015590327 -0.04328072 0.23417626
0002a0 f0 9b c6 3d 99 d1 cf bd 1e a2 b9 bd ad db 9c 3b
       0.096977115 -0.101473995 -0.090641245 0.0047869296
0002b0 0d bd 1c 3e 14 a4 5d bb 57 4d be bd c9 96 a3 bd
       0.15306492 -0.0033819722 -0.09292095 -0.07987744
0002c0 63 25 4e be 11 60 c2 3d c0 de 2c 3e f1 33 51 be
       -0.2013145 0.094909795 0.16881847 -0.2042997
0002d0 e6 99 f7 3c 66 1a ae 3d 2c 00 3c 3d 41 4d 30 bd
       0.030224752 0.08501129 0.0458986 -0.043042425
0002e0 14 0b 21 3e 7d 1a f1 3d 38 0a 8c 3d a7 05 54 bd
       0.15726882 0.1177263 0.068378866 -0.051763203
0002f0 7a e9 76 bd 1f 1f 0d 3c ea c3 02 bd f3 ce 94 bd
       -0.060281254 0.008613377 -0.03192512 -0.07266035
000300 27 7f f1 3d 7d 5b 29 3e 9e 30 1a bd 02 cf 43 bd
       0.117918305 0.16538806 -0.03764402 -0.04780484
000310 be ae 2e 3d 21 b9 59 3d bd e8 b1 3d 6c 91 95 3d
       0.042647116 0.05315507 0.086869694 0.07303128
000320 a9 a9 29 be af ec 59 bd 0f 90 44 3e 36 69 d4 3d
       -0.16568626 -0.053204235 0.19195579 0.1037163
000330 5e 90 12 3d ab 03 f5 bd 64 3e 45 be 9a 0b 73 be
       0.03578221 -0.1196359 -0.19262081 -0.23734894
000340 6a ea da bd 80 44 27 3d 55 01 f8 3d 2c 9e e1 3d
       -0.10689242 0.04083681 0.12109629 0.11016497
000350 e2 0b 4e be 71 48 1b be c4 89 51 bd 04 2c 58 3e
       -0.2012172 -0.15164353 -0.051156774 0.2111054
000360 72 8c 6a 3c 0e a9 8c bc 16 6e 05 3e 3a 8d 17 bd
       0.014315711 -0.017170455 0.13030276 -0.03699992
000370 61 b1 25 be 26 4a 3c 3e 14 ae 4a bd 31 c0 01 3d
       -0.16180946 0.1838766 -0.04948242 0.03167743
000380 a0 55 2f be 1b f5 5c 3e 2b 68 75 3e 6a 62 f6 3d
       -0.17122507 0.21577875 0.23965518 0.1203049
000390 95 7e e4 bd 11 6c 21 be 61 6f 01 be 1e 07 0d 3e
       -0.11156956 -0.1576388 -0.12640144 0.13772246
0003a0 b4 fa ae 3d 5e 20 62 3e 95 35 08 3e 32 ad 38 3d
       0.085439116 0.2208266 0.1330169 0.045087047
0003b0 d4 52 f6 bc f9 0c 31 be 88 a9 0b be 7a 19 1f be
       -0.030068792 -0.17290105 -0.1363889 -0.15537062
0003c0 61 d4 8b 3d 7a f4 bf bd 38 68 31 3a b1 b8 0c be
       0.068276174 -0.09372802 0.0006767544 -0.13742329
0003d0 c9 24 93 bd 92 58 6f be 4d d7 16 be c7 65 f4 3d
       -0.071847506 -0.2337363 -0.14730568 0.11933475
0003e0 b9 6f 0d bd 71 05 2d 3e dc 24 cd 3c 69 50 9e bd
       -0.034530375 0.16896607 0.02504199 -0.07730181
0003f0 88 9e be bc f2 93 a5 bd bc 00 d1 bc 04 ba 38 be
       -0.023268953 -0.08084859 -0.025513045 -0.1803971

bn1.weight f4 [32]
000000 76 af 84 3f 1d 67 85 3f 60 76 76 3f e4 60 8a 3f
       1.0366046 1.0422093 0.96274376 1.0810819
000010 96 4d 7f 3f c5 96 77 3f b2 e7 84 3f 9f c8 86 3f
       0.9972776 0.9671443 1.0383208 1.0529975
000020 5a 9b 7e 3f 30 42 7d 3f f4 77 81 3f 0e 91 78 3f
       0.994558 0.9892912 1.0114732 0.97096336
000030 22 0b 7b 3f ab 01 7b 3f 5a 80 80 3f 14 2e 7a 3f
       0.9806386 0.9804942 1.003917 0.9772656
000040 8f ac 7a 3f 57 13 7e 3f 76 e6 7e 3f 9b 6c 86 3f
       0.97919554 0.9924826 0.99570405 1.0501894
000050 33 5c 85 3f f4 11 7e 3f 56 bc 89 3f 74 33 83 3f
       1.0418762 0.99246144 1.07606 1.0250077
000060 6e fd 81 3f d2 fa 85 3f c7 31 86 3f 3a 7c 75 3f
       1.0155466 1.0467169 1.0483941 0.9589268
000070 fb bd 83 3f 15 e3 70 3f dc 51 80 3f 2c 5a 81 3f
       1.0292352 0.940965 1.0024981 1.0105643

bn1.bias f4 [32]
000000 db 0f 16 3c ff 3f 45 3c d4 6c 29 3d e6 a4 97 bb
       0.009159054 0.012039184 0.041363552 -0.0046278117
000010 03 6c 86 bc 10 40 17 bd 1c da 3c 3d 6b b3 17 bc
       -0.016408926 -0.03692633 0.046106443 -0.009259085
000020 76 15 18 3d 42 12 cb bc f1 53 e9 3c 25 2d be bd
       0.03712984 -0.02478898 0.02848241 -0.092859544
000030 4d 09 29 3d 11 f4 08 bd 5c fd 77 3c e8 e5 36 bd
       0.041268636 -0.033435885 0.015136089 -0.04465285
000040 9a 60 c8 bb 89 9d 17 bd f0 14 41 3d b1 40 f9 3c
       -0.0061150314 -0.03701547 0.04713911 0.030426355
000050 ea c0 63 bb e1 fb 1c 3d b7 7b f9 bc 65 cc 84 3d
       -0.0034752437 0.038326148 -0.0304545 0.06484298
000060 dd 5f 3e 3b 86 7e 1c 3d e7 5e ec 3d fb 43 d3 bd
       0.0029048838 0.0382066 0.11541539 -0.103157006
000070 5f c2 9f 3d 1f e9 3c bd 66 26 39 3d e0 fb 98 bc
       0.07800745 -0.04612076 0.045202635 -0.01867479

bn1.running_mean f4 [32]
000000 f1 3f e9 3b 0e 80 18 bc 12 45 77 bb 0a 6c 38 bb
       0.007118218 -0.009307874 -0.0037730378 -0.0028140568
000010 52 a2 2c 3c 7b 9f 16 3c 7f a5 08 bc cb 1c 49 bb
       0.010536747 0.009193297 -0.008340239 -0.0030687328
000020 5a 9b ed bb e4 bf 70 3c 15 d8 0e 3b d0 c0 b3 3a
       -0.0072511854 0.014694188 0.0021796275 0.0013714079
000030 86 39 97 3b a5 c2 18 bc a0 f8 5e bc 6f 03 e9 3a
       0.0046150116 -0.009323751 -0.0136090815 0.0017777513
000040 31 e4 9b bc 7c 95 16 3b 09 0d 90 bb 4b 82 bd 39
       -0.019029709 0.0022977283 -0.004396085 0.00036145965
000050 7f 6d 1d bb db 8f 86 bb b7 a7 39 3c 01 00 3c b9
       -0.0024021564 -0.0041065044 0.01133149 -0.00017929079
000060 d1 1b c0 bc e0 ee 05 bb fa 0a 35 3c 23 96 c5 bb
       -0.023450764 -0.002043657 0.01104998 -0.0060298606
000070 90 51 13 39 8a 67 c5 3b a5 2b 07 3b e3 9c 56 38
       0.00014049397 0.0060243057 0.002062538 5.1167688e-05

bn1.running_var f4 [32]
000000 f2 11 f8 3e 92 25 65 3e 3e e8 d9 3e 78 20 01 3f
       0.4845119 0.22377613 0.4256 0.5044017
000010 db b7 76 3e 61 e5 0e 3f 22 8d c3 3e 97 10 82 3e
       0.24093573 0.55818754 0.38193613 0.25403282
000020 f6 b2 3c 3e c0 88 9d 3e 21 79 ad 3e b9 44 ea 3e
       0.18427643 0.30768394 0.33881477 0.45755556
000030 ac 14 98 3e 76 39 d6 3e 1f 3e a5 3e f3 da 02 3f
       0.2970327 0.41840714 0.32273957 0.5111534
000040 9e 65 d7 3e 8e 91 aa 3e 26 a3 6b 3e aa 17 89 3e
       0.42069715 0.33314174 0.23011455 0.26775867
000050 64 dd 4f 3e f2 2e c8 3e 29 f9 fa 3e a8 f3 b9 3e
       0.20299298 0.39098316 0.4901822 0.36318707
000060 4a 1b ed 3e 41 2e 97 3e 09 e1 fc 3e 89 66 07 3f
       0.46309882 0.29527476 0.49390438 0.5289083
000070 2b ca 93 3e ad 87 7e 3e 70 f0 d6 3e 52 30 42 3e
       0.2886518 0.24856444 0.41980314 0.18963745

conv2.weight f4 [64, 32, 5]
000000 76 0e fe 3d 46 19 8b 3d 33 34 1c bd 60 30 82 3d
       0.12405102 0.0679193 -0.03813572 0.06356883
000010 d4 74 07 3c 7c fe 20 bd 16 9b c7 bd 54 0f cd bc
       0.0082676 -0.039305195 -0.09746377 -0.025031723
000020 12 a6 d9 3c f9 0f f3 3c d2 f0 b2 bc 20 09 64 3d
       0.026568446 0.029670702 -0.021843348 0.055672765
000030 23 ad cc 3b 3e f3 b8 3d 5b 09 88 bd 49 3c da bc
       0.0062462254 0.0903077 -0.066424094 -0.026640074
000040 13 73 d0 bd 64 23 a5 bd 6a 64 d7 b8 a1 9b 59 3d
       -0.10178199 -0.08063391 -0.000102707025 0.053126935
000050 b1 5e c4 3c ad 50 d3 3d ca 89 24 3d 86 ac e0 3c
       0.023970934 0.10318122 0.04017047 0.027426016
000060 5b 27 15 3d 40 7c 76 3d 73 12 3b bd 56 28 57 3d
       0.036414485 0.060177088 -0.04567189 0.0525287
000070 6f 07 92 3c d4 48 65 bd 5e d4 ef 3a 06 16 2a bd
       0.01782581 -0.055977657 0.0018297543 -0.04152491
000080 8c d7 3c 3d 73 c3 80 bd 54 99 f1 3c 56 8b 74 3d
       0.046104 -0.06287279 0.029492058 0.059703194
000090 83 32 37 bd 9a 09 95 3d bd bd 0e bc 0e c9 c7 3c
       -0.044725906 0.07277222 -0.008712229 0.024387863
0000a0 14 2f ab bc 57 7a 05 be 3a b2 ce 3d dd c8 d1 3d
       -0.020896472 -0.1303495 0.10092588 0.1024339
0000b0 3b c7 c3 3c 94 a5 b2 bd 6f 6d f3 bc 72 ac 67 bc
       0.023898711 -0.08722988 -0.029715268 -0.014140235
0000c0 03 bf 56 bc 40 33 b4 3c 62 ce 60 3d fd 98 ad 3d
       -0.013107064 0.021997094 0.054884322 0.08476446
0000d0 6c b0 52 bc ab 4a d7 bb aa 17 58 bc 4a c1 d7 bd
       -0.012859445 -0.0065701804 -0.013189236 -0.10534914
0000e0 e7 5f da bd f7 dd 96 bd ce 9f b1 3c 6e f6 c6 bd
       -0.10662823 -0.07366555 0.021682646 -0.097149715
0000f0 5b f1 b3 bd 10 33 51 3d 4d 54 3a 3d 5b b8 ac 3d
       -0.08786269 0.051074088 0.04549055 0.084336005
000100 47 f2 f0 bd a4 0b 30 bd c8 85 bf 3c 53 b4 4c 3d
       -0.11764961 -0.04297985 0.023379222 0.049976658
000110 42 df a1 3c 16 d0 21 3c af c6 aa 3a c9 dd 35 3d
       0.019759778 0.009876272 0.0013029183 0.044400964
000120 61 ee 9d bd 0d 50 fc bc a2 0a 18 3d c3 49 66 bd
       -0.07711483 -0.03079989 0.037119515 -0.05622269
000130 49 a3 c7 bd a1 4d c1 b8 40 6f 65 bb 0a 5e 9c 3c
       -0.09747941 -9.217417e-05 -0.0035008937 0.01908781
000140 38 ac 8a bd 8d 3a 5d bd 6a 5d 7a 3d a5 3b 4e bd
       -0.06771129 -0.054010917 0.061124243 -0.05034985
000150 2c f3 c2 3c 27 be 48 3b f6 40 71 bd 66 9b 76 3d
       0.023797594 0.0030630918 -0.058899842 0.060206793
000160 17 7b 03 bd 09 e8 19 bd 85 e0 b1 3c 4a 7f 24 3b
       -0.03209981 -0.0375748 0.021713505 0.0025100284
000170 b0 d4 5a bd a0 b8 4b 3d ad cb 58 3d 18 24 ac bd
       -0.05342549 0.04973662 0.052928615 -0.08405322
000180 4a 1b 48 bd 0e 36 ba 3d 32 4e 6a 3d 77 45 f7 3c
       -0.04885415 0.09092341 0.05720348 0.03018449
000190 05 d8 93 bd c5 0e 86 bd fb 68 f4 3c 07 e2 61 bb
       -0.07218937 -0.06545786 0.029835215 -0.0034466998
0001a0 97 06 9a bd 27 77 1c 3d 32 51 1f 3c 79 77 05 bd
       -0.07520788 0.03819957 0.009723948 -0.03258464
0001b0 fb e5 06 bc 64 52 31 bd b5 72 84 3d d1 66 01 3d
       -0.008233543 -0.043291464 0.06467191 0.031592194
0001c0 f1 d2 b4 bd 6d 79 fb bd 77 e4 26 bc a3 ad 10 3d
       -0.088292964 -0.122790195 -0.010186306 0.035321843
0001d0 3d aa fd 3b b0 d0 bf 3d ed 58 04 3d c8 aa b7 3d
       0.0077412413 0.09365976 0.03231137 0.08968121
0001e0 34 f6 30 3d d4 93 41 bd 3d 75 32 3d d0 bb 9c bd
       0.043203548 -0.04726012 0.04356884 -0.0765301
0001f0 9c cd 81 bd 84 39 e0 3c b4 d3 94 bc e7 90 28 3d
       -0.06338045 0.027371176 -0.018167354 0.041153815
000200 6f 22 01 bd 4b 71 77 b6 d0 d1 a5 bc 30 9a a3 3d
       -0.03152698 -3.6871813e-06 -0.020241648 0.07988393
000210 86 31 8f bb 26 65 8e bd 39 fc b5 bb ed cd 49 3c
       -0.0043699173 -0.06952886 -0.005553749 0.012317163
000220 60 a5 60 3d 2c c3 81 bd ef d1 6b bd 01 5f ce bc
       0.054845214 -0.06336054 -0.057573255 -0.025191786
000230 c5 b7 06 bd 64 d1 cd 39 7d 70 9c ba 1e a9 49 bd
       -0.0328901 0.00039256655 -0.001193538 -0.04923355
000240 a1 17 0f 3d d7 04 1e 3d 50 8f d0 bc b3 69 df 3c
       0.034934644 0.038578834 -0.025458962 0.027272081
000250 5d af 83 3c 22 ef 74 3d 24 fc 66 bd e0 7d 3b bd
       0.01607483 0.059798367 -0.056392804 -0.04577434
000260 d2 39 a5 bc 64 c7 d3 bb 3a f2 6f 3d 73 3f 51 3c
       -0.020169172 -0.006462978 0.058580615 0.012771475
000270 95 c4 1b 3d bc 8e de 3b 33 7c b6 3d ad e2 89 bc
       0.038029272 0.0067919176 0.08910408 -0.01683172
000280 a7 90 d5 bd 00 3e 1c bc d8 ed de bc 59 35 d9 3c
       -0.10427981 -0.009536266 -0.027213022 0.026514696
000290 fd bc f1 bd 9f bb 73 bc b9 9d fa bc 02 bc 84 bd
       -0.11803625 -0.014876275 -0.030592786 -0.06481172
0002a0 ce 86 a8 3b 01 59 af bd 49 65 f3 bc 8a ac 4f bd
       0.005143023 -0.08561898 -0.029711382 -0.050701655
0002b0 0f 1f 27 3c a2 75 81 bd 98 25 80 3b ec a2 94 bd
       0.010200276 -0.06321265 0.0039107315 -0.072576374
0002c0 e4 c4 ec 3b 1b 56 8c 3d 87 54 84 bc 04 ab 03 be
       0.0072256196 0.06852361 -0.016153587 -0.12858206
0002d0 e0 c1 b0 bc 8e 6a 86 3d 38 48 fb bc 06 38 82 3d
       -0.021576822 0.065632924 -0.030674085 0.06358342
0002e0 f6 f0 ba 3d ab 87 cd 3c 81 12 8d 3d e7 cc 93 3d
       0.09127991 0.025089106 0.06888295 0.072168164
0002f0 b3 11 3c 3c fc 39 98 bd 39 00 9e 3d 7a a6 5e 3c
       0.011478829 -0.07432935 0.07714886 0.013589496
000300 28 a8 3a 3b ac 88 d7 3d 74 60 ab 3d 3a 82 48 3d
       0.0028481577 0.10524115 0.08368006 0.04895232
000310 67 06 c4 bc 35 a8 5d 3b 35 f8 4b 3d d8 32 04 3e
       -0.023928834 0.0033822183 0.049797256 0.1291002
000320 99 bc 83 3d d2 dc ba 3c fc 0e 89 bd cb fe 6b ba
       0.064324565 0.022810373 -0.06692311 -0.00090025057
000330 e9 fb 81 3d 44 c6 dd 3c 27 b9 52 3d c1 77 5c bc
       0.06346876 0.02707208 0.051446106 -0.013456286
000340 3d 75 f6 3b c0 fc 02 3d fb 24 b8 bc 23 32 85 3d
       0.0075213 0.031979322 -0.022478571 0.065037034
000350 6b 03 13 3d 39 77 db 3c 8f e6 f8 3c 6c 96 61 bd
       0.03589193 0.026790248 0.030383376 -0.055075094
000360 5c 9a d4 bd ff 18 ca bc 75 c8 df bc e4 a5 2c bd
       -0.10381004 -0.024670122 -0.027317265 -0.042150393
000370 a8 2b 84 bc 3a c8 ad bb 13 f7 9d 3d 0f 29 49 3d
       -0.016134098 -0.00530341 0.07713141 0.049111422
000380 68 74 0f bd 83 4f 40 bd 73 06 4c bd 32 3a 2c bd
       -0.035023123 -0.04695083 -0.049810838 -0.042047687
000390 3e e2 d0 3c 2e 05 88 3c a4 9a 39 3c 15 71 20 bd
       0.025498506 0.016604032 0.011328373 -0.039170343
0003a0 ec ec d4 3b c9 29 f8 bc 3c 8a de bd 4c 91 87 bc
       0.00649797 -0.030293362 -0.1086621 -0.016548775
0003b0 b1 48 0e bd 7c 01 90 bd 50 bb c1 bd 32 53 1c 3d
       -0.034737293 -0.07031533 -0.09459555 0.03816528
0003c0 60 1c 94 3d e8 4a cd bb 01 4f 88 3c e7 3b 14 bd
       0.072319746 -0.006265033 0.016639234 -0.03618994
0003d0 c4 36 e8 bc a3 69 b3 3d 93 3a 22 bd 4a c6 12 b9
       -0.028346427 0.08760383 -0.039606642 -0.00013997513
0003e0 56 b7 45 bd 36 61 88 3d 19 28 64 bd 54 5f 88 bc
       -0.048270546 0.066591665 -0.055702303 -0.016647018
0003f0 77 5f fd 3d 29 31 c9 3b 8b 72 e4 bc dd 6f 7b 3d
       0.12371724 0.0061398936 -0.02788665 0.061385978

bn2.weight f4 [64]
000000 c8 e5 71 3f 9f 86 7d 3f 4c d5 82 3f 83 4a 7e 3f
       0.94491243 0.9903354 1.0221343 0.99332446
000010 1e 7e 81 3f 04 36 78 3f 5a fc 7c 3f fe 37 76 3f
       1.0116613 0.9695742 0.9882256 0.9617919
000020 78 1a 77 3f 5e 66 6c 3f 24 47 85 3f a1 80 88 3f
       0.96524763 0.923437 1.0412335 1.0664254
000030 1e 0c 77 3f f2 4e 82 3f 27 54 6d 3f 9d 75 7f 3f
       0.96502864 1.0180342 0.9270653 0.9978884
000040 3b 20 89 3f cf 75 7f 3f 3f cb 79 3f e5 fb 7a 3f
       1.0712961 0.99789137 0.97575754 0.9804061
000050 45 50 7e 3f db bb 6d 3f 8b 0a 7f 3f ab 17 7b 3f
       0.9934123 0.9286477 0.9962546 0.9808299
000060 43 93 7f 3f c9 90 81 3f 35 86 8a 3f 16 13 75 3f
       0.9983408 1.012231 1.0822207 0.9573225
000070 c5 e8 80 3f b9 1d 84 3f 80 46 80 3f 7d 0f 7d 3f
       1.0071036 1.0321571 1.0021515 0.9885176
000080 bb 58 75 3f 55 e4 80 3f c3 4e 85 3f 28 65 84 3f
       0.95838517 1.0069681 1.0414661 1.034337
000090 2f bf 79 3f 6a 1b 76 3f bb bc 71 3f e2 be 82 3f
       0.9755735 0.9613558 0.94428605 1.0214503
0000a0 66 7f 81 3f c4 b7 79 3f ea 9e 71 3f 70 b8 83 3f
       1.0117004 0.9754603 0.9438311 1.0290661
0000b0 a2 b7 7d 3f 41 cc 82 3f 2b a9 6e 3f 5e 7f 76 3f
       0.99108326 1.0218583 0.9322688 0.96288097
0000c0 11 6d 80 3f 8c 36 77 3f 87 23 82 3f 9c 6c 6c 3f
       1.0033284 0.96567607 1.0167092 0.92353225
0000d0 99 6d 81 3f 91 f8 7a 3f 16 86 83 3f 29 7a 79 3f
       1.0111572 0.9803553 1.0275295 0.97452027
0000e0 56 6e 84 3f 5f ab 7b 3f be e1 83 3f da 16 7a 3f
       1.0346172 0.98308367 1.0303266 0.9769112
0000f0 fa a2 81 3f 12 77 82 3f 38 59 79 3f 28 96 85 3f
       1.0127861 1.0192587 0.9740176 1.0436449

bn2.bias f4 [64]
000000 a8 97 cc bd 9b d3 e0 bd 31 d7 c6 bd cc 26 79 bd
       -0.09989864 -0.109778605 -0.09709013 -0.060828015
000010 a5 45 0d bd 85 a6 39 bd 8a 7e e5 bb b1 46 96 bd
       -0.034490246 -0.04532482 -0.00700361 -0.07337702
000020 27 45 8d bd b5 00 d4 bd 78 0f d1 bd 22 5b 51 bd
       -0.068979554 -0.10351697 -0.102080286 -0.0511123
000030 4b 5d a1 bd 79 50 e8 bd f2 14 ae bd d9 17 a7 bd
       -0.07879122 -0.11343474 -0.08500089 -0.081588455
000040 b4 a0 3c bd 70 70 04 bd 56 d1 4c bd 9f 98 d4 bd
       -0.046051696 -0.03233379 -0.050004326 -0.10380673
000050 77 02 84 bc 32 3f 7f bd cc e8 31 bd a3 e1 a5 bd
       -0.016114457 -0.062316127 -0.043434903 -0.080996774
000060 d9 a2 cd bd e5 ce a5 bd f6 30 2d bc 34 09 4d bd
       -0.10040826 -0.080961026 -0.010570755 -0.050057605
000070 8d ff 23 bd 3c d4 a3 bd ed 58 63 bc cb c5 1d bb
       -0.040038634 -0.07999465 -0.013876182 -0.0024074193
000080 6e 3a 78 bd 74 74 e1 bc 50 ed 78 bd eb c7 29 be
       -0.060602598 -0.02752135 -0.060773194 -0.16580169
000090 70 d9 94 3b af 8a 5e bd b5 8f 8e bd 85 95 ce bd
       0.004542522 -0.054331478 -0.06961004 -0.10087112
0000a0 fb 28 42 bd 9d 97 c9 bd f8 df b6 bd e0 1d 75 bd
       -0.047402363 -0.09843371 -0.089294374 -0.059842944
0000b0 d0 fe d2 bd da f0 f4 bd 0a 8a d1 bd 49 51 a6 bd
       -0.10302508 -0.11960001 -0.10231407 -0.08120973
0000c0 58 b1 dc bd 9c 9d 75 bd c6 f3 b0 bc e0 1b 7c bd
       -0.10776013 -0.05996476 -0.021600615 -0.06155002
0000d0 ec 07 bd bd b5 f5 15 bc 38 87 f8 bd 4d 4e fb bd
       -0.092300266 -0.009152819 -0.12135166 -0.12270794
0000e0 83 85 94 bd e0 9d f7 bd f6 36 bd bd 2f a4 12 be
       -0.07252028 -0.12090659 -0.092389986 -0.14320444
0000f0 22 fc a5 bd 14 df 4b bc b5 6e 90 bd 4b 3b 18 bc
       -0.08104731 -0.012443323 -0.07052366 -0.00929148

bn2.running_mean f4 [64]
000000 34 b2 91 bd 07 8a 89 bd f0 70 b5 be 41 0d 97 3e
       -0.07114068 -0.0671578 -0.35437727 0.295023
000010 4b 9e 96 bf e3 54 41 bf c2 7f 21 bf 8e 88 f4 3e
       -1.1767057 -0.7552015 -0.6308557 0.47760433
000020 4d b7 d1 be 78 a6 c7 3c 96 39 83 3d af e2 f5 be
       -0.4096016 0.02437137 0.06407468 -0.48024508
000030 fd 1e a4 3e ec 21 07 bf b5 f2 34 3f d7 43 a1 be
       0.32054892 -0.52786136 0.7068284 -0.3149707
000040 1b ff dc be 11 0f b1 be a6 8d 2a bf 73 5d 90 be
       -0.4316338 -0.34581807 -0.6662239 -0.28196296
000050 56 fb 45 bf b8 eb a8 3e 67 7b 0e 3f e8 64 7c bf
       -0.77336633 0.3299234 0.5565705 -0.9859147
000060 f2 b3 0a 3e 4d c8 0a bf ae d4 07 3e 25 02 d1 3e
       0.13545206 -0.54211885 0.13264725 0.4082195
000070 24 f6 5c bf 28 a4 a6 be 59 59 f9 bd 0e 47 e7 3e
       -0.8631308 -0.32547116 -0.12175245 0.45171398
000080 61 8e 1d bf fd a8 2c bf 2f 7c fd bd 73 b3 59 be
       -0.6154538 -0.67445356 -0.12377202 -0.2125986
000090 33 d3 b4 3f e5 01 d4 be 4c a9 6d bf c6 df b5 be
       1.4126953 -0.41407695 -0.9283645 -0.35522288
0000a0 98 e7 fc be 90 49 f0 be 46 48 34 3e 81 0c 23 bf
       -0.49395442 -0.46931124 0.17605695 -0.63690954
0000b0 95 57 22 bf cf b4 ed be b0 b8 40 3d 3e 6b ea 3b
       -0.6341489 -0.46427009 0.04705113 0.0071538975
0000c0 af 54 cb be c2 13 17 bf 2d 65 09 3f 0d 4d 4f bd
       -0.39713046 -0.59014523 0.53670007 -0.05061059
0000d0 32 5d 25 bf 69 f9 a7 bd 3d 57 16 bf 0d 6d 57 3e
       -0.6459533 -0.08201868 -0.58726865 0.21037693
0000e0 5d 43 16 bf cc 68 15 bf 8a ab 0f bf 77 3b ed be
       -0.5869654 -0.5836303 -0.5612112 -0.4633443
0000f0 a0 2d 4b bf 94 16 75 bd 41 3a 30 3f 3e 0d 20 bf
       -0.79366493 -0.059835985 0.6883889 -0.62520206

bn2.running_var f4 [64]
000000 d7 aa 73 3e 44 07 30 3e ca 77 6d 3e 6d c8 4a 3e
       0.23795639 0.17190272 0.23190227 0.19803019
000010 ed fd af 3e 3d e3 af 3e da 80 a4 3e d9 94 97 3e
       0.34373417 0.34353057 0.32129556 0.2960575
000020 9d ef 1f 3e 01 2c 44 3e 2d e1 e9 3e c0 90 a4 3e
       0.15618749 0.19157411 0.45679608 0.32141685
000030 f9 cf 8c 3e d2 dd 72 3e 84 c6 ed 3e 85 ff 89 3e
       0.2750242 0.2371743 0.46440518 0.26952758
000040 a3 1a 1a 3f 47 25 ed 3e 95 4c 50 3e 01 db 4e 3e
       0.60196894 0.46317503 0.20341714 0.20200731
000050 18 12 b5 3e 65 51 5e 3e 51 d4 9f 3e 9e 9d 6c 3f
       0.35365367 0.21710737 0.31216672 0.92428005
000060 25 e3 89 3e ec 21 7b 3e 30 6e 8c 3e 56 47 77 3e
       0.2693111 0.24524659 0.27427816 0.24148306
000070 cf c4 12 3f 28 1c 91 3e 6e 0c 92 3e e8 4c e9 3e
       0.57331556 0.28341794 0.28525108 0.45566487
000080 a8 cc c2 3e 2b 7b 97 3e 73 4d df 3e ed 70 5b 3e
       0.38046765 0.29586157 0.43613777 0.21429797
000090 fb af 02 3f 32 9f 80 3e 05 eb e1 3e 93 3f 87 3e
       0.51049775 0.25121456 0.44124618 0.2641569
0000a0 4b dc aa 3e be 26 d7 3e 53 6e 1c 3e d4 79 8e 3e
       0.33371195 0.42021745 0.1527646 0.27827322
0000b0 c8 02 b4 3e a0 22 fc 3e 98 df 91 3e aa a8 19 3e
       0.35158372 0.49245167 0.284909 0.15005746
0000c0 58 53 8b 3e 55 4c 96 3e 88 0f 51 3e 47 ce 77 3e
       0.27212024 0.29355112 0.20416081 0.24199782
0000d0 50 77 b4 3e 1b b8 ef 3e 43 f2 8b 3e 94 10 cc 3e
       0.35247278 0.4682015 0.2733327 0.39856398
0000e0 04 aa a6 3e 07 89 8d 3e a0 69 61 3e 1e ab d5 3e
       0.32551587 0.27643606 0.22012949 0.41732115
0000f0 78 ac f0 3e 4a 5c 7b 3e f6 46 a7 3e 0f c0 ed 3e
       0.47006583 0.24546924 0.32671326 0.46435592

conv3.weight f4 [128, 64, 3]
000000 60 46 90 3d a1 1c d9 3d 32 58 29 bd 89 cc 24 3d
       0.07044673 0.10601164 -0.041343875 0.040234122
000010 e0 d0 8a 3d b9 76 91 bc ce c2 ca 3c e9 bf 58 3c
       0.06778121 -0.017756807 0.024751093 0.013229349
000020 63 74 3a 3d 8a d8 9d 3d 41 1d 4e 3d 21 87 29 3d
       0.04552115 0.07707317 0.050320867 0.041388635
000030 48 c6 0f bd ca 9b 24 bd 6a 9f de bd cc f5 cc 3c
       -0.035101205 -0.040187635 -0.108702496 0.025019549
000040 91 dc f4 bc af 01 08 3c d4 08 e7 bc 5e 32 3d 3b
       -0.02989033 0.008301183 -0.028202452 0.0028869133
000050 2e 68 9a bd d1 e1 43 3d fd ea 60 3d 5c 1a ba 3c
       -0.07539402 0.047822777 0.054911602 0.022717647
000060 15 d0 10 bc b5 bb 4f 3d 01 75 92 bb 10 03 97 3d
       -0.008838673 0.05071612 -0.0044695144 0.07373631
000070 bc 78 01 3e c9 6d e1 3d 4b fe b7 bd 94 cd 78 3c
       0.12643713 0.11007268 -0.089840494 0.015185732
000080 63 ac 03 3c 3f ac 41 3d cb 0d 0f 3d 99 9c 44 3b
       0.008036706 0.047283407 0.034925263 0.0030000566
000090 71 7b f2 3c 86 01 97 3c 94 e3 2f 3d db 50 76 3c
       0.029599877 0.018433344 0.042941645 0.015033926
0000a0 aa b4 ee bc b4 71 36 bd 5e cf 0f bc 6e d2 8d 3c
       -0.029138882 -0.04454203 -0.0087774675 0.017312255
0000b0 e4 56 92 bd 47 71 17 3d 86 8f 20 3d d5 50 5d bc
       -0.07145479 0.036973264 0.039199375 -0.013508041
0000c0 f5 ea b0 bc 0a 60 e4 bb f0 f4 c5 bd 28 da d1 3d
       -0.021596411 -0.0069694566 -0.09665859 0.10246688
0000d0 1b e0 3e 3d 54 e6 91 3c 36 f6 5b 3c c7 43 fc 3d
       0.046600442 0.017810024 0.0134254005 0.12317615
0000e0 e8 03 b2 3b c7 bb 2d bd 8f 5a 01 3e dc ae 57 3d
       0.0054325946 -0.042415407 0.12632202 0.052656993
0000f0 8d b8 d5 3c f8 7a d0 3c fe 3f 0e 3d d2 bc 65 3c
       0.026088977 0.025449261 0.034728996 0.014022069
000100 f4 89 0f bd fb 5c b8 bd 49 52 38 bd 65 e0 85 bd
       -0.03504367 -0.090021096 -0.04500035 -0.065369405
000110 b8 53 95 bd ea 1d 21 3d 09 bf ed 3c a1 e1 ec bc
       -0.07291359 0.03933517 0.029021757 -0.028916182
000120 1d 7d e2 3c ea c9 84 3d bb fd 57 3d c7 ee 13 bc
       0.02764755 0.064838246 0.05273221 -0.009029097
000130 fe 40 b7 bc 8b 66 22 3d 14 64 1e 3d 15 d0 49 3d
       -0.022369858 0.039648574 0.03866966 0.049270708
000140 e7 bd 2c 3d 05 eb 4e 3c 8e 18 91 bb a8 4c 74 3c
       0.042173292 0.012629275 -0.004427976 0.014910854
000150 26 fe 5a 3d 94 7b 68 bd 00 a0 5c 3d e9 02 23 3d
       0.05346503 -0.05675848 0.053863525 0.039797697
000160 e4 8e b0 3d 3a 10 4c 3b f3 8d 3b 3d 8f ea 96 3d
       0.08621004 0.0031137601 0.04578967 0.07368957
000170 3b 95 99 3d 1b c3 4f bd d3 df 4b 3d 38 0f 44 3d
       0.074991666 -0.050723176 0.049774002 0.047866076
000180 d0 b5 ad ba 8b 73 3e 3d 45 90 3d 3c a4 f2 4b 3c
       -0.0013253037 0.04649691 0.011570041 0.012447987
000190 cc 94 c9 bd 52 f6 aa bd 2d 02 b8 bc 72 77 6d bd
       -0.09842834 -0.08347763 -0.022461975 -0.05797524
0001a0 1c e7 5c bd e0 bb 8f bd 82 f8 42 3a ad 97 c8 3c
       -0.05393134 -0.07018256 0.0007437543 0.024486387
0001b0 03 67 82 bd 74 72 89 bd aa 8f 2d bc 88 fe 91 3c
       -0.06367304 -0.06711283 -0.010593334 0.017821565
0001c0 8e bf eb bc 82 ff 8f 3d a0 cc 9d bc 21 19 52 3d
       -0.028777864 0.07031156 -0.019262612 0.051293496
0001d0 67 55 32 bd 08 7f 4b bc bb dc 4f 3d b1 ce 0a bc
       -0.043538477 -0.012420423 0.050747614 -0.008472131
0001e0 19 8a 20 bd a8 83 f8 bc ac 98 90 bc ea 3d 5e 3d
       -0.0391942 -0.030336216 -0.017650925 0.054258265
0001f0 85 24 76 bd bb cd 85 bd bd a8 9f 3c f6 bb 24 3d
       -0.06009342 -0.065333806 0.01948964 0.040218316
000200 83 96 65 3c af dc 40 3d 84 89 92 3d 27 ab 44 3d
       0.014012936 0.04708546 0.07155135 0.048014786
000210 f3 2d 52 bc 8e f9 d9 3d ed 3f c9 bc 86 f0 8e bd
       -0.012828338 0.10643302 -0.024566615 -0.0697947
000220 50 5c 9a bd 2c 92 88 bd 2d f1 20 3d 39 d4 fd 3b
       -0.075371385 -0.06668505 0.039292503 0.007746246
000230 e9 f8 4c 3c 9c c9 4d 3d ad 50 5d 3d 75 58 60 3d
       0.012510517 0.050241098 0.054032017 0.05477186
000240 7b 04 81 3c 33 1b 88 3d 2d 8f ae 3d 1a 0e 69 3d
       0.015749207 0.06645813 0.08523402 0.056898214
000250 15 f2 39 3d db 56 20 3d 13 68 5b bd aa d4 10 3c
       0.045396883 0.03914533 -0.05356605 0.008839766
000260 c1 03 97 bd a2 da d7 3c 73 8b 4b 3d 3b 47 2f 3d
       -0.07373763 0.02634937 0.049693536 0.04279254
000270 0c a2 15 3d 12 1a a3 3c f3 a3 02 bd e0 61 6c bd
       0.036531493 0.019909892 -0.031894635 -0.05771053
000280 c0 6f 88 bd fa 7b 4b bd 1e d3 22 bd 4c 7d 8e bd
       -0.066619396 -0.04967878 -0.03975212 -0.06957492
000290 d7 fc 60 bd a9 08 66 3d 15 aa 04 3d 85 42 33 3d
       -0.054928627 0.056160603 0.032388765 0.04376461
0002a0 2a ab 9d bc 18 c8 82 bd 59 c9 bf 3c d7 ca 9e 3c
       -0.019246656 -0.06385821 0.02341144 0.019383831
0002b0 ac 69 2d bc b0 7b 15 bd 8d 33 ce bd c2 c0 fd bc
       -0.010584276 -0.03649491 -0.10068426 -0.030975703
0002c0 63 04 cb bd c4 31 b5 3d a9 c0 d8 bb c2 ea e6 3d
       -0.09912946 0.08847383 -0.0066147638 0.11275245
0002d0 c7 72 34 3d f8 29 48 bc 40 41 ad 3c dc 9f 79 bd
       0.044054773 -0.012217037 0.021149278 -0.06094347
0002e0 c9 f4 98 bb e8 f2 de 3c 41 16 12 3d eb 38 21 bc
       -0.0046678525 0.027215436 0.035665754 -0.00984023
0002f0 86 4f aa 3c d1 cc c9 bd 0b 8a 8b bd 3e f0 4d 3c
       0.020789873 -0.09853519 -0.06813439 0.012569485
000300 bc ca f9 bb ba 93 16 bc aa f9 cb bc 4c 89 11 3d
       -0.007623045 -0.009190494 -0.024899323 0.035531327
000310 9d e3 c9 3d 29 52 fd 3c a5 c5 7a 3d d5 53 ca 3c
       0.09857867 0.030922966 0.061223645 0.024698177
000320 7b 0b 93 3b 7f 47 59 bc ac f7 28 bc 9a 82 16 3c
       0.0044874526 -0.013261675 -0.010312956 0.009186411
000330 fd 35 6e bc 37 c2 e4 3c d7 49 87 3c 2b 8c b5 bc
       -0.014539239 0.02792464 0.016514702 -0.022161564
000340 66 98 a8 bd 42 d0 37 bc 33 29 05 3c ef 1c 1c 3d
       -0.08232193 -0.011219086 0.008127498 0.03811353
000350 67 a2 6b 3b c0 92 89 bd 54 ec e3 bc 15 0b 4a bd
       0.0035954954 -0.067174435 -0.027822651 -0.049326975
000360 da 65 7d ba 4c ed 26 bd ab 6b df 3b 91 ba 15 3c
       -0.0009666361 -0.040753648 0.006818255 0.009138719
000370 b4 07 9e bc 3f a1 1d bd 10 63 76 bc 6d 32 4a bd
       -0.019290783 -0.038483854 -0.015038267 -0.049364496
000380 9f 43 9d bd 7f 07 d0 bd 77 94 cc bd 26 73 ec bd
       -0.07678913 -0.1015768 -0.09989255 -0.115454
000390 fb 4b 4b bc 07 9f 60 bb 92 67 2d bc f4 69 20 bc
       -0.012408252 -0.0034274475 -0.010583775 -0.009790886
0003a0 a4 53 8c bd af 02 8a bd a4 c7 f1 bb 98 57 4f bd
       -0.06851891 -0.06738793 -0.0073785353 -0.050620645
0003b0 96 74 b5 3c 42 7b 8c 3c 5c 79 9a 3c 10 ff 0d bd
       0.02215032 0.017148618 0.018856697 -0.034667075
0003c0 70 80 5f bd 94 69 78 bd c1 ee 16 bd 8a 69 aa 3c
       -0.054565847 -0.060647562 -0.036848787 0.020802278
0003d0 c8 3a d3 bc 74 35 c6 3c 6e e4 c8 3a 56 b4 b4 bc
       -0.025784865 0.02419541 0.0015326866 -0.022058647
0003e0 9a 23 b6 bc 0d 79 42 3d 28 90 80 3d ad 06 7a 3d
       -0.022233773 0.047478724 0.062774956 0.061041523
0003f0 e8 bc 4e 3d 49 dc 24 bb 65 d1 17 3c cd 38 57 3d
       0.050473124 -0.0025155714 0.009266232 0.052544404

bn3.weight f4 [128]
000000 98 17 8f 3f 3a 13 90 3f 71 de 8b 3f d6 ae 92 3f
       1.1179075 1.1255867 1.0927259 1.1459606
000010 fa 67 8a 3f 6f a6 88 3f 6e 85 8e 3f 37 de 9a 3f
       1.0812981 1.0675792 1.113447 1.2099065
000020 3b 1c 8b 3f 34 e8 8e 3f 3e 03 8e 3f 24 46 8b 3f
       1.086799 1.1164613 1.109474 1.088078
000030 75 9b 90 3f 2f dc 8f 3f 5a 2b 8e 3f 1b b6 90 3f
       1.1297442 1.123907 1.110698 1.1305574
000040 c8 d2 91 3f 1f 01 8d 3f 3a a0 95 3f 2e 3e 92 3f
       1.139245 1.1015967 1.1689522 1.1425226
000050 76 40 94 3f 7a d6 8c 3f 70 46 8e 3f 67 74 8b 3f
       1.1582172 1.1002953 1.1115246 1.0894898
000060 be 8b 8f 3f ff 7a 8f 3f f9 cf 92 3f d4 15 92 3f
       1.1214521 1.120941 1.1469718 1.1412911
000070 67 36 8c 3f 93 91 93 3f 1b 14 8e 3f 93 db 8e 3f
       1.0954102 1.1528801 1.1099886 1.1160759
000080 53 3f 8f 3f 24 cf 8e 3f 2d 04 96 3f 18 c7 8f 3f
       1.11912 1.1156964 1.1720024 1.1232634
000090 54 7c 8f 3f 42 59 90 3f 46 1b 91 3f 78 dd 92 3f
       1.1209817 1.1277239 1.1336448 1.1473837
0000a0 d2 04 90 3f 67 68 92 3f 11 85 8a 3f 2d eb 8e 3f
       1.1251471 1.1438111 1.0821859 1.116552
0000b0 6b 18 98 3f 74 93 89 3f e0 40 8c 3f da dc 8c 3f
       1.1882452 1.0748124 1.0957298 1.1004899
0000c0 39 35 90 3f 39 f1 8d 3f dd 09 97 3f 33 71 90 3f
       1.1266242 1.108924 1.1799885 1.1284546
0000d0 74 f1 90 3f 4f f0 95 3f 6c 41 94 3f da be 8d 3f
       1.1323686 1.1713961 1.1582465 1.1073868
0000e0 a2 db 92 3f 05 24 91 3f eb 32 92 3f 80 9c 91 3f
       1.1473277 1.1339117 1.1421789 1.1375885
0000f0 70 0b 8a 3f 30 db 92 3f 9c 2f 8d 3f 54 4d 8f 3f
       1.078474 1.1473141 1.1030154 1.1195474
000100 e8 84 8a 3f d9 52 8f 3f b5 0d 91 3f c5 9a 8d 3f
       1.082181 1.1197158 1.1332308 1.1062857
000110 fb b9 91 3f cc 2c 90 3f 29 eb 90 3f ef 09 93 3f
       1.1384882 1.1263671 1.1321765 1.1487406
000120 f0 98 8f 3f 94 68 92 3f 2c 72 91 3f 58 1b 93 3f
       1.1218548 1.1438165 1.1362967 1.149272
000130 62 8a 8f 3f ac 97 8e 3f 6c bf 90 3f 6b 1b 8b 3f
       1.1214106 1.1140037 1.1308417 1.0867742
000140 5f d9 91 3f 40 88 92 3f 2e c6 8c 3f 48 71 92 3f
       1.1394461 1.144783 1.099798 1.1440821
000150 96 b0 8f 3f 49 58 8e 3f 8b 77 92 3f b5 a2 8f 3f
       1.1225765 1.1120692 1.1442732 1.1221529
000160 b8 05 96 3f 41 8b 93 3f ff 44 90 3f d6 f3 8c 3f
       1.1720495 1.1526872 1.1271056 1.1011913
000170 da ee 8c 3f 57 a5 92 3f 67 7a 89 3f fc 26 90 3f
       1.1010392 1.1456708 1.0740479 1.1261897
000180 e6 29 92 3f c5 48 91 3f 39 d1 8d 3f 24 ba 8b 3f
       1.1419036 1.1350332 1.1079475 1.0916181
000190 27 dc 95 3f 72 f6 8e 3f 8c 71 92 3f c9 49 91 3f
       1.170781 1.1168959 1.1440902 1.1350642
0001a0 df 59 94 3f 18 1c 95 3f f2 82 91 3f e9 54 8f 3f
       1.1589926 1.1649199 1.1368086 1.1197788
0001b0 77 e4 8c 3f 2a 2c 9a 3f 49 45 8d 3f 25 e8 8b 3f
       1.1007222 1.2044728 1.1036769 1.093022
0001c0 a4 78 8f 3f 2c 3b 8e 3f 62 58 8d 3f ce 63 8f 3f
       1.1208692 1.1111808 1.1042597 1.1202333
0001d0 14 4b 90 3f 03 83 8b 3f 1a d0 8e 3f 7e e8 95 3f
       1.1272912 1.0899357 1.1157258 1.1711576
0001e0 55 62 8f 3f 43 0c 8d 3f 01 b3 8d 3f 2a 79 95 3f
       1.1201884 1.1019367 1.1070253 1.1677601
0001f0 25 c3 90 3f e6 09 96 3f fa fd 8e 3f a2 a1 92 3f
       1.1309553 1.1721771 1.1171257 1.1455576

bn3.bias f4 [128]
000000 bf 83 9f 3d e1 da 0c 3d 1c 75 eb 3c 8e 5f a5 3d
       0.077888004 0.034388427 0.028742366 0.08074866
000010 e8 1c 85 3d 2a ab e1 3c 9c 7e c2 3c ea 60 ef 3d
       0.06499654 0.027547438 0.023742013 0.11688407
000020 59 ce 89 3d 82 c9 97 3d 1e f5 7c 3d 3e 8e b3 3d
       0.06728811 0.074114814 0.0617572 0.08767365
000030 88 d0 88 3d 39 84 91 3d 96 0a 64 3d ca ef 92 3d
       0.06680399 0.071052976 0.055674158 0.071746424
000040 72 80 79 3d da a4 89 3d 38 77 82 3d 0e 49 b0 3d
       0.06091351 0.06720896 0.063703954 0.08607684
000050 0f e4 d2 3d c4 ff 7e 3d 12 45 af 3d d3 fb 77 3d
       0.10297405 0.062255636 0.08558096 0.060542893
000060 0d ce d8 3d ed bc 7c 3d 7a 3d 8c 3d a2 bd 00 3d
       0.10586176 0.06170361 0.06847663 0.031430848
000070 d2 13 51 3d d4 1f 02 3e 58 1a 87 3d ed 06 ae 3d
       0.051044293 0.12707454 0.065968215 0.08497415
000080 e1 cf 96 3d 40 54 8e 3d 2a ed 97 3d 82 0b 9e 3d
       0.073638685 0.06949663 0.07418282 0.07717039
000090 e5 73 98 3d 9a 29 8e 3d 58 e9 76 3d 40 88 c3 3d
       0.0744398 0.069415286 0.060281128 0.09547472
0000a0 51 83 a3 3d f8 75 9d 3d 98 c9 38 3d 7b 9b 46 3d
       0.07984031 0.076885164 0.04511413 0.04848812
0000b0 ac bc 9c 3d be 5b 09 3d 8d 30 28 3c a6 3e 83 3d
       0.07653174 0.033534758 0.010265482 0.064084336
0000c0 64 10 c7 3d 22 cc 55 3d bd b2 af 3d b7 b3 b1 3d
       0.09719923 0.05219663 0.085790135 0.08676856
0000d0 dc 8a 73 3d 77 b5 ec 3d b2 d3 bc 3d 9a ec 88 3d
       0.0594586 0.11558049 0.09220065 0.06685753
0000e0 35 36 92 3d 93 da aa 3d 84 74 b4 3d 71 ff 9e 3d
       0.071392454 0.08342471 0.08811286 0.07763565
0000f0 1d 2c 31 3d 84 3e 8c 3d c3 ad 7f 3d 50 b6 bc 3d
       0.04325496 0.068478614 0.06242157 0.09214461
000100 5e 54 12 3d c5 27 95 3d 71 6d a6 3d d5 9f 38 3d
       0.03572499 0.07282976 0.08126343 0.045074303
000110 0f 4e be 3d 29 d3 57 3d 52 ff 50 3c 54 31 e4 3d
       0.09292232 0.052691612 0.012756186 0.11142221
000120 1f 24 89 3d 7b 7f 8e 3c 21 87 6e 3d 6f 89 7c 3d
       0.06696343 0.017394772 0.058234338 0.061654504
000130 82 46 67 3d be df 2b 3d 7b ca 95 3d f4 b4 71 3d
       0.056463726 0.041961424 0.07314011 0.05901046
000140 eb ac a1 3d c0 28 b8 3d bc 26 97 3d c9 4f be 3d
       0.078943096 0.089921474 0.07380435 0.092925616
000150 7c 88 83 3d 38 64 77 3d a5 af 8f 3d 70 ec 8d 3d
       0.06422517 0.06039831 0.070159234 0.069298625
000160 88 42 a1 3d 13 26 a7 3d 72 d2 37 3d 41 e9 01 3d
       0.07874018 0.08161559 0.04487843 0.03171659
000170 d7 66 82 3d 11 87 22 3d 24 37 8e 3d d5 0c a4 3d
       0.063672714 0.03967959 0.06944111 0.0801026
000180 d7 16 90 3d c3 73 89 3d c0 bb 8b 3d 08 8c 2b 3d
       0.07035606 0.06711533 0.0682292 0.04188159
000190 e9 96 ae 3d a2 8b 94 3d 6a b7 d8 3d 11 f2 71 3d
       0.085248776 0.07253195 0.105818585 0.059068743
0001a0 6e f4 ab 3d 7e 13 9b 3d 3e 9c a2 3d 10 f9 8e 3d
       0.08396231 0.07572077 0.07939957 0.06981099
0001b0 1b 0b 92 3d 16 a2 80 3d 97 9a 8d 3d 3a ef d7 3c
       0.071310245 0.062809154 0.06914251 0.02635919
0001c0 4d 71 74 3d 95 48 8d 3d 56 c5 80 3d ab 79 89 3d
       0.059678365 0.068986095 0.06287639 0.067126594
0001d0 44 43 79 3d f5 1b 66 3d 81 0a 6e 3d 62 70 a5 3d
       0.060855165 0.056179006 0.058115486 0.08078076
0001e0 83 3d 59 3d 32 5f 75 3d 37 29 8a 3d a6 1c cc 3d
       0.053037178 0.05990524 0.06746142 0.09966402
0001f0 fa cc 8a 3d 3e 4d 8d 3d 6f 0c 14 3d ac a9 2f 3d
       0.067773774 0.068994984 0.03614467 0.04288642

bn3.running_mean f4 [128]
000000 a6 d5 d8 3e 9c 88 0b bf 87 52 2c 3f e4 29 58 be
       0.423505 -0.54505324 0.67313427 -0.2110973
000010 7b b5 82 bf 1c c5 2f bf be 3e 2b bf 23 b0 12 bf
       -1.0211633 -0.6866014 -0.6689261 -0.57300013
000020 80 08 ae 3e f2 48 0e 3f 0f 56 69 be 8c a6 89 3e
       0.3399086 0.55580056 -0.22786735 0.26884878
000030 4c 54 79 be a0 0e 82 bf 3b 22 6b 3f 6e 43 54 bf
       -0.24348563 -1.0160713 0.91849107 -0.8291539
000040 f7 06 f6 be 24 12 12 bf 27 d2 c8 be f2 f5 3f bf
       -0.4805219 -0.5705893 -0.39222834 -0.7498466
000050 9f d8 25 bf fa 31 da 3e 0f 10 48 bf 45 f4 ac 3e
       -0.6478366 0.42616254 -0.78149503 0.33780113
000060 cf a6 98 bf 87 9d 51 be 25 ee c0 be 59 bf 1b 3f
       -1.1925906 -0.20470248 -0.3768169 0.6083885
000070 1a 0b 4c be 8c 75 9c bf ec a3 89 3e f5 f8 ef 3e
       -0.1992611 -1.2223372 0.26882875 0.46869627
000080 cf ef a3 3e 88 41 0c bf ed d5 04 bf ee 58 c5 3e
       0.32018897 -0.5478749 -0.51888925 0.3854441
000090 27 fc 7f bf f3 3e 14 3f d4 99 82 be 12 aa 3a bf
       -0.9999413 0.5790855 -0.25507987 -0.72915757
0000a0 48 58 12 bf 1a d1 d0 be 8c fc 61 3f 11 fa 02 bf
       -0.57165956 -0.40784532 0.8827598 -0.5116282
0000b0 e1 ef 4b bf c6 c1 9b 3d 22 65 8e be 0e 3d 32 3f
       -0.796629 0.07605319 -0.27811533 0.6962441
0000c0 5d ec 7e bf 70 51 bd 3d 25 0e 37 bf 52 bf b9 3d
       -0.9957941 0.092440486 -0.7150596 0.090696946
0000d0 ba 83 b1 bd fb 46 5e bf 6a 07 72 bf a3 0c c3 be
       -0.08667703 -0.8682706 -0.9454256 -0.3809558
0000e0 b0 0e f7 be 99 15 04 bf 11 47 4a bf 48 07 07 be
       -0.48253393 -0.51595455 -0.7901469 -0.13186371
0000f0 53 00 a0 be 77 8e 46 bc 61 3f a2 3e d0 91 4a bf
       -0.31250247 -0.012118927 0.3168898 -0.7912874
000100 4f 11 22 3f 52 df f7 be 79 d2 00 bf b2 8d 96 be
       0.6330766 -0.48412567 -0.50321156 -0.2940498
000110 7a 0c fa 3e 45 99 a2 3e db d8 9c 3f f5 ec 83 bf
       0.48837644 0.3175756 1.2253679 -1.0306689
000120 96 26 33 3e ff 60 91 be 88 72 1d bf bd 35 f1 be
       0.17495188 -0.28394315 -0.61502886 -0.47111312
000130 d6 d2 3a be 22 0b 7f 3f db 58 9a be 74 a1 35 bf
       -0.1824449 0.9962636 -0.30145916 -0.7094948
000140 d2 a8 60 bf 7a 13 21 bf 4b ac 77 3d 0a 20 08 3f
       -0.877576 -0.62920344 0.060467046 0.5317389
000150 2d 1e 87 be c3 7e d3 3c 40 ea 31 bf fe 2b c6 bd
       -0.2639021 0.02581728 -0.6949806 -0.096763596
000160 74 54 5d be e1 01 30 3f 23 1c c6 3e a1 5d 8e 3f
       -0.21614248 0.68752867 0.38693342 1.1122323
000170 04 f0 f1 bc ab 73 34 bf 9f cd 89 bf c5 0d a8 3e
       -0.029533394 -0.70488995 -1.0765876 0.32823005
000180 5d c1 5c 3e bc 9e 47 3c de ef 92 3e 48 59 e5 3e
       0.21558137 0.012183841 0.2869863 0.4479468
000190 fd 6d e2 3e a2 3e 96 be 69 72 2f 3f b0 cd aa 3c
       0.4422454 -0.2934466 0.6853395 0.020850033
0001a0 a4 2f 8a be 07 b0 0b bf 06 2a 21 be 2c 9a b9 be
       -0.26989472 -0.5456547 -0.15738687 -0.36250436
0001b0 f4 f4 c2 bc 40 e3 15 bf 5c 2d 10 bf 1e 07 93 bb
       -0.023798443 -0.5854988 -0.5631921 -0.0044869324
0001c0 96 fa 1b be 0d 17 ff 3e 19 90 2f bd f5 fb 5c bf
       -0.1523231 0.49822274 -0.04286203 -0.86321956
0001d0 d6 97 83 be 49 b7 17 3f 2d 3a 32 3f 8f d7 19 bf
       -0.2570178 0.59264046 0.6962002 -0.6009454
0001e0 d1 7e f3 be 3f ff f8 3e ff b8 3c be cf 42 38 bf
       -0.4755769 0.48632237 -0.18429945 -0.7197694
0001f0 7e 9d 6e 3e 9a c7 18 bf 3d ab 0e 3f 9e 11 a0 3f
       0.23302266 -0.5967957 0.5573004 1.2505376

bn3.running_var f4 [128]
000000 ef 32 29 3e 2e 60 cb 3d 96 9e 43 3e 9d fa 12 3e
       0.16523336 0.09930454 0.19103464 0.14353414
000010 43 84 4e 3e b5 0b 61 3e a3 96 1d 3e 35 a6 dd 3d
       0.20167641 0.21977122 0.15389495 0.10822717
000020 9f ba 1b 3e 06 4f 82 3e f0 75 18 3e ca f1 a5 3e
       0.15207909 0.25450915 0.1488874 0.32411033
000030 41 36 22 3e d3 37 09 3e 06 79 aa 3e 15 cd 12 3e
       0.15841009 0.13400201 0.3329546 0.14336045
000040 d9 15 d5 3d cf 59 5d 3e 49 73 24 3e 91 25 0b 3e
       0.10404558 0.2161629 0.16059603 0.13588549
000050 44 13 ce 3d f2 d3 17 3e 88 8e 6b 3e 61 d0 5a 3e
       0.100622684 0.14826944 0.2300359 0.21368553
000060 ed f9 47 3e ed b2 02 3e e6 b7 27 3e 67 06 82 3e
       0.19528933 0.12763567 0.16378745 0.2539551
000070 09 c7 09 3e 02 58 46 3e 78 f4 26 3e 2c c3 96 3e
       0.13454832 0.1936951 0.16304195 0.2944578
000080 54 fb 2d 3e f5 a4 20 3e d3 22 dc 3d 8e e3 8d 3e
       0.16990405 0.15687926 0.1074883 0.27712673
000090 e5 27 07 3e 5c 09 33 3e 5a e9 1f 3e 94 4a c4 3d
       0.13198812 0.17484039 0.1561636 0.09584537
0000a0 b5 1b ce 3d 91 c0 10 3e 7e 56 a2 3e 86 82 65 3e
       0.100638784 0.14135958 0.31706613 0.22413072
0000b0 51 17 f2 3d fd 25 a7 3e 06 4c 0f 3e 56 bd 44 3e
       0.118208535 0.3264617 0.13993844 0.19212851
0000c0 f9 85 d2 3d 46 20 7c 3e 65 2c ea 3d 01 f0 0a 3e
       0.102794595 0.24621686 0.11434249 0.13568117
0000d0 77 9a 17 3e bf 95 f1 3d ff fa 00 3e 4a f0 f6 3d
       0.14805017 0.1179614 0.12595747 0.1205755
0000e0 76 e8 1a 3e 4c 8c 45 3e 26 2d bf 3d 49 fb 2a 3e
       0.1512774 0.192918 0.09334783 0.1669742
0000f0 f7 e7 89 3e e4 df 1b 3e 8b 51 20 3e 6d 55 0d 3e
       0.26934788 0.15222126 0.15656106 0.13802119
000100 69 65 0b 3f 96 b3 27 3e 42 f1 53 3e 43 1a 12 3e
       0.54451615 0.163771 0.20697501 0.1426783
000110 ef 90 34 3e da 0c 10 3e f7 22 70 3e d6 c9 ea 3d
       0.17633413 0.14067402 0.23450838 0.114642784
000120 b6 bb ec 3d be 96 03 3e 95 a6 fd 3d b6 9e f6 3d
       0.115592405 0.12850472 0.123852886 0.120419905
000130 c9 ef 17 3e 43 6d ac 3e aa 05 38 3e 4b 9d 78 3e
       0.14837565 0.3367711 0.1797091 0.24278753
000140 0d 2e 5b 3e f4 bc 00 3e 09 fb 0d 3e 9f 72 a0 3e
       0.21404286 0.1257208 0.13865294 0.3133745
000150 29 3e 2f 3e 00 5d 04 3e c0 a7 0e 3e f1 1c 11 3e
       0.17113556 0.12926102 0.13931179 0.14171197
000160 73 b2 30 3e f4 8e 8a 3e 4b 48 45 3e 7f 0c b0 3e
       0.17255573 0.2706219 0.19265859 0.34384534
000170 8f c4 1e 3e 26 26 05 3e 01 58 3d 3e b8 33 19 3e
       0.15504669 0.13002834 0.18490602 0.14961135
000180 98 b4 4d 3e 18 71 21 3e 11 a7 20 3e 15 e8 a1 3e
       0.20088422 0.15765798 0.15688731 0.31622377
000190 98 d8 d3 3e ea 9e e1 3d 5a bf 49 3e 08 50 fa 3d
       0.41376185 0.110166386 0.19701901 0.12222296
0001a0 ca bc 4e 3e 10 2c cb 3d 27 eb 01 3e 31 0e 58 3e
       0.20189205 0.09920514 0.1268736 0.21099164
0001b0 f1 82 03 3e 16 4a e6 3d 92 44 14 3e a7 72 d3 3e
       0.12842919 0.112445995 0.14479282 0.4129841
0001c0 ab 7e f6 3d ca f3 38 3e 7f a0 0b 3e cc 68 53 3e
       0.12035879 0.18061748 0.13635443 0.20645446
0001d0 c1 4e 2c 3e 6e b4 2c 3e d7 dc 80 3e 5a 3c fb 3d
       0.16826917 0.16865703 0.25168487 0.122673705
0001e0 e9 71 e8 3d 68 4b 9c 3e 1e c7 d3 3d 8f 82 eb 3d
       0.11349852 0.3052628 0.10340713 0.114995115
0001f0 7a 9c 1f 3e 39 f6 80 3e 52 fe a1 3e 8c d7 70 3e
       0.15587035 0.25187853 0.31639344 0.23519725
