runs/20260226_205618/best.pt (torch, 215157 bytes, 18 tensors)

conv1.weight f4 [32, 3, 7]
00000000: 6439 1a3e f307 3c3e 4b1c 91bc 14a0 3a3e
00000010: e009 1ebd 2af7 3a3d 400b cabd 6cb9 443e
00000020: f89e 463e de98 92bd df5d 3e3e 80b7 1d3e
00000030: 3372 743e 65f9 003e 3a8b ab3d 3c7f 46bd
00000040: 5a17 2a3e fac6 553d 2056 aabd 08ae 8d3d
00000050: cea5 7fbd 0ae5 c73c 4140 cabc 4df5 613e
00000060: 72dc 12be 0f81 3cbd f867 5739 33cf 89bd
00000070: 2cc2 8c3c ffb6 72be 522b 5c3e 7fda 42be
00000080: 223a 2c3e 19e0 323d af68 6bbd 548c d93d
00000090: cc8b 5e3d 175f 443e bf57 403c 1023 97bd
000000a0: 9f59 28bb 2e0f 56bd 46b8 fe3d 389d 683e
000000b0: 53d7 273e a8d6 43bd e6c5 323e ab89 fb3d
000000c0: 229a 293e baac f6bd 9fb4 39be f750 53bd
000000d0: 653b 06be b884 503e e8c2 ba3d ad80 f43d
000000e0: bc24 573d a233 16bc 3b85 1f3e 25e5 1fbe
000000f0: f35d 963b f8b8 0bbe f627 643d 57cc 2bbd
00000100: 91a9 a43d 7064 bbbc 0923 4a3e 5360 b0bd
00000110: 71b1 9ebd ca6a debd 193c 783e 91e1 273e
00000120: 2f0f 733e 0a0f 1cbe 944b 4dbe e25f 1bbe
00000130: 83b4 22be c34e 5c3d 2313 9e3d 75b2 173e
00000140: 32e3 f5bd 2b23 19be 8891 993d bd6a ddbd
00000150: 054e 133e 1c16 76bd 2560 fd3d eebe 20be
00000160: 70a7 edbd 481f 933d 2cea 593d 67af 90bc
00000170: 0c5a 483e ba7a 583e d648 42be 8078 06be
00000180: d481 783e bbc7 70bd 2a41 a9bd cc7f 22be
00000190: d6df 05bd cccf a73d 0c5d dbbc 7574 e5bd
000001a0: e7c1 623c 5b92 febd be4a 35be 4bc4 d3bd
000001b0: c05a 2abe 3133 07be 6e18 6d3e 3375 823d
000001c0: 693a d93d 81e8 50be 1f20 d6bd 629d 533c
000001d0: b79e dd3d 1782 ffbd 7677 1cbd a690 99bd
000001e0: a2af e6bb 60de ccbd 6e05 03be eaab 78be
000001f0: 5ec8 5abe 4c8e 03be ad4e 7fbd 2fbd 22be
00000200: 2da6 3e3e 5c37 4abd 81c5 463e 1c27 b73d
00000210: 8d77 16be 1db6 513e 2136 7abc 8330 61bd
00000220: cf2f 40be 4224 4bbe ca36 863d 9502 4bbd
00000230: 71a7 153d 37f4 41be ee2d 2a3e 55be 06be
00000240: 5934 bd3c fb65 de3d 907e 463e 61d8 223e
00000250: a754 4e3e 5cab 0fbe a099 9f3d 7796 dabd
00000260: 0e1d 87bc 8ee9 23be c149 433e 8154 4ebe
00000270: 53c1 a93d ded1 b13d 9b12 d13c 9e43 77be
00000280: 0e9f 203e 288f 8e3c a1cd b43b 14b4 1dbe
00000290: 5d9a f03d 1f1d 8e3c c409 47bc 100e 743e
000002a0: 34f1 b23d bfed b8bd b317 a3bd fdcf a53c
000002b0: 6966 293e acd7 18bc ab79 afbd ad88 b3bd
000002c0: 3027 62be d305 983d 7bfd 3c3e 97a8 4abe
000002d0: f149 013e fb63 c03d f423 f33c e104 3cbd
000002e0: 94cd 023e 0ec5 db3d c10a 803d 4b16 1fbd
000002f0: 6aa8 b8bd 97cb 8cbc a89d 3bbd eda5 8bbd
00000300: f614 f93d 0735 293e 9d0d 37bd f898 9ebd
00000310: 89a6 083d 85fc 9c3d 7fe6 a63d b2b9 563d
00000320: 16d7 1bbe 8520 5abd 435f 383e 7230 c83d
00000330: fc5d a43c f4cd afbd 74f7 67be 7713 76be
00000340: c0b8 c7bd 9b18 5a3c e287 e83d 6a69 d73d
00000350: 2db6 4bbe 95be 18be 8a15 55bd a3e4 413e
00000360: 17f5 ad3c 7c77 c3bc c6f3 e93d fdf4 52bd
00000370: 4b1c 16be f77b 453e d3d1 03bd 9ac2 813d
00000380: 8212 01be 4a92 6f3e ae52 773e 8eed 003e
00000390: 9b79 00be ada2 3cbe b249 1bbe 36e2 f63d
000003a0: 9387 b33d fab6 3e3e 216f fa3d 30c3 1b3d
000003b0: e5b7 47bd db4b 5dbe b11b b2bd a0b0 19be
000003c0: 6435 d13b 2715 6dbd 4830 94bc 5049 c3bd
000003d0: c2f2 66bc e1d9 75be 8fe6 71be 6ef8 6f3d
000003e0: 7a75 80bd a947 143e d36d 37bd 6afb 26be
000003f0: c5d0 52bc 7b59 5fbd 2f3c 09bd 63ab 26be
0.15060955 0.18362407 -0.017713686 0.18225127 -0.038583636 0.04564587 -0.09865427 0.19211358
0.1939658 -0.07158063 0.18590496 0.15402031 0.23871689 0.12595136 0.08376165 -0.048461184
0.1661047 0.052191712 -0.08317208 0.069179595 -0.062413983 0.024401207 -0.024688842 0.22066231
-0.14341906 -0.046021517 0.00020542729 -0.06728973 0.017182432 -0.2370262 0.215009 -0.19028662
0.16819051 0.043670747 -0.05747288 0.106224686 0.05433254 0.19176899 0.01173967 -0.073797345
-0.0025688184 -0.05226057 0.12437491 0.22716224 0.16390733 -0.047812134 0.17458305 0.122821175
0.16562703 -0.12044664 -0.18135308 -0.051590886 -0.13108595 0.20363128 0.09119207 0.119386055
0.052525267 -0.009167584 0.15578167 -0.15614755 0.0045888363 -0.13644779 0.055702172 -0.04194292
0.08040155 -0.02287504 0.19739927 -0.086121224 -0.07748688 -0.10860212 0.24241675 0.1639464
0.23736261 -0.15240112 -0.20048362 -0.15173295 -0.15889172 0.05378605 0.07718494 0.1481417
-0.12006225 -0.14954822 0.07498461 -0.10811374 0.14385231 -0.06007968 0.12371854 -0.15697834
-0.11604202 0.07183701 0.05320184 -0.017661763 0.195656 0.21140566 -0.18973097 -0.13131905
0.24268275 -0.058784228 -0.08264382 -0.15869063 -0.03268417 0.08193931 -0.026777767 -0.11203853
0.013840175 -0.12430259 -0.17704293 -0.10340174 -0.16636181 -0.13203122 0.2315385 0.0637001
0.10606844 -0.20401193 -0.10455345 0.012915941 0.10821288 -0.124759845 -0.038199864 -0.074982926
-0.00703998 -0.10003352 -0.1279504 -0.2428433 -0.21365497 -0.1284725 -0.06233089 -0.1589248
0.18618079 -0.0493692 0.1941128 0.089430064 -0.14694043 0.20479627 -0.015271694 -0.054977905
-0.18768238 -0.1983805 0.06553419 -0.04956301 0.036536638 -0.18940817 0.16619083 -0.13158543
0.02309625 0.10859295 0.19384217 0.15902855 0.2014948 -0.14030212 0.077929735 -0.1067323
-0.016493347 -0.16007063 0.19071104 -0.20149423 0.08288827 0.08682607 0.025521567 -0.24146888
0.15685675 0.017402247 0.005517677 -0.15400726 0.117481925 0.01734787 -0.012148324 0.2383349
0.08737412 -0.090297215 -0.07963505 0.020240778 0.16542973 -0.009328764 -0.08568128 -0.08766303
-0.22085261 0.07422986 0.1845607 -0.19790874 0.12625863 0.0939407 0.02968023 -0.04590309
0.12773734 0.107309446 0.06252051 -0.03883962 -0.090164974 -0.017186923 -0.04580465 -0.06818757
0.12162201 0.16524135 -0.044690717 -0.0774402 0.033361945 0.07665352 0.081494324 0.052423187
-0.15218768 -0.05325367 0.1800509 0.09774865 0.020064346 -0.08584204 -0.2265299 -0.24030863
-0.09752035 0.01331153 0.113540426 0.10518153 -0.19893713 -0.14916451 -0.052022494 0.18934874
0.021235032 -0.023860686 0.11423449 -0.05150317 -0.1465923 0.1928557 -0.032182526 0.063359454
-0.12604716 0.23395649 0.24152634 0.1259062 -0.12546389 -0.18421431 -0.15164831 0.12054865
0.08766093 0.18624488 0.122282274 0.038027942 -0.04875936 -0.21610968 -0.08696688 -0.15008783
0.0063845385 -0.0578815 -0.018089429 -0.095354676 -0.014095964 -0.24008895 -0.23623107 0.05858653
-0.06272407 0.14480461 -0.04478247 -0.16306844 -0.012867157 -0.054528695 -0.03350466 -0.16276316

bn1.weight f4 [32]
00000000: c99d 8a3f 17f8 7f3f a6e3 7f3f e87b 893f
00000010: 7d05 783f 3100 763f ba7d 813f c3a0 813f
00000020: e27b 803f 803e 773f ee5d 863f 6521 7d3f
00000030: 6e6a 7d3f 17a8 773f be07 793f ffe4 7f3f
00000040: a3da 793f 874b 783f 601c 7b3f 0574 8c3f
00000050: 0fd4 7b3f aac3 793f c1ac 8a3f eca7 853f
00000060: d85b 813f 3dd6 863f 2cc0 853f 7ae3 753f
00000070: 27d7 803f f17f 673f 0f9f 833f 1e3a 823f
1.0829402 0.9998793 0.9995674 1.0740938 0.96883374 0.9609404 1.0116494 1.0127186
1.0037806 0.9657974 1.0497415 0.9887908 0.98990524 0.9674086 0.9727744 0.99958795
0.9759924 0.96990246 0.9809017 1.0972906 0.9837045 0.97564185 1.083397 1.0441871
1.0106153 1.053413 1.0449271 0.96050227 1.0065659 0.904296 1.0282916 1.0173986

bn1.bias f4 [32]
00000000: 6026 3abb 542b ddbb 5cb1 8abc df32 283c
00000010: b68c 853b 3848 eabb a8d4 113b 6249 ebbc
00000020: 63d3 b8bd 0b55 89bd 3233 d83c 56d7 a0bd
00000030: 6860 e03c 178f 46bc 25bf 62bd 9416 ca3c
00000040: 9154 d8bc f12e 01bd bb68 92bc 3151 7a3b
00000050: 28db 2dbd b785 0a3d 916b d6bc 1187 993d
00000060: 8f8d b43c 622d 3b3d ce0f 6f3d 7e4e 36bd
00000070: 49c3 703c 6dc2 5cbd ed9f 033d 3ac8 11bc
-0.002840422 -0.00674955 -0.016930275 0.010266035 0.004075612 -0.0071497224 0.0022251997 -0.028721515
-0.09024694 -0.06705674 0.0263916 -0.07853572 0.02738972 -0.012119076 -0.05535807 0.02466897
-0.026407512 -0.031538907 -0.017872205 0.0038195367 -0.04244533 0.033818927 -0.026174339 0.07496465
0.022040157 0.045697577 0.058364682 -0.04450845 0.014694997 -0.053896356 0.03213494 -0.008897835

bn1.running_mean f4 [32]
00000000: 3c26 ccba 7ef1 6c3a 4291 3e3c 894a 86b9
00000010: e099 efba 3025 c0bb 48d7 353b 41fa 013a
00000020: 5bd3 bf3a 1690 e8ba f4a9 a5b9 f3fc 9d3b
00000030: 02fb c5bb 50e6 233b 98e3 373b 7302 c93a
00000040: fb2f 3b3b 8966 10bb a4c1 1c3b c91d be39
00000050: 8059 a039 f45a 303b 0254 a0bb f722 0c3a
00000060: c1f5 c43b 9796 8639 a2b1 4bbb 7078 0bbc
00000070: db2d c639 536e 983a 0f71 4dba 1c5b f039
-0.001557536 0.00090386707 0.011631312 -0.00025614005 -0.0018280111 -0.005863808 0.0027746726 0.000495825
0.0014635132 -0.0017743136 -0.00031597877 0.0048214137 -0.0060418854 0.0025009103 0.002805924 0.0015335813
0.0028562534 -0.0022033772 0.002391913 0.00036261816 0.0003058426 0.002690968 -0.004892827 0.00053457863
0.0060107415 0.0002567067 -0.003108122 -0.008512601 0.00037799668 0.0011629559 -0.00078369764 0.0004584425

bn1.running_var f4 [32]
00000000: f4e2 113f 5834 4a3e 1943 333f f3f3 f73e
00000010: 7468 803e 72d8 0d3f ae65 c03e 447a 713e
00000020: 76b6 4a3e b89f 993e 0b47 b23e edc8 f13e
00000030: 9393 e93e 2184 d43e e443 a73e 3f07 e73e
00000040: 56a1 ee3e 2989 9a3e 3210 713e 748b 723e
00000050: 62be 5d3e d4ae a73e d4f8 043f 61ae 9b3e
00000060: d01d 043f 39eb 8a3e 2699 0b3f 1e5a 093f
00000070: ce62 913e 530e 543e 850a cf3e c70e 2e3e
0.5698693 0.1974653 0.7002426 0.48428306 0.2507969 0.55408394 0.37577575 0.23581797
0.19796166 0.30004668 0.34819826 0.47223607 0.45620403 0.41507056 0.32668984 0.45122716
0.46607465 0.3018277 0.23541334 0.2368601 0.21654657 0.3275057 0.5194218 0.30406478
0.5160799 0.27132586 0.5453056 0.5365313 0.28395694 0.2070859 0.40437713 0.16997825

conv2.weight f4 [64, 32, 5]
00000000: a7b3 bf3d 8850 273c e925 27bd adde 913d
00000010: 6074 61bd 0623 fc3b ebbb 8abd 2a05 a23c
00000020: 3a39 823d 2666 6abc c589 4bbc 4f0b 3b3d
00000030: d33b 4a3a 961d f13d 0e8b 8abc 4f94 73bc
00000040: 73ca c7bd 9f4c 14bd c6da 853d 37fc e43d
00000050: 69ce 783c 135a e03d be08 f5ba a22a d03c
00000060: 28f4 4d3d df17 a03d 1059 edbc 54be 873d
00000070: 9e9e 843c 61cf 55bd 48be f23b 972f 75bd
00000080: b29e 263d d73d 7bbd 2003 1abd 9629 d8bc
00000090: a7ae 8fbc 69e2 85bc 4358 c63b 221c 3a3d
000000a0: b30e 3f3d e1ee ccbd c8ef cd3d 1269 c43d
000000b0: 0320 7f3c a09d 38bd 6f13 0abc 6b33 bd3c
000000c0: 2f9a 20bd 17c4 bbba edc0 f93c d405 7d3d
000000d0: c43b 07bd 011a f23c 4cf2 a23c 221b fcbd
000000e0: 109a f9bd 3445 b6bd ba7a 8b3d 98b5 9bbd
000000f0: 23fe e2bd f12c dc39 e740 4f3d c6a7 903d
00000100: 4adf a5bd 42ac b8bc c4a1 f23c 5299 ff3c
00000110: 092f ea3c 072f 1d3c 0694 bb3c d745 9c3d
00000120: 835e b2bd e657 2cbd 061c 89b8 d572 63bd
00000130: 1f53 84bd 8346 003c de71 ae3c 7693 203d
00000140: 1c05 5abd fc97 963c e532 a13d 4063 6dbd
00000150: 1a44 65bc 8688 12bd a8a2 d6bd 59cb 113d
00000160: dbe7 fdbc 5b0c 8bbd 516e 3b3d c827 15bd
00000170: 2fb1 74bd 244b b13c df80 263d b36e d1bd
00000180: 29ba 65bd 8edb 8e3d 0a64 5b3c 0c3e 463d
00000190: c37a cebd 2718 63bd 1b18 f5bc 3c2f 1bbd
000001a0: cc69 54bd e58f 183c 67e4 36bc 4aba 59bb
000001b0: 0161 013b 7517 26bd f376 c03c ad9c 113d
000001c0: 0b0e 93bd 4489 c6bd 3c6d 8e3c 9b6a fb3c
000001d0: ee57 66bd 0ef8 a03d 7171 04bd da35 dc3c
000001e0: 9dcc 3c3d 26ac 85bd b023 363d 3931 ebbd
000001f0: b262 3cbd 7cd6 cb3c 3fb1 c8bd eb52 923d
00000200: ef3a c0bb 2dda bb3c 36fd fcbb 4b54 7a3d
00000210: 1798 ecbc 2785 49bd 8499 dd3c 6cca 0e3d
00000220: efc3 713d c144 67bd c875 8ebd 30f7 edbc
00000230: afa3 bcbc 43e5 c1bb 70c7 9c3c a25d 17bd
00000240: dced cc3c 3685 f1ba f570 1bbd fae9 2c3d
00000250: c1af 8f3b 4a67 633d 8cb5 9fbd 927a b1bd
00000260: 52e1 edbc 9b19 c1bb 71c3 aa3c 43e5 19bd
00000270: d9e7 943d a3d3 1a3d 31b0 813d 5699 9d3b
00000280: e636 efbd 5692 c6bd 4c23 c8bd 596d 23bd
00000290: 4dc2 efbd 8b04 c43c 3d2b 22bc d049 43bd
000002a0: 4ed2 833c 63c8 a5bd b29c 84bd 9e93 90bd
000002b0: e800 0abc a8e9 2cbd 5768 c53c b070 11bd
000002c0: f914 be3b 53d0 743d f1b1 ee3b 3379 dbbd
000002d0: dc57 0cbd 59b4 ab3d 3557 1abd 5262 503d
000002e0: 271f 6b3d d893 a03c 0c4f 6e3d 8197 7b3d
000002f0: 8972 8938 351a adbd 85ce 4b3d bd46 50bd
00000300: 6cc0 82bd 4bfa 863d 8a9c 7e3d 5348 e63c
00000310: 5421 6ebd 9d58 babc 24e7 f6bb ff91 d33d
00000320: dad1 7f3d 2a6a 123c 2867 1fbd 5fb5 303c
00000330: 59da 103d 7769 1a3c a19c 1c3d 0900 1abd
00000340: 31b0 a2bc 5a19 0a3b 1186 eabc 3aee 763d
00000350: b0f6 243d 625b 1e3d 5bd5 403d 2919 50bd
00000360: e570 d5bd 8948 79bc fe32 a3bb 2912 1abc
00000370: dc92 dabc 4a2e 213c fee3 c63d 7544 793d
00000380: ffed 80bc 2cd3 f7bc 79a3 02bd 5c22 81bd
00000390: ddbe 293d 8c41 cc3c de4b 253d 2c48 16bd
000003a0: ec0f 58bb a100 efb9 f58f c5bd a6df 3cba
000003b0: e5d3 55bc 0bf0 75bd 87c7 afbd 510e c03c
000003c0: 9dc8 8f3d d8a9 f93b 997a 323d 0738 3ebd
000003d0: 1e9d 36bd baff 763d fe84 e1bc 665e 85bc
000003e0: c8ea 85bd 6782 e93c baee 44bd 45f1 2dbd
000003f0: 46ab a63d eb5a 15bc b428 42bb 0015 823d
0.09360438 0.010212071 -0.04080764 0.0712255 -0.055042624 0.007694605 -0.06774124 0.019777853
0.06358571 -0.014306581 -0.012422984 0.04566508 0.0007714603 0.11773221 -0.01691201 -0.0148669025
-0.09755411 -0.036205884 0.06535868 0.11180919 0.015185931 0.1095468 -0.0018694622 0.025410954
0.050281674 0.07817053 -0.028973132 0.06628099 0.016188916 -0.052199725 0.007407937 -0.05985984
0.040678687 -0.061338272 -0.037600636 -0.026387017 -0.017539335 -0.016343312 0.006053002 0.045436986
0.046644878 -0.100065 0.100555 0.09590353 0.015571597 -0.045072198 -0.008427485 0.023095807
-0.03920954 -0.0014325407 0.030487502 0.061773136 -0.03301598 0.029553415 0.019890927 -0.12309863
-0.12187588 -0.08899918 0.068105176 -0.07602996 -0.11083629 0.00041995154 0.050599005 0.0706325
-0.0809923 -0.022543076 0.029618151 0.031201039 0.028586881 0.009593732 0.022897732 0.076305084
-0.08709433 -0.042076014 -6.537889e-05 -0.055529434 -0.064611666 0.007829311 0.02129453 0.03920313
-0.05322753 0.018383019 0.078710355 -0.05795598 -0.013993287 -0.03577473 -0.10480243 0.035594318
-0.030994346 -0.06789466 0.045759503 -0.03641489 -0.059739288 0.021642275 0.040650245 -0.10226192
-0.05608574 0.069754705 0.01339055 0.048399016 -0.10082009 -0.055442955 -0.029918721 -0.037886843
-0.05185871 0.009311651 -0.011162854 -0.003322261 0.0019741657 -0.040549714 0.02349422 0.03554981
-0.07180413 -0.0969415 0.017386071 0.030690482 -0.0562362 0.07859813 -0.03233475 0.026881147
0.046093572 -0.06526975 0.044467628 -0.11483998 -0.04599256 0.024882548 -0.09799432 0.071447216
-0.0058664004 0.022931183 -0.007720615 0.061115544 -0.028881116 -0.04919925 0.027050741 0.034861013
0.059024747 -0.056462053 -0.06956059 -0.029048532 -0.02302727 -0.0059172227 0.019138068 -0.03695453
0.025015764 -0.0018426541 -0.03794952 0.042215325 0.004384965 0.055518426 -0.07798299 -0.086659566
-0.029038105 -0.005892945 0.020845147 -0.037572157 0.07270784 0.03779949 0.06332434 0.004809539
-0.11680393 -0.0969588 -0.09772357 -0.039899204 -0.11706982 0.023927948 -0.009898004 -0.047677815
0.016091492 -0.08094861 -0.064752 -0.07059406 -0.008423068 -0.04221502 0.024097605 -0.035507858
0.00580084 0.059768986 0.007284396 -0.10716476 -0.034263477 0.08384008 -0.037680823 0.050875016
0.057402756 0.019601747 0.058180854 0.061423782 6.554003e-05 -0.08452264 0.0497575 -0.05084871
-0.06384358 0.06590708 0.062161006 0.028110659 -0.058137253 -0.022747332 -0.0075348783 0.10330581
0.06245599 0.008936444 -0.038916737 0.01078543 0.035364483 0.009424559 0.03823531 -0.03759769
-0.019859405 0.002107224 -0.028628381 0.060285784 0.040274322 0.03866137 0.04707847 -0.050805245
-0.104219235 -0.015215048 -0.004980444 -0.009403744 -0.026681356 0.009837696 0.09711455 0.0608563
-0.015738485 -0.030252062 -0.03189418 -0.06305382 0.041441787 0.024933599 0.040355556 -0.036689922
-0.0032968475 -0.000455861 -0.09646598 -0.0007204957 -0.013051008 -0.060043376 -0.08582979 0.023444327
0.07020686 0.007619124 0.04357395 -0.04644015 -0.044583432 0.060302474 -0.027529236 -0.016280364
-0.065389216 0.028504563 -0.04807923 -0.04246642 0.081381366 -0.009115915 -0.0029626312 0.06351662

bn2.weight f4 [64]
00000000: de0d 6c3f 6b8b 7a3f 7137 733f 6fb3 723f
00000010: e817 823f c3fd 723f a166 7c3f ec31 7f3f
00000020: 6ccf 703f e7ee 753f bddc 853f c20c 8b3f
00000030: a287 7f3f c14f 813f 660e 723f 5ae4 773f
00000040: 4622 843f 3609 7f3f 0624 803f c562 7e3f
00000050: d8b3 783f 46a5 7d3f 1546 803f 93d2 803f
00000060: 15f9 863f 0559 823f c6ef 863f bcb9 6d3f
00000070: d5f2 7d3f 4b8a 803f 472a 843f 1a70 763f
00000080: 7941 723f 8467 7f3f 02bb 7f3f 0213 7e3f
00000090: 41cf 7d3f a7c1 743f 0b1a 763f 6290 813f
000000a0: 3898 813f cd82 803f 4182 7e3f 6126 843f
000000b0: c2a0 823f ec6a 7b3f ec4a 6d3f b492 7d3f
000000c0: 027a 753f fb2d 823f 6b1e 813f b6fe 7f3f
000000d0: 5faf 7f3f 57e8 7d3f 0b25 863f 7fec 7d3f
000000e0: fe0c 873f a1d6 7f3f af10 863f 29ae 753f
000000f0: ec88 843f ea13 7d3f 0e36 7c3f f808 863f
0.9220866 0.97868985 0.9500647 0.94805044 1.0163546 0.9491846 0.985941 0.9968555
0.940665 0.9606766 1.0457989 1.0863268 0.99816334 1.0102464 0.9455322 0.9683281
1.032296 0.9962343 1.0010993 0.9936946 0.9714942 0.9908031 1.0021387 1.0064262
1.0544764 1.0183417 1.0541923 0.92861533 0.9919866 1.0042204 1.0325402 0.96264803
0.94631153 0.9976733 0.99894726 0.99247754 0.9914437 0.9560799 0.9613349 1.0122187
1.0124578 1.0039917 0.994175 1.0324212 1.0205309 0.98210025 0.92692447 0.99051976
0.95889294 1.0170282 1.0087408 0.99998033 0.9987697 0.9918265 1.0480055 0.9918899
1.055084 0.9993687 1.0473841 0.9596887 1.0354285 0.9885851 0.9851998 1.0471487

bn2.bias f4 [64]
00000000: 8ad1 84bd ef04 eebd becb febd dcad 9bbd
00000010: 2fdb 06be 4a39 9ebc 6dbc 5ebd 9bc6 c0bd
00000020: 3822 9cbd d0a1 a9bd 82f3 a2bd be4d 9cbd
00000030: 906d 1abd 5c7c eebd f3b1 13bd 1bc2 adbd
00000040: 8acf 8ebd 8323 53bd 9bed 6dbd 1835 7dbd
00000050: f076 85bd b5c0 9ebd da24 1fbb 18c2 cebd
00000060: 7767 09be 390e 64bd c1ec 14bd 0d30 9dbc
00000070: 55d5 4abd 0312 fdbc 7866 97bc 9238 dbbc
00000080: 743e b7bd 742e 8ebd a8ae 9dbd c968 bbbd
00000090: 073e 1b3d 1e01 61bd 67ca c9bd d947 c3bd
000000a0: 0468 bbbd fae8 5db8 792e 83bd c361 c7bd
000000b0: 2b7c ddbd d711 5dbd 9d8c 4cbd 6663 1dbc
000000c0: 7bf0 81bd f976 07be a5fb 8ebd 2c5e a1bd
000000d0: 5183 9fbd 8a76 64bd d2c0 f5bd 6c92 2ebd
000000e0: 9e2b 84bd edbd a1bd 2f95 20be daad 05be
000000f0: eb0f fdbc 788c 53bd 309f b6bc 0111 a8bd
-0.06485279 -0.11622035 -0.124412045 -0.076015204 -0.1316955 -0.019314427 -0.054378916 -0.09412881
-0.07623714 -0.082828164 -0.07956602 -0.07632016 -0.037702143 -0.116448134 -0.036058377 -0.08484288
-0.06973179 -0.05154754 -0.058087926 -0.061818212 -0.06516826 -0.077516 -0.002428344 -0.10095614
-0.13418375 -0.055677626 -0.0363586 -0.019187951 -0.049519856 -0.030892378 -0.018481478 -0.026760373
-0.08947459 -0.06942454 -0.07699329 -0.091508456 0.03790095 -0.054932706 -0.09853058 -0.09535188
-0.09150699 -5.2907482e-05 -0.06405348 -0.097354434 -0.10814699 -0.05397209 -0.049938787 -0.009606218
-0.06344696 -0.13228978 -0.06981591 -0.0787929 -0.077887185 -0.05577711 -0.11999668 -0.042620108
-0.06453632 -0.078975536 -0.15681909 -0.130546 -0.03089138 -0.051647633 -0.022292703 -0.08206368

bn2.running_mean f4 [64]
00000000: 5bff 65be e7f7 9fbe f2f0 5fbe 0d95 313f
00000010: c6d4 17bf 75da c33e 0539 00bf 6ced 75be
00000020: 9381 8fbb 1037 b1be 1758 f6bd 505d 00bf
00000030: 771f 893e 641e 09bf a1b7 c03e 0243 1abf
00000040: a8fd 79bf ad16 29bf a415 6dbf dc8b 8dbe
00000050: 960a 08be c582 d7be 11d0 d93e 3cde 32bf
00000060: 837a e93c 2f70 1abf 81a0 27be 5a4a 213f
00000070: 5d1e 5cbf 9998 5bbe e959 50be 5115 073f
00000080: 5068 dcbe 9e69 cfbe fca1 2abf c00d 98bd
00000090: 38b6 433f 077d 31bf cfaa 21bf f963 dbbe
000000a0: d98c 2ebf 2470 42be 8042 4fbf 2e72 39bf
000000b0: 355f 30bf 569a e5be 991f e53c e255 353e
000000c0: 894d d0be b75b 25bf de65 c43e 166d d0be
000000d0: 6bd0 26bf ca24 e13d 40ae 1dbf d192 b23e
000000e0: 17f5 b2be 0cfa 4cbf 3e93 11bf 9f13 ea3e
000000f0: 9c2e e7be b862 40be dc21 abbe a295 f9be
-0.22460692 -0.31243822 -0.21869257 0.6936806 -0.5930904 0.38252607 -0.50087005 -0.2401635
-0.00437946 -0.34612322 -0.120285206 -0.50142384 0.26781818 -0.53562 0.37640098 -0.60258496
-0.97652674 -0.66050225 -0.92611146 -0.27645767 -0.13285288 -0.42091957 0.42541555 -0.6987035
0.028500801 -0.6032743 -0.16369821 0.63004076 -0.8598383 -0.2144493 -0.20346798 0.527669
-0.43048334 -0.40510267 -0.6665342 -0.074244976 0.7644992 -0.693314 -0.6315126 -0.4284971
-0.68183666 -0.18988091 -0.80960846 -0.7243985 -0.68895274 -0.4484431 0.027969168 0.17708543
-0.40684155 -0.6459307 0.38358968 -0.40708226 -0.6516177 0.10993345 -0.6159401 0.34877637
-0.34952614 -0.8006904 -0.568653 0.45718095 -0.45152748 -0.18787658 -0.3342427 -0.48746973

bn2.running_var f4 [64]
00000000: 0a09 643e 423c 083e 650d 343e d678 6d3e
00000010: a76f 4e3e 36c5 753e 6eae 753e f97c 783e
00000020: 8fe7 7f3e d0ed 633e 1398 e53e cb60 923e
00000030: afa1 873e 1368 7d3e bb5d 783e 6096 ad3e
00000040: 320e de3e 1b61 be3e 88c0 803e 906e 253e
00000050: b0b1 8c3e a446 753e ec5f 5e3e 9ae6 cf3e
00000060: 9179 333e 5c26 cf3e 8eba a23e e4ad 983e
00000070: 840d 013f e352 863e 93e8 833e 54c4 ce3e
00000080: 6e15 613e 0a62 6b3e 2041 c63e 3eca 7e3e
00000090: 7549 ba3e 3f9b d83e bff4 b73e 3f28 a83e
000000a0: 46e3 8f3e 464c 0d3f 0700 b83e f502 853e
000000b0: 2bcd 9d3e 09a1 5d3e d1e4 f73e ea86 7a3e
000000c0: f4af 6a3e 9b28 683e 4a10 353e b6ca a73e
000000d0: af51 c23e 90d0 db3e e54b b93e 782c 823e
000000e0: c961 863e d402 973e abb0 3f3e afff 8b3e
000000f0: bff4 b93e 5b86 833e 3eb8 773e f2c8 703e
0.22269073 0.13304237 0.17583235 0.23190627 0.2015978 0.24001011 0.23992321 0.24266423
0.24990676 0.22258687 0.44842586 0.28589472 0.26490542 0.24746732 0.24254505 0.3390379
0.43370205 0.3718346 0.2514689 0.16155457 0.27479315 0.23952729 0.21716279 0.40605623
0.17526843 0.40458953 0.31782955 0.29820168 0.5041125 0.26235113 0.25763378 0.4038416
0.21980831 0.22986618 0.3872156 0.24881837 0.36384168 0.42305943 0.35928914 0.32843205
0.28103083 0.5519451 0.3593752 0.2597882 0.30820593 0.21643461 0.4841676 0.24465528
0.22918683 0.2267174 0.17681995 0.32771844 0.37952945 0.42932558 0.36190715 0.25424552
0.2624648 0.29494345 0.18719737 0.2734351 0.3631954 0.25688443 0.24191377 0.23514155

conv3.weight f4 [128, 64, 3]
00000000: 3b89 bd3c 442c 2c3d 52b7 61bd 107b 2a3d
00000010: 2c55 a03d f026 0ebc 36b3 d8bb 852e 85bd
00000020: 667a 22bd de09 ab3c e715 d13b 6fd0 43bc
00000030: 7bd7 c5bd 57cd 52bd 2a18 e8bd 74f1 53bd
00000040: cf9d a0bd 38f7 4cbd 7564 5b3c d161 113d
00000050: 974b 73bd d16d bc3d 709e af3d 10eb b73d
00000060: 85ff 3ebd 2aed 83bd 4d31 25bd dc9c b23d
00000070: 7f55 b43d 5ef0 333d 6e5b e8bd a489 78bd
00000080: 39a0 c8bd 427c 95bc 495b d7bd 4806 56bd
00000090: 550a b13a 0c60 0ab9 93f6 323c d904 153d
000000a0: cc11 4bbd 2ebd 8bbd 4ed4 2dbd 7e3a c03c
000000b0: 82c8 acbd 0f2c 243d 7a08 573d 60ae 013a
000000c0: 106f 96bc d9e3 dcbc f878 d2bd 9891 733d
000000d0: 6b5c 243b a8b2 8e3d 63ac 1dbd c4ca d13c
000000e0: 6a41 44bd e570 1ebc e909 963d ca85 c63c
000000f0: 4435 b63c 8cd5 083d bc6b 9e3c d77e 553d
00000100: f5d5 3fbd f70e d7bc 4b20 cabd d1f0 b6bd
00000110: e53a cfbd c99d c83c 38fc 0abc 43d6 bfbb
00000120: 04fe f1bc f817 923b 1cee 19bd 644e 46bd
00000130: 5b18 3abd 8ca3 36bd afb5 073d fc47 f8bc
00000140: fee3 2f3d 1086 13bd 6a56 11bd 9166 30bd
00000150: 81ee 323d 7c13 1dbd 1940 343c d89a 6bba
00000160: d5fa 133c be03 d8bc 69f7 a93c 9d17 e33d
00000170: 0bd7 b03d 5bd5 2fbd e687 753d 2a70 653d
00000180: 0ea4 84bd 2198 80bc 2122 91bd a692 bc3d
00000190: 7904 f9ba d637 d7ba 5372 aebc a414 dcbc
000001a0: 36b2 77bd 9166 aebc 99ac 9a3c e2ca b33c
000001b0: 1617 e4bd 81b7 54bd 7b6e 4fbd 5529 20bb
000001c0: c7dc 27bd b7bb 093d 8dbb 31bd ed9f 9b3c
000001d0: 42cc babc 94dd 97bd 780d 043c 76d5 51bd
000001e0: a709 563c 9ea7 32bd c354 cfbc 91fc cd3b
000001f0: 874c b1bd 4bce 80bd 9d38 153c 7c6f 99bb
00000200: f713 a0bc a963 5d3d 694e b23c f8cd 4c3c
00000210: 7df3 1bbc f4a4 be3d d84c 6bbc 2bce 89bd
00000220: 0f67 d3bd ae31 7bbd 869a 25bc 0b21 2f3c
00000230: 9ec6 13bc 0161 cc3c 13e6 353d e902 b83b
00000240: 0386 d7bc 32b1 953c b671 843d 9083 873d
00000250: 9fc4 cc3c 0146 943d 98c6 913c f61f 083d
00000260: c3c0 f1bb d965 243d aea7 553c c242 f5bc
00000270: 6a77 763d 8133 e53c e693 de3c a34f d8bc
00000280: 693e 74bd 26c6 c0bd 6e97 943b 045e 79bd
00000290: aaa9 dcbc 8c25 913c 7d4c 293d 4939 143c
000002a0: d0a8 41bd 9123 bebd e221 4fbd 1e74 96bd
000002b0: bbf3 b0bd 7856 d1bd de19 53bd 2a49 35bd
000002c0: e86e 65bd d419 933d cb87 103d d4f3 ae3d
000002d0: 3323 223d 79ca 91bd 3c05 b63c 3458 e2bc
000002e0: 7e69 513d cc6e 553d 759c 183c 4783 42bb
000002f0: 70e4 2a3d 5afe 9abd 585e 75bc 8ab8 303d
00000300: 6d66 19bd 01ee eebc 0050 8bbd 0c02 e1bb
00000310: 0641 d13c ca92 adbc ed65 0b3c c82e 15bd
00000320: ddbd ab3c a2d7 99bc 9bf1 edbc ff00 9bbc
00000330: b57e 48bd 758e d4bb 3dbd 7dbd 4029 e1bc
00000340: 7397 45bd cfe5 613c 7186 03bb 2eec 133d
00000350: 16e0 d9ba 1c45 573b c7eb 3b3d c304 413d
00000360: ba41 4cbd b83e 60bd 3e47 dcbc 63e3 bb3b
00000370: 2894 8abb e017 2bbd e0fd 81bd 9562 debd
00000380: f2a3 d6bd a5e9 31bd ca64 cbbd 064d c8bd
00000390: fbd4 97bc 987a a43c 001c 03bc 5673 bdbc
000003a0: 5c90 9fbd 9941 3bbd 1871 40bd 2277 98bd
000003b0: b874 cabc 9359 71bc 04a8 603c d5a4 88bd
000003c0: eb70 50bd 3bcb 47bd 5395 85bd 8981 403c
000003d0: debd f7bc 473d 893c 7f4e b63b bfd7 27bc
000003e0: ecfc 96bd 8772 193c 6251 8a3d 99c1 183d
000003f0: a1ac 343d 9bbf 8d3c 8436 073d af7f 413c
0.023136726 0.042034402 -0.05510647 0.041621268 0.07828745 -0.008676276 -0.0066131605 -0.065030135
-0.03966751 0.020878728 0.006380785 -0.01195155 -0.0966024 -0.05146536 -0.11332734 -0.05174394
-0.078425996 -0.050040454 0.01339065 0.035493676 -0.05939826 0.09200633 0.085751414 0.089803815
-0.0466304 -0.0644172 -0.04033022 0.08721325 0.088053696 0.043930404 -0.11345564 -0.06067814
-0.09796185 -0.018247727 -0.10515458 -0.052252084 0.0013507108 -0.00013196486 0.010923046 0.036381576
-0.04957752 -0.068231925 -0.042438798 0.023465391 -0.08436681 0.04008108 0.05249832 0.00049469434
-0.018363506 -0.026964115 -0.10276979 0.05946502 0.00250795 0.0696767 -0.03849448 0.025609381
-0.047913946 -0.009670471 0.07326109 0.024233717 0.022242196 0.03340678 0.019338481 0.052122917
-0.046834905 -0.026252253 -0.09869441 -0.08932651 -0.10118655 0.0244893 -0.008482985 -0.0058543994
-0.02954007 0.0044584237 -0.037580594 -0.048414603 -0.045433383 -0.044589564 0.03313225 -0.030307762
0.04294204 -0.036016524 -0.0354828 -0.043066565 0.043684486 -0.03834866 0.01100161 -0.0008987612
0.009031971 -0.026368972 0.020747857 0.11088488 0.08634766 -0.04292808 0.059944056 0.05601517
-0.064766034 -0.01569754 -0.07086588 0.092076585 -0.0018998525 -0.0016419839 -0.021294748 -0.026865311
-0.06047269 -0.021289142 0.01888113 0.021947328 -0.11137216 -0.051932815 -0.05064247 -0.0024438698
-0.040982034 0.033626284 -0.043391753 0.018997157 -0.022802476 -0.074153095 0.008059852 -0.051228963
0.013063825 -0.043616883 -0.025308972 0.006286212 -0.086571746 -0.06289347 0.009107736 -0.0046824794
-0.01954077 0.05405012 0.021765905 0.012500279 -0.009518501 0.09308806 -0.014361583 -0.067287765
-0.10322391 -0.061326675 -0.010107642 0.01068903 -0.009019522 0.024948599 0.04440887 0.0056155813
-0.026309019 0.01827297 0.06467001 0.066168904 0.0249961 0.07239915 0.017794892 0.033233605
-0.0073777153 0.040136192 0.013040466 -0.02993906 0.060172476 0.02797866 0.027170133 -0.026405161
-0.05962983 -0.09412794 0.0045346534 -0.060880676 -0.02693637 0.017718099 0.04133271 0.009046861
-0.047280133 -0.092841275 -0.050569423 -0.07346366 -0.08640238 -0.10221571 -0.05153834 -0.044259228
-0.05601397 0.07182661 0.035285752 0.085426 0.03958435 -0.07118697 0.022219293 -0.02762995
0.051125996 0.052107617 0.009314646 -0.0029680298 0.04172176 -0.07568045 -0.014976107 0.04314474
-0.037451196 -0.029166223 -0.06802368 -0.006866699 0.0255437 -0.021188159 0.008508188 -0.036421567
0.020964557 -0.01877958 -0.02904587 -0.018921373 -0.048948962 -0.0064867088 -0.06194805 -0.02748549
-0.048240136 0.013787701 -0.0020069147 0.03611391 -0.0016622569 0.003284759 0.04587915 0.04712368
-0.04986737 -0.054747313 -0.02688944 0.0057338937 -0.0042290874 -0.041770816 -0.06347251 -0.10858647
-0.10480489 -0.04343571 -0.09931333 -0.09780316 -0.018534174 0.020077989 -0.008002281 -0.023126286
-0.07791206 -0.045716856 -0.046982855 -0.07444598 -0.024713859 -0.014730829 0.013711933 -0.06672064
-0.050888937 -0.0487778 -0.06522622 0.011749634 -0.030241903 0.016752852 0.0055635567 -0.010244309
-0.0737246 0.009365684 0.06753804 0.037294004 0.044109944 0.017303279 0.033010975 0.011810227

bn3.weight f4 [128]
00000000: b9c2 953f 4bee 913f 3e1c 8d3f ecba 933f
00000010: 8e00 8d3f 076f 923f 461d 8f3f c141 953f
00000020: a9dc 8d3f a263 8a3f 9569 953f 51db 883f
00000030: f957 8b3f 3e50 913f ed39 893f 628b 8d3f
00000040: abb0 943f e550 903f 58a1 9c3f 7ccd 923f
00000050: 0b8f 8d3f d723 923f 8db6 8c3f 518f 8f3f
00000060: 4a6e 903f 086d 8c3f 9519 913f ab36 933f
00000070: 2494 953f 9a38 8f3f 04ec 903f b802 8c3f
00000080: 1e81 8c3f 876c 923f efe5 8c3f e068 943f
00000090: f17b 8f3f 1209 943f 1fd0 8b3f d65f 963f
000000a0: 0b1e 873f 84e4 8c3f 96b6 883f b5a9 903f
000000b0: 773c 8a3f 51a3 8a3f 0e8f 953f c033 923f
000000c0: 3f17 953f 38c1 873f 24cd 933f 6a27 943f
000000d0: 8517 983f 602e 953f 5b75 8b3f da32 953f
000000e0: e05f 993f 651a 883f dcf4 8a3f 1071 953f
000000f0: 7bdb 893f 36c5 9d3f 0a50 923f 526b 8f3f
00000100: 364d 903f c30d 973f baae 8a3f 2fd9 953f
00000110: 317d 953f d8fa 8d3f 21e9 8a3f eac2 923f
00000120: 227d 923f e68a 933f 1351 983f db98 8d3f
00000130: b411 963f dbd3 873f bfb0 903f adea 8a3f
00000140: 470f 963f e858 963f b029 903f 40ee 943f
00000150: be73 8b3f 559f 923f a32e 8d3f 3385 903f
00000160: c94e 933f 7707 983f 4515 943f 489d 8b3f
00000170: 0ad0 933f d499 993f 89d8 8a3f 40e1 923f
00000180: 33cb 983f 115c 983f c9ba 913f 0fb0 863f
00000190: 6732 943f 3833 8a3f 6e50 943f e1a1 943f
000001a0: 6aab 9c3f d2b6 933f 011a 923f 8c7c 953f
000001b0: f5c4 8b3f fcc6 933f a171 8f3f 3ff9 893f
000001c0: c4c4 8f3f 323f 923f a233 913f a705 913f
000001d0: 932d 9c3f 5f99 8d3f 0210 8d3f 79ee 953f
000001e0: 206e 8b3f 5627 8b3f 705b 923f 011a 8e3f
000001f0: 7375 933f d7cb 8a3f 7c01 903f 6214 8a3f
1.170005 1.1400846 1.1024244 1.1541419 1.1015794 1.1440133 1.1180809 1.1660691
1.1082965 1.0811656 1.1672846 1.069193 1.0886222 1.1352613 1.0720803 1.1058161
1.1616415 1.1274687 1.2236738 1.1468959 1.1059278 1.1417187 1.099321 1.1215612
1.1283658 1.0970774 1.1335932 1.1501058 1.1685834 1.1189148 1.1322026 1.093833
1.0976903 1.143937 1.100767 1.1594505 1.1209699 1.1565268 1.0922889 1.1747997
1.0556043 1.1007237 1.0680721 1.130179 1.0799702 1.083109 1.1684282 1.1422043
1.1647719 1.0605841 1.1546979 1.1574528 1.1882178 1.1654778 1.0895189 1.1656144
1.1982384 1.0633055 1.0855975 1.1675129 1.0770105 1.2325809 1.1430676 1.1204627
1.1273563 1.1801075 1.0834572 1.1706904 1.167883 1.1092176 1.0852395 1.1465733
1.1444438 1.1526763 1.1899742 1.1062273 1.1724153 1.0611528 1.1303939 1.0852867
1.1723412 1.1745882 1.1262722 1.1635208 1.0894697 1.1454874 1.1029857 1.1290649
1.1508418 1.1877278 1.1568991 1.0907373 1.1547863 1.200007 1.0847331 1.1474991
1.1937011 1.1903096 1.1385127 1.0522479 1.1577882 1.0796881 1.1587045 1.1611902
1.2239811 1.1540167 1.1414186 1.1678634 1.0919482 1.15451 1.1206552 1.0779189
1.1231923 1.1425536 1.1343882 1.132985 1.2201408 1.106243 1.102051 1.1713401
1.0892982 1.0871379 1.1434155 1.1101686 1.1520218 1.0843457 1.1250453 1.078747

bn3.bias f4 [128]
00000000: 9818 a83d 5fbd d53c e037 db3c db20 e03d
00000010: f79f 733d d4dd 9b3d deff 3b3d 807d 873d
00000020: c54b 953d f1b0 c63c 4dea df3d 64bd 563d
00000030: ab7e 4b3d fd50 4c3d ac13 3c3c 0ae5 463d
00000040: c9a6 8e3d b15c c63d f05c ad3d 0081 c13d
00000050: e9af 8e3d c7a4 bc3d 041f 923d e8b7 b73d
00000060: 34db b43d 11e8 693d 9cae ac3d 394d b43d
00000070: b1a2 e63d 0e88 bc3d 9cde b73d 40f0 de3c
00000080: 09b1 543d 1674 ae3d 6cfb 643c 36e0 d83d
00000090: 0a90 743d d3e0 f53d e74d b83d 925e bc3d
000000a0: bbe3 533d 0200 8b3d ec91 183d 2421 b73d
000000b0: 7483 0f3d 1f2e 723c f99e e43c dad7 763d
000000c0: d02e af3d f877 8b3c 4341 753d 85ee d63d
000000d0: 043c dd3d 9c5f b83d 182c 7c3d 4242 dd3d
000000e0: 2434 d73d cede 783d 8597 5d3d 4ea6 b33d
000000f0: 1b8a 993d 93f8 0a3e 7637 c23d 34de 383d
00000100: 3195 8d3d 8b28 ee3d 68a1 603d fbd8 bc3d
00000110: a05a f43d 0ad2 3c3d d908 1d3c eaeb b63d
00000120: c9b6 8a3d d431 053d ccd9 b33d 9387 1b3d
00000130: 62a4 dc3d cf40 583c 68f9 183d be2a 923d
00000140: 499a 9d3d 73c5 ce3d 0496 bd3d 5262 963d
00000150: 71aa 1f3d 0cde b93d 5767 133d a6a7 a43d
00000160: c74c 963d 706f 963d ee8f c83d 9cd3 b4bc
00000170: c3bf e03d b673 913d 3e6d 323d bae1 f43d
00000180: 70fe b13d 0746 d93d b64d bd3d ca66 833c
00000190: e331 c63d d5ff cb3c 7895 db3d 0cac ee3d
000001a0: c5b0 e73d 5d33 6c3d 7e63 b13d c582 b13d
000001b0: 6ad3 353d 430c 8f3d a3e1 b53d ebc7 0fbc
000001c0: d29b b43d 1eb1 c13d 7d9d c23d f5e8 a53d
000001d0: b071 f53d a267 b83d 08ca b13d b326 b13d
000001e0: 1af4 1e3d 3414 bb3d d40c e73d 813b 853d
000001f0: 0a3d f63d d8f1 2c3d 8972 bc3d 9b05 c03c
0.08207816 0.026091276 0.026760042 0.10943767 0.059478726 0.0761067 0.04589831 0.06615734
0.072898425 0.024254294 0.10933361 0.05242671 0.049681347 0.049881924 0.0114792995 0.048558272
0.069654055 0.09685648 0.08464992 0.09448433 0.06967146 0.09211116 0.07134822 0.08970624
0.08830872 0.05710608 0.084317416 0.088037916 0.112615 0.09205638 0.08978006 0.02721417
0.051926646 0.085182354 0.013975959 0.1058964 0.05970768 0.120057724 0.08999234 0.09197725
0.051730853 0.06787111 0.037248537 0.08941868 0.035037473 0.014781504 0.027907835 0.060264446
0.08553851 0.017024979 0.05987669 0.10494713 0.10802463 0.09002611 0.06156549 0.10803653
0.10507992 0.060759358 0.05409958 0.087719545 0.07497045 0.13571386 0.094832346 0.045133784
0.06913222 0.11628827 0.05484143 0.09221073 0.11931348 0.046098746 0.009584629 0.08931716
0.06773145 0.032518223 0.08781776 0.03797109 0.10773541 0.013199045 0.037347227 0.07137059
0.07695443 0.10096254 0.09257129 0.07342972 0.038980905 0.09075555 0.035987224 0.08039789
0.07338863 0.07345474 0.097930774 -0.02207356 0.10974076 0.07102148 0.043561213 0.119571164
0.08691108 0.1060906 0.09243338 0.016040225 0.09677484 0.024902264 0.10721868 0.11653909
0.11313013 0.05766617 0.08661555 0.086675204 0.044391073 0.069847606 0.088809274 -0.0087756915
0.08818783 0.094576105 0.09502695 0.08101074 0.11984575 0.090041414 0.086811125 0.086499594
0.038807012 0.09134713 0.11281744 0.0650549 0.12023361 0.042222828 0.09201533 0.023440173

bn3.running_mean f4 [128]
00000000: 54a7 30bf 4a27 82bf 01bc 753d bd8a 98be
00000010: a438 9abf dc6b 24be 8e72 ecbe 5bec 88be
00000020: 2cc9 023f 50b2 c83e c905 53bd 048f 2b3d
00000030: 6926 b43e cb39 78bf 6b98 f73e 698d 54bf
00000040: 22cb 51bf 85d1 f4be 52a9 a0be a34c 5dbf
00000050: ff92 76bf b062 f63e 7a8e 9c3d 2e86 0c3f
00000060: 4524 9cbf e876 36bf a801 e2be 7719 9a3e
00000070: 0de3 123e 6ee8 02bf db9f bc3e f859 0f3f
00000080: 060a f43c 9130 eebe c005 ed3d 78bd 1f3e
00000090: 4ade 7fbf f13e 133f dc54 33be 4ce8 90bf
000000a0: 2faf 373e 1be1 0bbf 6aad 823e 3c88 86be
000000b0: e3fc 7bbf 5e12 093f 3966 24bf 9b68 133f
000000c0: 7a55 83bf 3f42 a23c 55dd 41bf d86c 543e
000000d0: b914 acbd 8b84 9cbf c91b d5bd 5799 553e
000000e0: 6fc8 99bc a174 da3e 19ef 22be 564c 23bf
000000f0: 01cb 3ebf 72dc 383e 83ea 7a3e 056d 7dbf
00000100: c8ca 573e 1ab6 0abe b77f 11bf 1f05 7abf
00000110: a8af 773e d03c 3b3e f725 673f 0336 95bf
00000120: 613d edbe e315 b0be f746 5ebf 43eb 5abe
00000130: 4afe 0a3d 0cec 003f bb22 3cbe dc30 343e
00000140: b7b6 45bf 0a26 92bf 700c 6d3e f0a0 40be
00000150: 3eaf 1a3f 9bb4 cd3d bfdf c13d ea84 97be
00000160: 0328 78be 8192 01be 4c78 153e 1e14 4a3f
00000170: c549 9cbd 8602 61bf 7105 383d 149e ab3e
00000180: ca9b cebd f9ec 72bd 30da 163e f0fc 85be
00000190: adca 023e 695e 423e 10b7 ea3e 9f20 80be
000001a0: a887 01be 9b47 62bf 0461 00bf 3703 ccbd
000001b0: 5cee 9bbe f8a3 043e d1e0 01bf cc85 92be
000001c0: 5f2a a4be 5a67 113f a35a 5cbe 539b 52bf
000001d0: b3bc aebe 2fa4 193f e0b3 3d3f 5a1b 17bf
000001e0: 0b39 9e3c e1b1 e13e 41c0 9abe 067c 0abf
000001f0: d363 483e 8487 13bf cd8d 253f c258 873f
-0.6900532 -1.016824 0.059993748 -0.2979335 -1.2048535 -0.1605677 -0.46181148 -0.26742825
0.51088214 0.39198542 -0.05151919 0.041884437 0.35185555 -0.96963185 0.48358473 -0.83028275
-0.8195058 -0.478161 -0.3137918 -0.86445063 -0.9631805 0.48122168 0.07644363 0.5489224
-1.2198569 -0.71275187 -0.4414189 0.30097553 0.14344425 -0.5113591 0.3684071 0.55996656
0.029789936 -0.46521428 0.11573362 0.1559962 -0.9994856 0.57517916 -0.1751284 -1.1320891
0.17937921 -0.5464036 0.2552293 -0.26275814 -0.9843275 0.5354365 -0.6421848 0.5758149
-1.026046 0.01980698 -0.7572835 0.20744646 -0.0840239 -1.2227949 -0.1040569 0.20859276
-0.018772332 0.42667106 -0.15911521 -0.63788354 -0.7452851 0.18052843 0.24503522 -0.98994476
0.21073449 -0.13546029 -0.568355 -0.97664064 0.24188101 0.18284917 0.90292305 -1.1657108
-0.4633589 -0.34391698 -0.86827034 -0.21378808 0.033933915 0.5036018 -0.18372624 0.17596763
-0.77231926 -1.1417859 0.23149276 -0.18811393 0.6042365 0.100442134 0.09466504 -0.29593593
-0.24234013 -0.12653543 0.14596671 0.78936946 -0.07631258 -0.87894475 0.044927064 0.33519042
-0.10088308 -0.059308026 0.1473167 -0.26169538 0.12772627 0.18981327 0.4584279 -0.25024888
-0.12649405 -0.8839051 -0.50148034 -0.09961551 -0.3045529 0.12953174 -0.5073367 -0.28617704
-0.32063577 0.56798327 -0.2151895 -0.82268256 -0.3412834 0.6001615 0.7410259 -0.5902611
0.01931431 0.44081023 -0.30224803 -0.54095495 0.1956933 -0.57628655 0.64669496 1.0573962

bn3.running_var f4 [128]
00000000: 36e1 d73d 5e37 f03d b6a9 ec3d 44f5 193e
00000010: b3e6 2a3e 1897 0d3e 671b df3d 53af 003e
00000020: fd99 2d3e f950 1b3e d197 fa3d 6389 473e
00000030: e537 a63e cb1e ec3d 8c80 0e3e f623 023e
00000040: 334d dd3d 6bf2 4a3e 39c3 0e3e 1108 fd3d
00000050: 6c14 ad3d edbf f23d 12ca 413e 82ec 1d3e
00000060: 6bfc e13d d215 dc3d 86e3 bb3d 1d45 b13e
00000070: ee46 d33d 4299 3f3e c738 ee3d 233f 003e
00000080: 0d85 243e 7c24 243e d41f 113e 46f6 373e
00000090: 1eb1 cd3d 9dd0 263e f145 473e 7e9f e23d
000000a0: 8afb 403e 764c 4a3e 5dd3 283e e23f 623e
000000b0: f94b e33d 61a4 213e 3283 ee3d aea3 f13d
000000c0: 8b7a b93d c433 0b3e ada9 e13d 388b 1d3e
000000d0: 6fad ef3d 5602 ee3d 4dfe e83d f837 fa3d
000000e0: 5982 123e 66a4 5f3e 14f3 d03d f9c1 053e
000000f0: 8932 f93d fff2 083e 0843 f93d 0eaf e73d
00000100: 3a8e 853e 2a8a e13d 654e db3d 24a5 c73d
00000110: c5c5 123e 05eb 053e fe9c 6c3e ced3 f53d
00000120: 1016 d33d ffb8 ea3d 68cf d23d b027 053e
00000130: b1d8 fc3d 8723 133e e21c 303e 7426 6c3e
00000140: c79e f33d 694b d23d 96e6 323e deae 063e
00000150: d9bb 213e f536 da3d 8060 f43d a818 c33d
00000160: 6e34 f53d 4c23 cc3d 3c31 2b3e 65a8 593e
00000170: fa57 fb3d 263b e13d 5f36 203e 203e d63d
00000180: 70c6 223e bd15 223e e22b 1e3e be31 2b3e
00000190: cd2a 523e 2c2b 323e b5e6 133e 1437 ff3d
000001a0: 6df9 043e 0d49 fc3d b628 b53d 27ce 0e3e
000001b0: 499d 043e 0bfd 0a3e 49ab 0a3e 3d16 3f3e
000001c0: 177e 223e 5c0f 253e 3b31 e33d 9ce2 023e
000001d0: 5227 1f3e e0df 1e3e 981d 6c3e 9376 fe3d
000001e0: 0035 2b3e dedc 913e db70 fb3d d47b 013e
000001f0: 91a8 1c3e 08b8 063e 1ae0 1d3e c818 343e
0.105410025 0.117293105 0.11555807 0.15034968 0.16689567 0.13827169 0.108938985 0.12566881
0.16953273 0.15167607 0.12235988 0.19486003 0.3246452 0.11529311 0.13916224 0.1270903
0.1080574 0.19819038 0.13941659 0.12355054 0.08451161 0.11853013 0.1892474 0.15422252
0.11034473 0.107463494 0.09174256 0.34623042 0.10316263 0.18710807 0.11631923 0.12524085
0.1606638 0.16029543 0.14172298 0.1796504 0.10043548 0.16290517 0.19460274 0.11065577
0.18845955 0.1975573 0.16486879 0.22094682 0.11098475 0.15785362 0.11646117 0.117987975
0.09056576 0.13593966 0.11018691 0.15385139 0.11703002 0.11621539 0.11376629 0.122177064
0.14307536 0.21840057 0.102026135 0.13062276 0.12167842 0.13373946 0.12170988 0.11312686
0.26085073 0.11012681 0.10708312 0.09748295 0.14333256 0.13077934 0.23106763 0.12003289
0.103069425 0.114610665 0.10293466 0.13003421 0.12346018 0.14369021 0.17198518 0.23061544
0.11895519 0.102682896 0.17470774 0.13152644 0.15794314 0.106550135 0.119324684 0.09526187
0.11972891 0.0996767 0.16718 0.21255644 0.122726396 0.1099761 0.15645741 0.10461068
0.1589601 0.15828605 0.15446427 0.16718194 0.2052414 0.17399281 0.14443476 0.12461677
0.12985773 0.12318621 0.088456556 0.13945828 0.12950625 0.1357309 0.13541903 0.18660827
0.15868412 0.1611914 0.11093374 0.12781757 0.15542343 0.15515089 0.23058164 0.1242496
0.16719437 0.2848882 0.12277385 0.12644893 0.15298678 0.1315614 0.15417519 0.17587578

fc1.weight f4 [64, 128]
00000000: 4465 a03d 6ea1 9ebd aaaf 113e df70 97bd
00000010: 602c 653d 9f35 1d3d 47f9 8dbc 9992 85bc
00000020: e317 753d 9294 b9bd 71e1 233e 2cc5 ba3d
00000030: 8295 75bd 6953 37be e0be 9bbd 7998 14bd
00000040: 6546 c3bd 5e78 1e3e 79b9 fa3d 1f50 4ab9
00000050: 6e1e a7bd 9024 0d3e 1d35 c8bb d85f a33d
00000060: 39f0 283d 6901 e8bd bbfb 193d 74b7 5e3d
00000070: 591d 283e 928e ac3d cc6d 033e d2d9 13bd
00000080: 4748 edbd 1910 5c3d 8e9f 2dbd b4bb 863d
00000090: e232 41bd dabc c13d af77 343d e8db 57bc
000000a0: 69ae 903c ee06 3b3d 12d6 733d a4ac 24bd
000000b0: d40c bfbd 473d ae3b fcf2 1d3d 3a20 f63d
000000c0: 6bf0 39bd 2c15 6bbd 1273 283d f06c 8bbc
000000d0: 247d 003e 147d b7bd aa3f e4bd 0789 023e
000000e0: 98c8 a53d e7ef 01bc 784c aebd 8215 05be
000000f0: b5cb ba3d d72f f43d 8bd7 843d 21d2 b83a
00000100: 0955 863d 4d76 353e 6183 6fbd 1924 76bd
00000110: 86c7 163e cfc1 3b3c 61af 67bd 8ef9 02bd
00000120: bcaa d23d 38fe d23b 7793 c6bd 97d3 84bc
00000130: 1cdc 563e d266 e2bc 72ab 1bbd d9fd 22bd
00000140: f6cc b0bc e32a 02be 197a e83d 5972 e93c
00000150: dbc6 793d ee9e dd3d 80ae 673d 9f31 2a3d
00000160: 4af3 c4bd 0db0 373e 7578 50bd 664c 123d
00000170: 56e5 533e 3afc f6bd b046 983c 810b 0a3e
00000180: 45ed 3d3d 7dce f53d 3f4f a23c 75d6 8e3c
00000190: 4f13 c93d 04e4 f53c 75dc b13d 5704 393e
000001a0: 4dfb 053e e76f 3cbe a4aa 8cbd 8b48 0d3e
000001b0: 651a d9bc 73ea 903c e019 043e 6bd7 113d
000001c0: 709c f03d b719 303e f0c4 0e3e 47c0 45bc
000001d0: 7cfb 633d f4ff b03d bc7c 0a3e 6325 223e
000001e0: 5184 0ebe f4e5 d83d 787f 053e a8cb d4bd
000001f0: e7f7 313d de46 f33d 052e 533e 4aa5 27bc
00000200: ec34 4d3e 6653 143e 7ab5 af3d 15f8 01bd
00000210: aba2 d23c 6b73 9e3d a655 46bc 5098 8abd
00000220: 65ae 3a3d bb2e a4bc 41fb 8c3d 1b83 7bbd
00000230: 11ef b6bc 2e29 973c 746c 123c f225 1e3d
00000240: 704b 163e 90ae c8bc 102a 5c3e 2114 1a3e
00000250: d4cf 833c 5067 8b3d ce0f 043d 0aae 203a
00000260: dd6b fd3c 511d c63c 0800 a8bd e2cd abbd
00000270: 71de 88bc 3820 21bc 854a 14bd 2699 afbd
00000280: 0806 8dbc e523 043e 8c91 e73d 8bfd 11be
00000290: 7ff0 ee3d f2e8 413d 42a9 91bc 4bb4 9b3d
000002a0: f4cd 073d 8fe3 4e3d 2fc1 2cbd ff4a 62bd
000002b0: 49f0 f03d 0ee6 5fbd 97cf 7b3d 3dc9 883d
000002c0: 8375 0b3d 7abd aaba a692 253e 4446 bcbd
000002d0: ac13 113e f452 8ab7 ed2a 7e3d 749a 373d
000002e0: 8448 4d3e 3d24 9bbd 310d 233d d0c2 9bbd
000002f0: b1b7 c93d e9a2 ed3d 47dc 15be cef2 c43d
00000300: 1965 dfbd f08b 30bd 8ec7 30bd f583 a53d
00000310: 9e25 dbbd 5077 65bd 1314 3ebd a001 af3d
00000320: f9f0 e93d 584e c3bc ab6a dd3d ba10 013e
00000330: b124 e33d 981d bcbd 270b 40bd 9271 3dbd
00000340: b3be c0bd 9103 fa3d 723a d3bd c654 1ebe
00000350: 84c4 c8bd 24b5 ad3d 1f24 1b3e 8cf1 2d3e
00000360: ed2c 2cbe 93a8 f5bd a477 6f3c 7f58 13bd
00000370: 7808 dbbd 11b4 083e d8b9 06bd 7c96 94bd
00000380: 45a6 b8bd 987b 0e3c 1442 c8bd c95d a9bc
00000390: 2828 25be ac5c 4fbd 924c 75bd f7e2 7d3d
000003a0: b826 d2bd 2b45 d0bc a77d 063c 2a9c afbc
000003b0: c548 df3d 4e12 ec3d 1025 153e bd62 8c3d
000003c0: 3ce4 d53d 18ac 1a3d ae75 163e f1fb 89bd
000003d0: 8aff 963c 3c44 bc3c 9669 46bd 0932 5c3e
000003e0: cfe2 8d3a 9e62 53bd 7f70 a03d 23ac 5b3d
000003f0: fd89 d0bd 8f77 163d 8aef 16bd c830 d1bd
0.07831815 -0.07745634 0.14227167 -0.07394575 0.055950522 0.038381215 -0.017330779 -0.016305255
0.059837233 -0.09061541 0.16003968 0.09119639 -0.059957035 -0.17902912 -0.07604766 -0.03627822
-0.09534911 0.15475604 0.12242407 -0.00019294069 -0.08160101 0.13783479 -0.006109847 0.07977265
0.04124472 -0.11328394 0.037593585 0.054374173 0.16417445 0.08425631 0.12834853 -0.0360964
-0.115860514 0.05372629 -0.04238849 0.0657877 -0.047167666 0.09459849 0.04405945 -0.013174988
0.01766129 0.045660906 0.059530325 -0.040203705 -0.09328619 0.0053173634 0.038561806 0.120178655
-0.045395296 -0.057393238 0.041125365 -0.017019719 0.12547737 -0.08959404 -0.111449555 0.12747584
0.08094901 -0.007930732 -0.08510679 -0.12996486 0.09120885 0.11923187 0.06486424 0.0014100709
0.06559188 0.1772091 -0.058474902 -0.06009302 0.1472455 0.011459782 -0.05656374 -0.031976275
0.10286471 0.0064389966 -0.096960954 -0.016214175 0.20982403 -0.02763692 -0.0380053 -0.03979287
-0.021582108 -0.12711672 0.11351413 0.028496908 0.06098066 0.10821329 0.0565629 0.04155123
-0.09616716 0.17938252 -0.050896127 0.03571739 0.20692953 -0.12059827 0.018588394 0.13480951
0.046368856 0.12002275 0.019813178 0.017436245 0.09818136 0.030015953 0.08684627 0.18068062
0.13084145 -0.18402062 -0.068684846 0.13797204 -0.026501844 0.01768992 0.12900496 0.03560583
0.11748588 0.1719731 0.13942313 -0.012069768 0.055659756 0.08642569 0.13524145 0.15834574
-0.13917662 0.10590735 0.13036907 -0.10390407 0.04344931 0.11878751 0.20623024 -0.010232279
0.2003972 0.14484939 0.08579536 -0.03173073 0.025712332 0.07736858 -0.012105381 -0.067673326
0.04557647 -0.020041814 0.068838604 -0.06140433 -0.022330793 0.018452253 0.00893699 0.038610406
0.14677215 -0.0244973 0.2150042 0.15046741 0.016090311 0.06806815 0.032241635 0.00061294495
0.030935222 0.024183901 -0.08203131 -0.083888784 -0.01670763 -0.009834342 -0.03620388 -0.085741326
-0.01721479 0.12904318 0.11307058 -0.14256875 0.11666965 0.047341295 -0.017780904 0.076027475
0.033155397 0.050509986 -0.04217642 -0.055247303 0.11764581 -0.054662757 0.06147727 0.06679008
0.034047615 -0.0013026439 0.16169223 -0.091930896 0.1416766 -1.648951e-05 0.062052656 0.044825032
0.20047194 -0.07575271 0.039807502 -0.07605517 0.098494895 0.11603338 -0.1463481 0.09616624
-0.10907955 -0.043102205 -0.04315906 0.080818094 -0.10700534 -0.05602199 -0.046405863 0.08545232
0.11422915 -0.023841068 0.10811361 0.12604037 0.11090983 -0.09185332 -0.046885636 -0.046250887
-0.09411373 0.122077115 -0.10313882 -0.15462026 -0.098031074 0.084818155 0.15150498 0.16986674
-0.16814013 -0.119950436 0.014615927 -0.03597307 -0.10694975 0.1334994 -0.03289208 -0.07255265
-0.090160884 0.008696459 -0.097782284 -0.020674603 -0.161286 -0.05062549 -0.059887476 0.06198403
-0.10261291 -0.025423607 0.008208669 -0.02143677 0.109025516 0.11526929 0.1456492 0.0685477
0.10443923 0.037761778 0.14693329 -0.06737507 0.018432397 0.022981755 -0.04844054 0.21503462
0.001082504 -0.05160772 0.07833957 0.05363096 -0.10182569 0.036735114 -0.036849536 -0.102143824
