runs/20260226_205618/last.pt (torch, 584195 bytes, 42 tensors)

conv1.weight f4 [32, 3, 7]
0	0x3e1747fd	0.14773555
1	0x3e3a4fd3	0.18194513
2	0xbc86d2ec	-0.016457997
3	0x3e330fd8	0.17486513
4	0xbd2871ca	-0.041124143
5	0x3d01e62a	0.031713642
6	0xbde415e8	-0.11136991
7	0x3e54fe0b	0.20800035
8	0x3e477365	0.19477613
9	0xbd675201	-0.05647469
10	0x3e329b1f	0.17441987
11	0x3e285890	0.16440034
12	0x3e768607	0.24074565
13	0x3e014da6	0.12627277
14	0x3d9565f7	0.07294839
15	0xbd816352	-0.06317772
16	0x3e285c8e	0.16441557
17	0x3d520074	0.051269963
18	0xbdad21a8	-0.08453685
19	0x3d8c9fa6	0.06866388
20	0xbd91b188	-0.071139395
21	0x3ccd58cb	0.025066754
22	0xbcacebca	-0.021108527
23	0x3e67af49	0.2262546
24	0xbe146ccb	-0.14494626
25	0xbd185f35	-0.03720017
26	0x3b964b74	0.0045866314
27	0xbd7709aa	-0.06031195
28	0x3ceb5cfd	0.028730864
29	0xbe751b6d	-0.23936243
30	0x3e58197b	0.2110347
31	0xbe45c6ec	-0.19314164
32	0x3e2bc3d9	0.16773929
33	0x3d2d3fb5	0.042297084
34	0xbd5230b3	-0.051315974
35	0x3dbad057	0.09121769
36	0x3d60e66d	0.05490725
37	0x3e4b615e	0.19861361
38	0x3bf5cf29	0.007501502
39	0xbd9321a6	-0.07184152
40	0xbc6af8c8	-0.014341541
41	0xbd482007	-0.04885867
42	0x3def024b	0.11670359
43	0x3e6f7f10	0.23388314
44	0x3e27b7d2	0.16378716
45	0xbd31703b	-0.043319922
46	0x3e32f678	0.17476833
47	0x3e02098f	0.12698959
48	0x3e251bfc	0.16123956
49	0xbdfe5917	-0.12419336
50	0xbe3eb415	-0.18623383
51	0xbd5223fe	-0.051303856
52	0xbe093a42	-0.1340113
53	0x3e55c054	0.20874149
54	0x3dc9875e	0.09840272
55	0x3df5cee0	0.12002349
56	0x3d59248d	0.053013373
57	0xbbacdb0f	-0.0052751373
58	0x3e2948d9	0.16531695
59	0xbe149280	-0.1450901
60	0x3bf00cad	0.00732573
61	0xbe045f48	-0.12926972
62	0x3d739fab	0.059478443
63	0xbd197d5c	-0.037473068
64	0x3dac34a1	0.08408476
65	0xbca5ace0	-0.020224035
66	0x3e498ecf	0.19683383
67	0xbdadb44b	-0.08481654
68	0xbd955dc3	-0.07293274
69	0xbdde1306	-0.10843472
70	0x3e749c9e	0.2388787
71	0x3e312850	0.17300534
72	0x3e77d41b	0.24202006
73	0xbe21e419	-0.15809669
74	0xbe4b0fcf	-0.19830249
75	0xbe150761	-0.14553596
76	0xbe21e67d	-0.1581058
77	0x3d4e8726	0.050421856
78	0x3da3fe8c	0.08007535
79	0x3e127de1	0.14305831
80	0xbdfa2922	-0.12214877
81	0xbe152727	-0.14565717
82	0x3d8d88e4	0.069108754
83	0xbddeb8f5	-0.108751215
84	0x3e1a5f1b	0.15075342
85	0xbd7954fd	-0.060872067
86	0x3dfa4db7	0.12221854
87	0xbe200ce2	-0.15629914
88	0xbddb10db	-0.10696574
89	0x3d939ad9	0.07207269
90	0x3d581f7b	0.052764397
91	0xbc92f49a	-0.0179389
92	0x3e4c5d12	0.19957379
93	0x3e622ea7	0.22088109
94	0xbe426325	-0.18983133
95	0xbdfff66f	-0.12498175
96	0x3e742e82	0.23845866
97	0xbd527cbc	-0.051388487
98	0xbd9dc939	-0.07704396
99	0xbe20898e	-0.15677473
100	0xbcc73efa	-0.024322022
101	0x3db96d52	0.09054054
102	0xbcc7c249	-0.024384635
103	0xbde5db10	-0.112234235
104	0x3c8ba0e5	0.017044494
105	0xbdfb5962	-0.12272908
106	0xbe2c3bb0	-0.16819644
107	0xbdb5a802	-0.088699356
108	0xbe219163	-0.15778117
109	0xbe0831c6	-0.13300237
110	0x3e6ede7e	0.23327062
111	0x3d854152	0.065065995
112	0x3ddf1077	0.10891812
113	0xbe5e1b7f	-0.21690176
114	0xbdecea9f	-0.11568188
115	0x3cb75168	0.022377685
116	0x3dfe0b52	0.12404503
117	0xbdf22dc0	-0.11825132
118	0xbcef2137	-0.029190643
119	0xbd5c722d	-0.053819824
120	0xbbf6ee1c	-0.007535709
121	0xbdb26910	-0.08711445
122	0xbe11c763	-0.14236216
123	0xbe75e30a	-0.2401239
124	0xbe593dcb	-0.21214978
125	0xbe048dad	-0.1294467
126	0xbd821e44	-0.06353429
127	0xbe2191ac	-0.15778226
128	0x3e39efa6	0.18157825
129	0xbd540b16	-0.051768385
130	0x3e423e39	0.18969049
131	0x3db1b0df	0.086763136
132	0xbe19a353	-0.1500371
133	0x3e59f9bf	0.21286677
134	0xbc504f64	-0.012714241
135	0xbd834c9d	-0.06411097
136	0xbe444897	-0.19168316
137	0xbe40b1da	-0.18817845
138	0x3d97224d	0.07379589
139	0xbd54ff6a	-0.052001394
140	0x3d1a88b4	0.037728027
141	0xbe35f820	-0.17770433
142	0x3e343668	0.1759888
143	0xbdfdb8b2	-0.123887435
144	0x3d0bca40	0.034128428
145	0x3df519cf	0.11967813
146	0x3e55219d	0.20813604
147	0x3e1fc58c	0.15602702
148	0x3e4d25f7	0.20034014
149	0xbe01928c	-0.1265356
150	0x3daa6509	0.08320052
151	0xbdca2187	-0.09869676
152	0xbc5d89ba	-0.013521606
153	0xbe27d4f0	-0.16389823
154	0x3e3a65be	0.18202874
155	0xbe687ea0	-0.22704554
156	0x3d98bf11	0.07458318
157	0x3dc04899	0.09388847
158	0x3cb30249	0.021851676
159	0xbe76e708	-0.24111569
160	0x3e21304d	0.15741082
161	0x3c805892	0.015667234
162	0xbbe10b07	-0.0068677696
163	0xbe1ec71e	-0.15505645
164	0x3df683b9	0.12036843
165	0x3c8bc865	0.017063329
166	0x3afdd5cc	0.0019366085
167	0x3e76ae56	0.24089941
168	0x3dadb367	0.08481484
169	0xbdb52a9a	-0.08846016
170	0xbd9f579c	-0.07780382
171	0x3c922771	0.017841073
172	0x3e29ef78	0.16595256
173	0xbba9c43f	-0.005180865
174	0xbdb499ba	-0.088183835
175	0xbdb3dec4	-0.087827235
176	0xbe692602	-0.22768405
177	0x3dad3b93	0.084586285
178	0x3e43a994	0.19107658
179	0xbe640e0d	-0.22270985
180	0x3e0a89dc	0.13529152
181	0x3db0ab74	0.08626452
182	0x3cb708f2	0.022343133
183	0xbd4f0d71	-0.050549928
184	0x3df9f8bf	0.12205648
185	0x3de90515	0.113779224
186	0x3d6c8703	0.057745945
187	0xbd43fbb2	-0.047847457
188	0xbdc872ef	-0.09787547
189	0xbc9eae63	-0.019370263
190	0xbd22b46a	-0.039722838
191	0xbd85daed	-0.065358974
192	0x3dfd8cf1	0.12380398
193	0x3e2d2956	0.169103
194	0xbd539675	-0.05165716
195	0xbdb21220	-0.08694863
196	0x3d27b30c	0.040942237
197	0x3db5c7b2	0.088759795
198	0x3dbc9215	0.092075504
199	0x3d4ea092	0.0504461
200	0xbe1a3beb	-0.1506192
201	0xbd48047f	-0.048832413
202	0x3e3aa23b	0.18225949
203	0x3dbff279	0.0937242
204	0x3cf1c860	0.029514492
205	0xbd7fda97	-0.062464323
206	0xbe65aae5	-0.22428472
207	0xbe74cfbc	-0.2390737
208	0xbdc4d48b	-0.09610852
209	0x3c8027f9	0.01564406
210	0x3df19cb7	0.11797469
211	0x3de447f3	0.11146536
212	0xbe465759	-0.19369258
213	0xbe103ef3	-0.14086513
214	0xbd48ff03	-0.049071323
215	0x3e4310a2	0.19049314
216	0x3cdb1bfc	0.026746742
217	0xbcf9b4ca	-0.030481715
218	0x3de662ba	0.11249299
219	0xbd4df470	-0.050281942
220	0xbe1e8992	-0.15482166
221	0x3e451aa7	0.19248448
222	0xbcea7390	-0.028619558
223	0x3da38f24	0.07986286
224	0xbdf32dd3	-0.11873975
225	0x3e77fa15	0.24216492
226	0x3e745ba2	0.2386308
227	0x3e03b87d	0.12863345
228	0xbdfad143	-0.12246945
229	0xbe33efc0	-0.17571926
230	0xbe2345af	-0.15944551
231	0x3e01e6b1	0.12685658
232	0x3dc7f2ae	0.09763084
233	0x3e451b54	0.19248706
234	0x3e08ea4c	0.13370627
235	0x3d2db550	0.04240924
236	0xbd4be05f	-0.049774524
237	0xbe60f174	-0.21967107
238	0xbda4b531	-0.08042372
239	0xbe0152fa	-0.1262931
240	0xbc0221f0	-0.007942662
241	0xbd5a3e5a	-0.05328212
242	0xbc084688	-0.008317597
243	0xbdb2c8f2	-0.087297335
244	0xbc9db720	-0.01925236
245	0xbe76a79d	-0.24087377
246	0xbe7578f5	-0.23971923
247	0x3d5daa3f	0.054117437
248	0xbda4d8e4	-0.08049181
249	0x3e02d27b	0.12775604
250	0xbd09e79b	-0.03366814
251	0xbe246628	-0.16054595
252	0xbc85677b	-0.016284695
253	0xbd7e0410	-0.062015593
254	0xbd662045	-0.05618312
255	0xbe2d180a	-0.16903701

bn1.weight f4 [32]
0	0x3f8d1993	1.102343
1	0x3f803b69	1.001813
2	0x3f805c72	1.0028212
3	0x3f8b1bc1	1.0867845
4	0x3f79079e	0.9727725
5	0x3f73b440	0.95196915
6	0x3f82e5f5	1.0226427
7	0x3f8392bf	1.0279158
8	0x3f8051a5	1.0024916
9	0x3f7620e5	0.96143943
10	0x3f8784e5	1.0587431
11	0x3f7de358	0.99175024
12	0x3f80a767	1.0051087
13	0x3f768e15	0.9631055
14	0x3f78b145	0.9714549
15	0x3f81121e	1.0083654
16	0x3f79d790	0.9759455
17	0x3f763c34	0.9618561
18	0x3f7d205a	0.9887749
19	0x3f8f2c0c	1.1185317
20	0x3f7c1f8a	0.98485625
21	0x3f7ae6e6	0.98008573
22	0x3f8b2e3c	1.0873485
23	0x3f86fec6	1.0546501
24	0x3f82e83b	1.0227121
25	0x3f892749	1.0715114
26	0x3f84e0dc	1.0381122
27	0x3f76b5e8	0.96371317
28	0x3f8102ca	1.0078976
29	0x3f662eb4	0.89915013
30	0x3f83ac27	1.0286912
31	0x3f80b486	1.0055091

bn1.bias f4 [32]
0	0xbbea1096	-0.0071430905
1	0x394f0e2c	0.00019746338
2	0xbd151b4c	-0.036402985
3	0x3c550f91	0.0130042
4	0x3bc748d3	0.0060816794
5	0xbc259d55	-0.010108312
6	0xbb623bf9	-0.003452061
7	0xbd188741	-0.037238363
8	0xbde32d34	-0.11092606
9	0xbdcc060c	-0.09962091
10	0x3ca5a675	0.020220974
11	0xbdac764e	-0.08421002
12	0x3c790111	0.015198008
13	0xbc3982d4	-0.011322696
14	0xbd71ffd3	-0.059081864
15	0x3ccd7507	0.025080217
16	0xbd0f312a	-0.034958996
17	0xbd2fa815	-0.042884905
18	0xbd23c3ee	-0.039981775
19	0xbaf94620	-0.0019018091
20	0xbd2ae9b5	-0.041726787
21	0x3ca2e1b7	0.01988302
22	0xbd1ac349	-0.037783895
23	0x3d9cfeea	0.076658085
24	0x3d177a1d	0.03698169
25	0x3cf30295	0.029664317
26	0x3d789c3c	0.06069587
27	0xbd71f44e	-0.059070878
28	0x3b80be87	0.0039289626
29	0xbd8c70d2	-0.06857456
30	0x3cd1fafd	0.025632376
31	0xbca47f1e	-0.020080145

bn1.running_mean f4 [32]
0	0x3cb16cfb	0.021658411
1	0xba16f0aa	-0.00057579076
2	0x3c685540	0.014180481
3	0xba9e8f29	-0.0012097108
4	0x3b980666	0.0046394346
5	0xbc314fa9	-0.010822215
6	0xbb183c5b	-0.0023229334
7	0x3aae006b	0.0013275271
8	0xbaa2e10a	-0.0012426686
9	0x3b806591	0.0039183577
10	0x3b1c74f9	0.0023873432
11	0xba0aa264	-0.00052884803
12	0x3c1102ff	0.008850812
13	0xbb6317ea	-0.0034651705
14	0xb9fcae88	-0.00048195221
15	0xbb6b668a	-0.0035919272
16	0xbb9da929	-0.004811425
17	0xba278141	-0.0006389805
18	0x395dc705	0.00021150343
19	0xba86633d	-0.0010252964
20	0x393fb273	0.00018281657
21	0x39fdb3fb	0.00048390016
22	0x3c025eea	0.0079572
23	0x39c87369	0.0003823296
24	0xbbc236a1	-0.0059269224
25	0x3a3d0f62	0.000721207
26	0x3c41d390	0.011830226
27	0xbbf96d94	-0.0076119397
28	0x3b0396c2	0.0020078872
29	0x3a58ec92	0.0008274998
30	0x3a5a2499	0.00083214935
31	0x3a1e0495	0.00060279045

bn1.running_var f4 [32]
0	0x3f0d7cc0	0.5526848
1	0x3e4702b2	0.19434622
2	0x3f2e510e	0.6809243
3	0x3ef3310d	0.4749836
4	0x3e706889	0.23477377
5	0x3f085514	0.5325482
6	0x3eaf737f	0.34267804
7	0x3e6418a6	0.22275028
8	0x3e5de9ec	0.21671265
9	0x3e98b335	0.29824224
10	0x3eaed0fe	0.34143823
11	0x3eef8e57	0.46788284
12	0x3eddb5c2	0.43302733
13	0x3ec98738	0.39360976
14	0x3eb3afaf	0.35094973
15	0x3ede8399	0.43459776
16	0x3ee7fdd3	0.4531084
17	0x3ea77f76	0.32714432
18	0x3e625d1c	0.22105831
19	0x3e6c7703	0.23092274
20	0x3e5b98a2	0.21444944
21	0x3ead2c57	0.3382289
22	0x3f000ee3	0.50022715
23	0x3e9854f7	0.29752323
24	0x3efd6afc	0.49495685
25	0x3e8f7d26	0.28025168
26	0x3f0e956c	0.5569675
27	0x3f01b18d	0.50661546
28	0x3e90019a	0.28126222
29	0x3e5ce361	0.21571113
30	0x3ecc9319	0.39955977
31	0x3e326503	0.17421345

conv2.weight f4 [64, 32, 5]
0	0x3db4aa32	0.08821525
1	0x3c0dfd70	0.008666381
2	0xbd19bf22	-0.037535794
3	0x3d9f9656	0.07792346
4	0xbd8027bb	-0.06257578
5	0x3c0eb548	0.008710213
6	0xbd5d2e01	-0.05399895
7	0x3c79f572	0.015256273
8	0x3d6e2039	0.0581362
9	0x3c530cee	0.012881501
10	0xbba7b318	-0.005117785
11	0x3d4515cb	0.048116487
12	0xbaad0ec7	-0.0013203257
13	0x3df131fb	0.11777111
14	0xbbf1c934	-0.0073787216
15	0xbc5c1171	-0.013431893
16	0xbdad60e5	-0.08465747
17	0xbd078743	-0.03308798
18	0x3d9a57d4	0.07536283
19	0x3dfa4201	0.122196205
20	0x3c9dc8a3	0.01926071
21	0x3dfc1a69	0.12309725
22	0xbc9430e6	-0.018089723
23	0x3d10fa24	0.035394803
24	0x3d68d239	0.05684111
25	0x3db5dadc	0.08879635
26	0xbc932697	-0.017962737
27	0x3d9598e4	0.07304552
28	0x3cad2027	0.021133495
29	0xbd39370c	-0.045218512
30	0x3b2e03e6	0.0026552617
31	0xbd47d44b	-0.048786443
32	0x3d30c46f	0.043156084
33	0xbda8cac6	-0.08241801
34	0xbd7c819a	-0.061647035
35	0xbd1211d1	-0.035661522
36	0xbb9e5b6b	-0.004832675
37	0xbce688d0	-0.02814141
38	0x3d574871	0.05255932
39	0x3d74e2d6	0.05978664
40	0x3d56e640	0.052465677
41	0xbdcdeb51	-0.10054649
42	0x3dd779d6	0.10521285
43	0x3ddd7a06	0.1081429
44	0x3d00bb00	0.031428337
45	0xbcd6449d	-0.026155764
46	0x3c551a49	0.013006755
47	0x3d06fc40	0.032955408
48	0xbd3af4e0	-0.045643687
49	0xb807169b	-3.220756e-05
50	0x3cb489a1	0.022038283
51	0x3d592e4d	0.05302267
52	0xbd2bf367	-0.041980173
53	0x3cf29e1c	0.029616408
54	0x3d0fc51d	0.03510009
55	0xbe002156	-0.12512717
56	0xbdf991f3	-0.12186041
57	0xbdc14d01	-0.094385155
58	0x3d9c4589	0.0763045
59	0xbd9e952a	-0.077432945
60	0xbdfbbb58	-0.12291592
61	0xbb18d242	-0.0023318683
62	0x3d5aa6c4	0.053381696
63	0x3d668529	0.056279335
64	0xbde0a098	-0.10968131
65	0xbc082749	-0.008310148
66	0x3ce15645	0.027506957
67	0x3cbdd888	0.02317454
68	0x3d087a34	0.033319667
69	0x3c99d7c8	0.01877965
70	0x3cd1ee33	0.025626278
71	0x3d97c745	0.074110545
72	0xbddfc883	-0.109269165
73	0xbd3e6005	-0.04647829
74	0x3c076b05	0.008265262
75	0xbd72f940	-0.059319735
76	0xbd55df53	-0.05221493
77	0x3cd82232	0.026383493
78	0x3c842595	0.016131202
79	0x3d426bdb	0.04746614
80	0xbd5b6b95	-0.053569395
81	0x3ca8e438	0.020616636
82	0x3d93d3cb	0.07218131
83	0xbd79dbc6	-0.061000608
84	0xbbde1b58	-0.006778162
85	0xbd81e25c	-0.06342003
86	0xbdc203e9	-0.09473402
87	0x3d25dad7	0.040491905
88	0xbcce106b	-0.025154313
89	0xbd954512	-0.07288565
90	0x3d5d9753	0.054099392
91	0xbcaef1b4	-0.021355487
92	0xbd63e94b	-0.055642407
93	0x3c154a0b	0.0091118915
94	0x3d5954e2	0.053059466
95	0xbda464c6	-0.080270335
96	0xbd79d2fb	-0.060992222
97	0x3d91a7ca	0.07112081
98	0x3c0d9963	0.008642527
99	0x3d2d710c	0.042344138
100	0xbde1c2ff	-0.11023521
101	0xbd674f72	-0.05647225
102	0xbcfd8bc5	-0.030950436
103	0xbd3cc93c	-0.04609035
104	0xbd196c5e	-0.037456863
105	0x3c093de4	0.008376572
106	0xbc3de9de	-0.011591403
107	0xbb9fd852	-0.0048780823
108	0xbaa704c9	-0.0012742515
109	0xbcf2f94a	-0.029659886
110	0x3c80a1f8	0.015702233
111	0x3c4012a5	0.011723195
112	0xbd934bb5	-0.07192174
113	0xbdc06e56	-0.09396045
114	0x3cc94052	0.024566803
115	0x3d1564ba	0.036473013
116	0xbd842880	-0.06453037
117	0x3d8dd7f2	0.06925954
118	0xbd2ed486	-0.042683147
119	0x3cbde391	0.023179801
120	0x3d0bdcc6	0.034146093
121	0xbd8d4693	-0.068982266
122	0x3d1e826c	0.0386986
123	0xbdf4dc57	-0.11956089
124	0xbd1f74a9	-0.038929615
125	0x3cc05a58	0.02348058
126	0xbdcc55fd	-0.099773385
127	0x3d937770	0.07200515
128	0xbc5f36f6	-0.013623944
129	0x3c1384a7	0.009003795
130	0x3b30ef78	0.0026998203
131	0x3d56e2ce	0.05246239
132	0xbce0685b	-0.02739351
133	0xbd5fa7de	-0.05460345
134	0x3c6a57d9	0.014303171
135	0x3d2b9f1c	0.041899785
136	0x3d744f65	0.05964603
137	0xbd7990b2	-0.060929008
138	0xbd999bc2	-0.075004116
139	0xbcd7113c	-0.026253335
140	0xbcbe448e	-0.023226049
141	0x3ae35f1c	0.001734707
142	0xbafa9061	-0.0019116515
143	0xbd31ff15	-0.043456156
144	0x3cb94bc5	0.022619138
145	0xbc46f43a	-0.012143189
146	0xbd3d2bab	-0.046184223
147	0x3d113492	0.035450526
148	0x3c614215	0.013748665
149	0x3d7f32d2	0.062304325
150	0xbd9d11a8	-0.07669383
151	0xbdbc3f1a	-0.09191723
152	0xbd0af6fe	-0.033926956
153	0xbb2c74f8	-0.0026314836
154	0x3cbef3bd	0.023309583
155	0xbced0d51	-0.028937014
156	0x3dd17059	0.10226507
157	0x3ce2a763	0.027667707
158	0x3d7c69d1	0.061624352
159	0x3c49818e	0.012298955
160	0xbe00a059	-0.12561168
161	0xbdc92c11	-0.09822858
162	0xbdde1eef	-0.10845744
163	0xbd4fe9fb	-0.05076025
164	0xbdf854a0	-0.12125516
165	0x3d095599	0.033528898
166	0xbc871026	-0.016487192
167	0xbd3d6436	-0.046238147
168	0x3bd426c0	0.006474346
169	0xbda29128	-0.079378426
170	0xbd872ee3	-0.0660074
171	0xbd8d1a5e	-0.06889795
172	0xbc1924a1	-0.009347112
173	0xbd4841e4	-0.048890963
174	0x3cb68668	0.022280887
175	0xbd377c19	-0.044796083
176	0xbc267c4c	-0.010161471
177	0x3d993d1e	0.0748236
178	0x3bdc2562	0.0067183236
179	0xbdec4d1e	-0.115381464
180	0xbc945c34	-0.018110372
181	0x3dae8c5f	0.085228674
182	0xbd346429	-0.044040833
183	0x3d4e4f80	0.050368786
184	0x3d71655e	0.058934562
185	0x3c88dcfa	0.016706932
186	0x3d549644	0.051901117
187	0x3d6a950a	0.05727104
188	0xbc391f91	-0.01129903
189	0xbdd3301f	-0.10311913
190	0x3d351d3f	0.044217344
191	0xbd558dd8	-0.052137226
192	0xbd84f654	-0.06492296
193	0x3d832b0a	0.064046934
194	0x3d66d2be	0.056353323
195	0x3cc2d0ed	0.023781264
196	0xbdbfed86	-0.09371476
197	0xbc26f320	-0.010189801
198	0xbbd28ba6	-0.006425339
199	0x3dd84377	0.10559743
200	0x3d8b8ba5	0.068137445
201	0x3c292ebe	0.010326086
202	0xbd1fba70	-0.03899616
203	0x3c9196e7	0.017772151
204	0x3d239a5e	0.039942138
205	0x3b3ee6ac	0.002912919
206	0x3cd73eb4	0.026275016
207	0xbd374930	-0.04474753
208	0xbd1b959d	-0.03798448
209	0xbb832b1a	-0.004002941
210	0xbce28f97	-0.02765636
211	0x3d83adde	0.06429647
212	0x3ce36b1b	0.027761033
213	0x3cdf3f9c	0.027252011
214	0x3d3ed7e3	0.046592604
215	0xbd4bd8da	-0.049767353
216	0xbdcfba48	-0.10142952
217	0xbc68b2c7	-0.01420278
218	0x3a5b135c	0.0008357072
219	0xb84f598d	-4.9436047e-05
220	0xbcd15d6b	-0.02555724
221	0x3cbcad48	0.023031846
222	0x3dc96d76	0.09835331
223	0x3da07857	0.07835453
224	0xbcba09e7	-0.0227098
225	0xbd063fc0	-0.03277564
226	0xbd0b03a8	-0.033939034
227	0xbd8b7008	-0.06808478
228	0x3d2ec1a0	0.042665124
229	0x3cb69cdc	0.022291593
230	0x3d290a7b	0.04126976
231	0xbd224acd	-0.039622117
232	0xbc06639d	-0.008202461
233	0x3b042895	0.002016579
234	0xbdc630ef	-0.09677302
235	0xbc2b2b4c	-0.0104473345
236	0xbc91863e	-0.017764207
237	0xbd884e75	-0.066555895
238	0xbdbaf467	-0.09128647
239	0x3c985fe4	0.018600412
240	0x3d8b8401	0.06812287
241	0x3acd382d	0.0015657
242	0x3d06678c	0.032813594
243	0xbd4eae98	-0.050459474
244	0xbd807b22	-0.06273486
245	0x3d7b1d73	0.06130738
246	0xbcff0ab7	-0.031133039
247	0xbc90e4bf	-0.0176872
248	0xbd6dfdc1	-0.058103327
249	0x3cfb0a94	0.030644692
250	0xbd736a49	-0.059427533
251	0xbd170861	-0.036873225
252	0x3dd235f6	0.102641985
253	0xbbdb4397	-0.006691407
254	0x3c2576d5	0.010099133
255	0x3d943126	0.07235937

bn2.weight f4 [64]
0	0x3f704952	0.9386188
1	0x3f79b5de	0.9754313
2	0x3f735bc0	0.95061874
3	0x3f707862	0.9393369
4	0x3f818a0d	1.0120255
5	0x3f72ab95	0.94793063
6	0x3f7ab92c	0.979388
7	0x3f813208	1.0093393
8	0x3f6fe9d9	0.937162
9	0x3f7419af	0.9535169
10	0x3f85978f	1.0436877
11	0x3f8ad0f6	1.084502
12	0x3f7e3aa5	0.99308234
13	0x3f81a6d8	1.0129042
14	0x3f71f86c	0.94519687
15	0x3f78d15f	0.97194475
16	0x3f842975	1.0325152
17	0x3f7f313e	0.9968451
18	0x3f808ae5	1.0042387
19	0x3f7f69e5	0.9977096
20	0x3f785f0b	0.97020024
21	0x3f7ead7f	0.99483484
22	0x3f8034d4	1.0016122
23	0x3f8167f5	1.010985
24	0x3f87075b	1.054912
25	0x3f820f47	1.0160912
26	0x3f8798ab	1.0593466
27	0x3f6dd803	0.9290773
28	0x3f7ba6ff	0.9830169
29	0x3f7f13ad	0.996394
30	0x3f859752	1.0436804
31	0x3f741852	0.9534961
32	0x3f716108	0.9428868
33	0x3f805b2a	1.0027821
34	0x3f80b402	1.0054934
35	0x3f7c528a	0.98563445
36	0x3f7dde01	0.99166876
37	0x3f744d5a	0.9543053
38	0x3f76a884	0.96350884
39	0x3f81f226	1.0152023
40	0x3f8093fd	1.0045162
41	0x3f8023b8	1.00109
42	0x3f7e6695	0.9937528
43	0x3f83c68d	1.0294968
44	0x3f8285c9	1.0197078
45	0x3f7a4d17	0.9777388
46	0x3f6b61a9	0.9194589
47	0x3f7cc3b2	0.9873611
48	0x3f752e2c	0.9577358
49	0x3f8282e2	1.0196192
50	0x3f823048	1.0170984
51	0x3f804e08	1.0023813
52	0x3f80a487	1.005021
53	0x3f7f5b6e	0.99748886
54	0x3f85f3c3	1.0465015
55	0x3f7e3d7d	0.99312574
56	0x3f88138e	1.0630968
57	0x3f7fe16d	0.9995335
58	0x3f860ec9	1.0473262
59	0x3f76b466	0.96369016
60	0x3f86d626	1.0534103
61	0x3f7b7de7	0.98238987
62	0x3f7dd897	0.99158615
63	0x3f85fede	1.0468404

bn2.bias f4 [64]
0	0xbd9a8554	-0.075449616
1	0xbe1a47ce	-0.15066454
2	0xbe13daf9	-0.14439
3	0xbdc16bc7	-0.09444385
4	0xbe177aaa	-0.14792886
5	0xbcf6f247	-0.030144824
6	0xbda3265c	-0.07966301
7	0xbde09567	-0.10965996
8	0xbdc908f1	-0.098161586
9	0xbde13ac9	-0.109975405
10	0xbdc03ca5	-0.09386567
11	0xbdc24096	-0.09484975
12	0xbd88411d	-0.066530444
13	0xbe09baaf	-0.1345012
14	0xbd7e1b26	-0.06203761
15	0xbdc65aa7	-0.09685259
16	0xbda5b7a1	-0.08091665
17	0xbda5bcef	-0.08092677
18	0xbd99a282	-0.07501699
19	0xbdbb6fd1	-0.09152187
20	0xbdaa3a67	-0.083119206
21	0xbdca03a1	-0.098639734
22	0xbca31051	-0.019905241
23	0xbde0e1cb	-0.109805666
24	0xbe21bef7	-0.15795504
25	0xbd7b0c54	-0.061291054
26	0xbd352ad1	-0.044230286
27	0xbcf54058	-0.029937908
28	0xbd817c3d	-0.06322525
29	0xbd277b4f	-0.04088908
30	0xbcffc0da	-0.031219888
31	0xbd31dd8d	-0.043424178
32	0xbdec74bb	-0.11545702
33	0xbda44bc8	-0.080222666
34	0xbdb19722	-0.086714044
35	0xbded8830	-0.11598241
36	0x3cfb93e1	0.030710163
37	0xbd8dd835	-0.06926004
38	0xbdfc5a8f	-0.1232196
39	0xbde3da0b	-0.11125573
40	0xbddcdc5b	-0.10784217
41	0xbb5fa02f	-0.0034122576
42	0xbdad4bea	-0.08461745
43	0xbdf5d9d4	-0.12004438
44	0xbe02c99c	-0.1277222
45	0xbd829fe9	-0.06378157
46	0xbd8c0660	-0.068371534
47	0xbd13db68	-0.036097914
48	0xbdbb7d9a	-0.09154816
49	0xbe136a43	-0.14396004
50	0xbda9be11	-0.082882054
51	0xbdb96337	-0.09052127
52	0xbdbd0632	-0.09229697
53	0xbd5e148c	-0.054218814
54	0xbe135cff	-0.14390944
55	0xbd85737b	-0.06516167
56	0xbdb04844	-0.086075336
57	0xbdad60da	-0.084657386
58	0xbe39585f	-0.18100117
59	0xbe1571bd	-0.14594169
60	0xbd241073	-0.04005475
61	0xbd861599	-0.06547088
62	0xbce4159c	-0.027842335
63	0xbdee2354	-0.11627832

bn2.running_mean f4 [64]
0	0xbe30a030	-0.17248607
1	0xbeec591a	-0.4616173
2	0xbe7473bb	-0.23872273
3	0x3f471745	0.7776988
4	0xbf2e0e79	-0.67990834
5	0x3ee312c9	0.4435027
6	0xbf260380	-0.6484909
7	0xbe68c79c	-0.22732395
8	0xbdbe1f13	-0.09283271
9	0xbeaa4c3b	-0.33261284
10	0xbdc7cfa6	-0.09756403
11	0xbf06da3b	-0.52676743
12	0x3e947a87	0.2899973
13	0xbf0a61ec	-0.54055667
14	0x3e891421	0.2677317
15	0xbf19f7a7	-0.6014351
16	0xbf851c31	-1.0399228
17	0xbef4ac87	-0.47787878
18	0xbf84c077	-1.0371236
19	0xbe9aeda2	-0.30259424
20	0xbe21a8a8	-0.15786994
21	0xbf047852	-0.51746094
22	0x3f03b15c	0.51442504
23	0xbf402ecf	-0.75071424
24	0xbd83bc30	-0.06432378
25	0xbf16e9b9	-0.5895038
26	0xbe5a64ae	-0.21327469
27	0x3f187b93	0.5956356
28	0xbf360f52	-0.71117127
29	0xbe912d5f	-0.28354928
30	0xbe864006	-0.2622072
31	0x3f09bcde	0.53803813
32	0xbf0355bc	-0.51302695
33	0xbed6a5f2	-0.4192348
34	0xbf41d41f	-0.75714296
35	0xbdb4fc53	-0.088371895
36	0x3f201af5	0.62541133
37	0xbf17e73c	-0.5933721
38	0xbf1ccaaa	-0.6124674
39	0xbebfe310	-0.37477922
40	0xbf2e10f2	-0.67994606
41	0xbe673f45	-0.22582729
42	0xbf47ac61	-0.77997404
43	0xbf408558	-0.75203466
44	0xbf39085f	-0.722784
45	0xbee20eba	-0.4415186
46	0x3cd960c0	0.026535392
47	0x3e016a67	0.12638246
48	0xbe9224fc	-0.28543842
49	0xbf2bab09	-0.67057854
50	0x3edbdb93	0.4294096
51	0xbed3fa8a	-0.41402084
52	0xbf3e40b1	-0.7431746
53	0xbd1bf25a	-0.03807292
54	0xbf338d80	-0.70137787
55	0x3ebec35a	0.37258416
56	0xbe9d1081	-0.30676654
57	0xbf59772a	-0.84947455
58	0xbf1d43ce	-0.61431587
59	0x3ef42046	0.47680873
60	0xbf046d71	-0.51729494
61	0xbdeae867	-0.114701085
62	0xbe7f0514	-0.24904281
63	0xbf13b7c5	-0.57702285

bn2.running_var f4 [64]
0	0x3e4a38a4	0.19748169
1	0x3e25aa96	0.16178355
2	0x3e47d867	0.19516145
3	0x3e81a629	0.25322083
4	0x3e64f082	0.22357371
5	0x3e88eef1	0.26744798
6	0x3e9ad2e9	0.30239037
7	0x3e7fbd47	0.24974547
8	0x3e8ab8f9	0.27094248
9	0x3e811d02	0.25217444
10	0x3f044c6f	0.5167913
11	0x3ea2f0f2	0.31824452
12	0x3e876ac1	0.26448634
13	0x3e8e9afc	0.2785262
14	0x3e5ec8f4	0.21756345
15	0x3ebb3b10	0.365685
16	0x3f11f335	0.5701173
17	0x3eb49a63	0.35274038
18	0x3e9e6576	0.30936784
19	0x3e426ef4	0.18987638
20	0x3e98fab9	0.29878786
21	0x3e887115	0.26648775
22	0x3e6c366f	0.2306764
23	0x3efb1d38	0.4904573
24	0x3e43d35a	0.19123593
25	0x3ee3a5fb	0.4446257
26	0x3eb0a7d1	0.34503034
27	0x3eab6f47	0.33483335
28	0x3f00b3ed	0.50274545
29	0x3e90ad82	0.28257376
30	0x3e8b4558	0.27201343
31	0x3ee0c6fe	0.4390182
32	0x3e84f290	0.2596631
33	0x3e7dd159	0.24786891
34	0x3ec1c761	0.37847427
35	0x3e8c4784	0.27398312
36	0x3ebcf3f0	0.3690486
37	0x3ed826fe	0.4221725
38	0x3eb0e2d6	0.34548062
39	0x3eb3e187	0.35133
40	0x3ea1b8f1	0.31586412
41	0x3f17841c	0.5918596
42	0x3ed1485b	0.40875515
43	0x3ea1ac60	0.31576824
44	0x3ebead19	0.37241438
45	0x3e7f4dea	0.24932066
46	0x3efca451	0.49344113
47	0x3e65f521	0.2245679
48	0x3e504ac6	0.20341024
49	0x3e7ffcbe	0.24998757
50	0x3e4817fb	0.19540398
51	0x3ec9f2d1	0.39443067
52	0x3eeea8a3	0.46613035
53	0x3ef5997a	0.47968656
54	0x3ed3daa2	0.4137774
55	0x3e875226	0.26429862
56	0x3e801bc1	0.25021175
57	0x3ea63636	0.32463235
58	0x3e6daf55	0.23211415
59	0x3e92a46f	0.28641078
60	0x3ed7d161	0.4215193
61	0x3ea53f7e	0.32275003
62	0x3e833990	0.25629854
63	0x3e93e593	0.2888609

conv3.weight f4 [128, 64, 3]
0	0x3c514ac6	0.012774175
1	0x3d749fc6	0.059722684
2	0xbd3d29fd	-0.04618262
3	0x3d4db445	0.050220747
4	0x3d8ff1a4	0.07028511
5	0x39650313	0.00021840287
6	0xbc542b6d	-0.012949807
7	0xbd8a5cbc	-0.06755969
8	0xbd2ddcfa	-0.042447068
9	0x3cadbd94	0.021208562
10	0x3bdacac8	0.0066770054
11	0xbc8b558e	-0.01700857
12	0xbdbd7f22	-0.09252764
13	0xbcd84787	-0.026401294
14	0xbdd8d793	-0.105879925
15	0xbd6ea6ff	-0.05826473
16	0xbda6689e	-0.08125423
17	0xbd6544f7	-0.055973973
18	0x3c8c784a	0.017147202
19	0x3d1877a4	0.037223473
20	0xbd7a4129	-0.061097298
21	0x3dc36120	0.095400095
22	0x3db330f5	0.08749572
23	0x3dea6714	0.11445442
24	0xbd4a9569	-0.049458895
25	0xbd907ad1	-0.07054675
26	0xbd218425	-0.039432663
27	0x3dac50ff	0.08413886
28	0x3dc20e48	0.0947538
29	0x3d3696e5	0.044577498
30	0xbde5d7b0	-0.1122278
31	0xbd7833c4	-0.060596243
32	0xbddbbbf8	-0.107292116
33	0xb9d0969a	-0.00039785058
34	0xbdb4a0ab	-0.088197075
35	0xbd13c7b7	-0.036079135
36	0x3b19f105	0.0023489606
37	0x3c10b57b	0.008832331
38	0x3c347608	0.011014469
39	0x3cbb4a4d	0.022862578
40	0xbd7dc8e6	-0.06195917
41	0xbd90e75a	-0.07075377
42	0xbd4c5664	-0.049887076
43	0x3d0b1f8d	0.033965636
44	0xbdb5e92a	-0.08882363
45	0x3d3b9a76	0.045801602
46	0x3d7de970	0.0619902
47	0x3b5ebef8	0.0033988338
48	0xbcc20c19	-0.02368741
49	0xbcec6763	-0.028857892
50	0xbde530d5	-0.111909546
51	0x3d84ef63	0.06490972
52	0x3bc91460	0.006136462
53	0x3d9fd823	0.07804897
54	0xbd1f5523	-0.038899552
55	0x3cb5b43f	0.022180675
56	0xbd4e3c96	-0.050350748
57	0xbc20d9e0	-0.00981757
58	0x3d976123	0.07391574
59	0x3cf7ce90	0.030249864
60	0x3cac90cd	0.02106514
61	0x3d0c2f1a	0.034224607
62	0x3c7f86ec	0.015596133
63	0x3d50925c	0.05092083
64	0xbd37fe52	-0.044920273
65	0xbc8317ce	-0.016002562
66	0xbdcc2511	-0.09968007
67	0xbdb8f1d1	-0.09030498
68	0xbddf1bd2	-0.10893978
69	0x3ced2312	0.028947387
70	0x3c172126	0.009224212
71	0xbaa67fb2	-0.0012702851
72	0xbce32221	-0.027726235
73	0x3c0cd540	0.008595765
74	0xbd10ea10	-0.03537947
75	0xbd67d74e	-0.056601815
76	0xbd1b290a	-0.037880935
77	0xbd4645e0	-0.04840648
78	0x3d45defe	0.048308365
79	0xbd3eec3f	-0.04661202
80	0x3d47dd77	0.04879519
81	0xbd3dae10	-0.046308577
82	0xbd1f60d2	-0.038910694
83	0xbd466eec	-0.048445627
84	0x3d30d668	0.043173224
85	0xbd1747ad	-0.03693359
86	0x3bed720c	0.0072462615
87	0xbc08eb0b	-0.00835682
88	0x3c4f1fcd	0.012641859
89	0xbcc43f72	-0.023956034
90	0x3c922c72	0.017843459
91	0x3ddce885	0.10786537
92	0x3da9c54c	0.082895845
93	0xbce74b54	-0.028234161
94	0x3d818ec2	0.06326057
95	0x3d725407	0.059162166
96	0xbd8ed89c	-0.06974909
97	0xbca3d929	-0.020001011
98	0xbda64ff6	-0.0812072
99	0x3db7bbae	0.08971344
100	0x3baac05a	0.0052109184
101	0x3b02044c	0.0019838987
102	0xbcac569b	-0.02103739
103	0xbd09e7bd	-0.03366827
104	0xbd74c520	-0.059758306
105	0xbcc8d89a	-0.024517346
106	0x3c96e183	0.01841808
107	0x3cbf10fc	0.023323528
108	0xbde832fa	-0.11337848
109	0xbd6c2953	-0.057656597
110	0xbd61a018	-0.055084318
111	0xbc1abb1c	-0.009444024
112	0xbd1baa32	-0.038004108
113	0x3cd9eb6c	0.026601516
114	0xbd0942e7	-0.03351107
115	0x3b186333	0.0023252487
116	0xbca61f3c	-0.020278566
117	0xbda39157	-0.07986706
118	0x3bf657da	0.007517797
119	0xbd461a45	-0.048364896
120	0x3c48f70e	0.012265934
121	0xbd32ec44	-0.04368235
122	0xbcc110c7	-0.02356757
123	0x38b74962	8.7397886e-05
124	0xbdb5475a	-0.088515
125	0xbd62cf06	-0.055373214
126	0x3c11f7f2	0.008909212
127	0xbbb94c6d	-0.0056548626
128	0xbce15428	-0.02750595
129	0x3d5581b1	0.052125636
130	0x3ca48800	0.020084381
131	0x3c425364	0.011860702
132	0xbc81a841	-0.0158273
133	0x3dd12d99	0.10213775
134	0xbcb8d9c6	-0.02256478
135	0xbd95383b	-0.07286116
136	0xbdda1a12	-0.10649504
137	0xbd63cea3	-0.055616986
138	0xbc3fb93d	-0.011701879
139	0x3c274d51	0.010211305
140	0xbc25540f	-0.010090842
141	0x3d00a84e	0.031410508
142	0x3d250800	0.040290833
143	0xbba7d17c	-0.005121408
144	0xbd13683f	-0.03598809
145	0x3cb2a0b5	0.021805147
146	0x3d94a86a	0.07258685
147	0x3d78f670	0.060781896
148	0x3cdd170b	0.026988527
149	0x3d9b7905	0.07591442
150	0x3ca1628f	0.019700317
151	0x3d18b41d	0.037281144
152	0xbaed3ad8	-0.0018099202
153	0x3d01cc4d	0.031688977
154	0x3c3425a9	0.010995307
155	0xbd1ef238	-0.038805217
156	0x3d82a380	0.063788414
157	0x3d06745e	0.03282582
158	0x3d1a6e81	0.03770304
159	0xbd0fd91b	-0.035119157
160	0xbd81e3b7	-0.06342261
161	0xbdd73430	-0.10508001
162	0xbb280399	-0.002563691
163	0xbd888b43	-0.06667187
164	0xbceec908	-0.029148594
165	0x3c87992a	0.016552527
166	0x3d20a35d	0.039218295
167	0x3cdd3ae7	0.027005626
168	0xbd4cef73	-0.050033044
169	0xbdc7599d	-0.09733889
170	0xbd821a3d	-0.06352661
171	0xbda3000b	-0.079589926
172	0xbd9d0a13	-0.07667937
173	0xbdde578a	-0.108565405
174	0xbd2dc9f3	-0.042428922
175	0xbd4834ef	-0.048878606
176	0xbd428970	-0.047494352
177	0x3d9cda90	0.07658875
178	0x3d125c50	0.035732567
179	0x3dacc6b3	0.08436336
180	0x3d3684e0	0.044560313
181	0xbda2816f	-0.07934844
182	0x3ca92384	0.020646818
183	0xbcde7d13	-0.02715925
184	0x3d23c4c0	0.039982557
185	0x3d44ff52	0.048095055
186	0x3b1693e1	0.0022976326
187	0xbb831446	-0.0040002195
188	0x3d4bbe78	0.049742192
189	0xbd9fc26f	-0.07800757
190	0xbca42763	-0.020038312
191	0x3d2f4c7e	0.042797558
192	0xbd28490f	-0.0410853
193	0x395dbc3d	0.00021146327
194	0xbd73c156	-0.05951055
195	0xbb7c2e4b	-0.0038479741
196	0x3cd16f6a	0.025565822
197	0xbc379591	-0.011205093
198	0x3b5e3dae	0.0033911276
199	0xbd0d72e6	-0.034533404
200	0x3c1e80b0	0.009674236
201	0xbc906993	-0.017628467
202	0xbcd19bca	-0.025586981
203	0xbcb54244	-0.022126324
204	0xbd505ef5	-0.050871808
205	0xbb148d30	-0.0022667162
206	0xbd849f7e	-0.06475733
207	0xbd172ca0	-0.036907792
208	0xbd4a4aa7	-0.0493876
209	0x3c3dd618	0.011586688
210	0x3be1c610	0.006890066
211	0x3d1c34d6	0.038136326
212	0x3abd0903	0.0014422241
213	0x3c42093d	0.011843023
214	0x3d7db373	0.061938714
215	0x3d7afe6c	0.06127779
216	0xbd6411f2	-0.055681176
217	0xbd57b72e	-0.05266493
218	0xbd05682e	-0.032570057
219	0x3bddf0ee	0.006773106
220	0xbafffe89	-0.0019530813
221	0xbd127c2e	-0.03576296
222	0xbd8a91d1	-0.067660935
223	0xbdd75d6c	-0.10515866
224	0xbdcbe8c9	-0.099565096
225	0xbd25678a	-0.040381946
226	0xbdc00cf2	-0.09377469
227	0xbdb5e75d	-0.0888202
228	0xbc9ed985	-0.01939083
229	0x3caf3aa0	0.02139026
230	0xbc23a130	-0.009987161
231	0xbc9a2822	-0.018817965
232	0xbdabadf8	-0.08382791
233	0xbd205bb3	-0.03914995
234	0xbd663998	-0.05620727
235	0xbd871b12	-0.0659696
236	0xbd048b94	-0.032359675
237	0xbc5156c7	-0.012777037
238	0x3c6c7a11	0.0144334
239	0xbd7ec773	-0.06220193
240	0xbd620dd0	-0.055188954
241	0xbd4918f7	-0.049096074
242	0xbd98e32e	-0.07465206
243	0x3c9dd64f	0.01926723
244	0xbd0da030	-0.034576595
245	0x3cfee228	0.0311137
246	0x3c1c0669	0.009523013
247	0xbca88a12	-0.02057365
248	0xbdaa52c7	-0.0831657
249	0xbad7b97e	-0.0016458479
250	0x3d9529c7	0.07283359
251	0x3d3f08db	0.046639305
252	0x3d30ae0f	0.043134745
253	0x3c8a6be7	0.016897155
254	0x3d270743	0.04077841
255	0x3be313a0	0.0069298297

bn3.weight f4 [128]
0	0x3f992481	1.1964265
1	0x3f94b41c	1.1617465
2	0x3f8fc519	1.1232024
3	0x3f9747e0	1.181881
4	0x3f8f5971	1.119917
5	0x3f95bb22	1.1697733
6	0x3f91f231	1.1402036
7	0x3f98e33a	1.1944344
8	0x3f91608d	1.135759
9	0x3f8b57c2	1.0886157
10	0x3f98dcad	1.1942345
11	0x3f8a2df5	1.0795275
12	0x3f8cbd53	1.0995277
13	0x3f943813	1.1579612
14	0x3f8a007a	1.0781395
15	0x3f90bbad	1.1307274
16	0x3f971234	1.180243
17	0x3f92993c	1.1453013
18	0x3fa26f0d	1.269014
19	0x3f961b0d	1.1727005
20	0x3f8f10f0	1.1177044
21	0x3f95db68	1.1707582
22	0x3f8de404	1.108521
23	0x3f92b2dc	1.1460834
24	0x3f92d831	1.1472226
25	0x3f8e3776	1.1110675
26	0x3f92efc2	1.1479418
27	0x3f95cad2	1.1702521
28	0x3f994e2a	1.1976979
29	0x3f921949	1.1413966
30	0x3f94445e	1.1583364
31	0x3f8d5085	1.1040198
32	0x3f8d6e8e	1.1049364
33	0x3f979d56	1.184489
34	0x3f8d7381	1.1050874
35	0x3f987470	1.1910534
36	0x3f919d4e	1.137613
37	0x3f994f95	1.1977412
38	0x3f8ddd49	1.1083156
39	0x3f99db5a	1.2020066
40	0x3f87dead	1.061483
41	0x3f909796	1.129626
42	0x3f8a1e88	1.0790567
43	0x3f92a4b6	1.1456516
44	0x3f8b53a6	1.0884902
45	0x3f8bf95b	1.0935472
46	0x3f989ccb	1.192285
47	0x3f9647ad	1.1740624
48	0x3f980136	1.187537
49	0x3f888102	1.066437
50	0x3f95dd92	1.1708243
51	0x3f985ddf	1.1903647
52	0x3f9c9397	1.2232541
53	0x3f97e860	1.186779
54	0x3f8ca6cb	1.0988401
55	0x3f98ec75	1.1947161
56	0x3f9e1271	1.2349378
57	0x3f892ef2	1.0717452
58	0x3f8c23de	1.0948446
59	0x3f9763b3	1.1827301
60	0x3f8b8eef	1.0902995
61	0x3fa29395	1.2701288
62	0x3f961121	1.1723977
63	0x3f91e027	1.1396531
64	0x3f92f0af	1.1479701
65	0x3f9acf6c	1.209455
66	0x3f8bf907	1.0935372
67	0x3f98bd68	1.1932802
68	0x3f99f1be	1.2026899
69	0x3f8ea0c7	1.1142815
70	0x3f8bb733	1.0915283
71	0x3f94e4a4	1.1632276
72	0x3f950a33	1.1643738
73	0x3f95efb9	1.1713783
74	0x3f9a7d40	1.2069473
75	0x3f8e65ca	1.1124814
76	0x3f996c55	1.1986185
77	0x3f8885d7	1.0665845
78	0x3f92b126	1.1460311
79	0x3f8bca60	1.0921135
80	0x3f98998a	1.1921856
81	0x3f98c2ea	1.1934483
82	0x3f9440d2	1.1582282
83	0x3f97cc09	1.1859142
84	0x3f8c6f91	1.0971547
85	0x3f95aabf	1.1692733
86	0x3f8e1eeb	1.1103185
87	0x3f93fcea	1.1561558
88	0x3f966cbb	1.1751932
89	0x3f9bf9e2	1.2185633
90	0x3f974e57	1.1820782
91	0x3f8cad41	1.0990373
92	0x3f98257a	1.1886437
93	0x3f9bc839	1.2170478
94	0x3f8b76b3	1.0895599
95	0x3f96ad77	1.1771687
96	0x3f9cc6d0	1.2248173
97	0x3f9c85f3	1.2228378
98	0x3f9522a7	1.16512
99	0x3f86bf8b	1.0527204
100	0x3f98487c	1.189712
101	0x3f8a9df2	1.0829451
102	0x3f984d89	1.1898662
103	0x3f98fc46	1.1951988
104	0x3fa143bf	1.25988
105	0x3f96ba2a	1.1775563
106	0x3f94c675	1.1623064
107	0x3f98bf5b	1.1933397
108	0x3f8c8166	1.0976989
109	0x3f9650cb	1.1743406
110	0x3f91e5a0	1.1398201
111	0x3f8cff02	1.1015322
112	0x3f91e820	1.1398964
113	0x3f969a64	1.1765866
114	0x3f93c9a3	1.154591
115	0x3f93958b	1.1530012
116	0x3fa1847b	1.2618555
117	0x3f90fb90	1.1326771
118	0x3f8fb242	1.1226275
119	0x3f996f8e	1.1987169
120	0x3f8c8942	1.0979388
121	0x3f8d037d	1.101669
122	0x3f96b657	1.1774396
123	0x3f8f7d3b	1.1210092
124	0x3f97bab8	1.1853857
125	0x3f8e0b47	1.1097192
126	0x3f920391	1.1407338
127	0x3f8b4b49	1.088235

bn3.bias f4 [128]
0	0x3da0571a	0.07829113
1	0x3cbd8c2d	0.02313813
2	0x3ced1091	0.028938564
3	0x3de388b7	0.11110061
4	0x3d6bb06f	0.057541307
5	0x3d999f2c	0.07501063
6	0x3d2ab9ff	0.041681286
7	0x3d81c404	0.06336215
8	0x3d943226	0.072361276
9	0x3cb843bd	0.022493238
10	0x3de523c7	0.111884646
11	0x3d4f84d6	0.05066379
12	0x3d6b1175	0.057389695
13	0x3d43cc37	0.047802176
14	0x3c163800	0.009168625
15	0x3d3e770e	0.04650026
16	0x3d8634fa	0.06553073
17	0x3dc80bb9	0.09767861
18	0x3db02f6e	0.086027965
19	0x3dbb6a00	0.09151077
20	0x3d895628	0.06705886
21	0x3db85d8c	0.09002218
22	0x3d9425a4	0.07233742
23	0x3db14f7b	0.08657738
24	0x3db257f2	0.087081805
25	0x3d6c7df0	0.05773729
26	0x3da80f0b	0.08205994
27	0x3db4e484	0.088326484
28	0x3ded605a	0.11590643
29	0x3dc0f115	0.09420983
30	0x3db24b69	0.087057896
31	0x3cef53c5	0.02921475
32	0x3d32379b	0.04351006
33	0x3dbc537f	0.09195613
34	0x3c43a649	0.011941501
35	0x3de41205	0.111362495
36	0x3d6bfb31	0.0576126
37	0x3e02e558	0.127828
38	0x3dc4b5a7	0.0960496
39	0x3dc160bc	0.09442279
40	0x3d66b6be	0.05632662
41	0x3d9c625f	0.0763595
42	0x3d120248	0.035646707
43	0x3dc1b380	0.09458065
44	0x3d06f43f	0.032947775
45	0x3c82b848	0.015957013
46	0x3cb48c54	0.02203957
47	0x3d6f3cda	0.058407642
48	0x3db38d37	0.08767169
49	0x3c2fb81a	0.010725046
50	0x3d5e462a	0.054266132
51	0x3ddf3a80	0.1089983
52	0x3deac977	0.114642076
53	0x3db589b8	0.088641584
54	0x3d7dad4d	0.06193285
55	0x3dee4524	0.11634281
56	0x3de5afd7	0.112151794
57	0x3d82a106	0.06378369
58	0x3d634a09	0.055490527
59	0x3da8fdef	0.08251559
60	0x3da0bc9b	0.07848474
61	0x3e0ff712	0.14059094
62	0x3dc810cb	0.09768828
63	0x3d31d5e8	0.043416888
64	0x3d986a97	0.074422054
65	0x3df7c770	0.120985866
66	0x3d6cd2d8	0.057818264
67	0x3db5db08	0.088796675
68	0x3df7a2b2	0.120915785
69	0x3d392281	0.04519892
70	0x3c38e29e	0.0112844985
71	0x3db8616c	0.09002957
72	0x3d7ef49a	0.06224499
73	0x3d09ce88	0.03364423
74	0x3dae9534	0.08524552
75	0x3d155169	0.036454592
76	0x3de3e1a6	0.111270234
77	0x3c37b95a	0.011213625
78	0x3d199206	0.037492774
79	0x3d98887c	0.07447907
80	0x3d980439	0.074226804
81	0x3dcfe1f4	0.10150519
82	0x3dd13a89	0.10216243
83	0x3d8fd03b	0.07022139
84	0x3d1d5505	0.03841116
85	0x3dbdd691	0.09269441
86	0x3d07f37a	0.03319118
87	0x3da0d2b7	0.07852691
88	0x3d8bb4bc	0.06821582
89	0x3d96661c	0.073436946
90	0x3dc6b4a4	0.09702423
91	0xbcd47c58	-0.025938198
92	0x3decbb84	0.11559203
93	0x3d86d1db	0.065829955
94	0x3d18f6fd	0.03734492
95	0x3e01dc12	0.12681606
96	0x3db4a07a	0.08819671
97	0x3ddb7c59	0.10717077
98	0x3dc2daf0	0.09514415
99	0x3c17f355	0.0092743235
100	0x3dc5177a	0.096236184
101	0x3caa528d	0.020791316
102	0x3ddd1220	0.10794473
103	0x3dfe3f9b	0.124144755
104	0x3dec9e96	0.11553685
105	0x3d73409a	0.05938778
106	0x3db04e75	0.086087145
107	0x3db3bb61	0.08775974
108	0x3d2506bd	0.04028963
109	0x3d88814e	0.06665288
110	0x3dbb03e0	0.091315985
111	0xbb1aff78	-0.0023650806
112	0x3dbb6a13	0.091510914
113	0x3dc4d185	0.09610275
114	0x3dcdde35	0.10052148
115	0x3da02a04	0.07820514
116	0x3dfd9282	0.1238146
117	0x3dbb8482	0.09156133
118	0x3dbb3edd	0.091428496
119	0x3dac5838	0.08415264
120	0x3d1344cc	0.03595428
121	0x3dc749b7	0.09730857
122	0x3df2eb3d	0.118612744
123	0x3d83b6db	0.06431361
124	0x3df3a598	0.11896819
125	0x3d3a0264	0.045412436
126	0x3dcbc8ac	0.099503845
127	0x3cc22341	0.023698451

bn3.running_mean f4 [128]
0	0xbf285ce5	-0.65766746
1	0xbf6b82eb	-0.9199664
2	0x3dbe3b2d	0.09288631
3	0xbe243c12	-0.1603854
4	0xbf93e371	-1.1553785
5	0xbdf4c67a	-0.11951919
6	0xbece9d3f	-0.40354344
7	0xbe940f48	-0.2891791
8	0x3f10a358	0.5649924
9	0x3ec78947	0.38971922
10	0xbdcdce30	-0.10049093
11	0xbcd8247f	-0.02638459
12	0x3ed47174	0.41492808
13	0xbf625472	-0.88410103
14	0x3f14eb3c	0.5817144
15	0xbf34aaf8	-0.7057338
16	0xbf45d32c	-0.7727535
17	0xbf019ae9	-0.50627
18	0xbe56a344	-0.20960718
19	0xbf34b229	-0.7058435
20	0xbf68aef1	-0.9089194
21	0x3ef4a88a	0.47784835
22	0x3d8a8123	0.06762912
23	0x3f13fd9d	0.5780886
24	0xbf8f8406	-1.1212165
25	0xbf25264a	-0.6451155
26	0xbf126042	-0.5717813
27	0x3e913dc5	0.2836744
28	0x3e095ac9	0.13413538
29	0xbf08cc79	-0.53437
30	0x3edeaafe	0.43489832
31	0x3f0298ee	0.510146
32	0x3e631d24	0.22179085
33	0xbec301a8	-0.380872
34	0x3e14d6e1	0.14535095
35	0x3e0aa7c8	0.13540566
36	0xbf6600e4	-0.8984511
37	0x3f0d25df	0.5513591
38	0xbdceb35a	-0.10092802
39	0xbf8317ca	-1.0241635
40	0x3d89b921	0.06724764
41	0xbf2de52e	-0.67927825
42	0x3df0f8de	0.11766218
43	0xbe2de8e3	-0.1698337
44	0xbf756915	-0.9586347
45	0x3efc246d	0.4924654
46	0xbf0f5cbd	-0.5600088
47	0x3f0bbd3e	0.54585636
48	0xbf84fdd1	-1.0389959
49	0x3e319e5c	0.17345566
50	0xbf3e269c	-0.74277663
51	0x3e389f75	0.18029578
52	0xbe0074aa	-0.12544504
53	0xbf96ba7a	-1.1775658
54	0xbd862112	-0.065492764
55	0x3e300c87	0.17192279
56	0xbd9592d0	-0.07303393
57	0x3efc5a04	0.49287426
58	0xbdc4e451	-0.096138604
59	0xbf187a7f	-0.59561914
60	0xbf3be89f	-0.73401827
61	0x3e168815	0.14700349
62	0x3ecdad77	0.40171406
63	0xbf758702	-0.9590913
64	0x3e65cc1d	0.22441144
65	0xbe36a138	-0.17834938
66	0xbf15801f	-0.5839862
67	0xbf5f6360	-0.8726101
68	0x3dc2362e	0.0948299
69	0x3e648961	0.22318031
70	0x3f5527de	0.8326396
71	0xbf92fe36	-1.1483829
72	0xbeea7029	-0.45788696
73	0xbea6434d	-0.3247322
74	0xbf589d31	-0.84614855
75	0xbe4e9362	-0.2017341
76	0x3b866eae	0.0041025495
77	0x3f064eb4	0.5246384
78	0xbdb48c5e	-0.088158354
79	0x3e199144	0.1499682
80	0xbf574338	-0.8408694
81	0xbf8dd8f0	-1.1081829
82	0x3e076179	0.13220777
83	0xbe86d291	-0.26332524
84	0x3f22c9b8	0.6358905
85	0x3cdf6812	0.027271304
86	0x3deae4cc	0.11469421
87	0xbe49093f	-0.19632433
88	0xbeb7a075	-0.35864606
89	0xbe1d9119	-0.15387382
90	0x3eb37df1	0.35057023
91	0x3f32d092	0.69849503
92	0xbe13e410	-0.14442468
93	0xbf4d435f	-0.80180925
94	0x3e4c0445	0.19923504
95	0x3e9f42d7	0.31105682
96	0xbe198caf	-0.14995073
97	0xbe10788f	-0.1410849
98	0x3e3051e0	0.17218733
99	0xbdda66f3	-0.10664167
100	0x3e1c7eac	0.15282696
101	0x3ea8dc02	0.32980353
102	0x3ee3338a	0.4437526
103	0xbe2bad84	-0.1676541
104	0xbe04852e	-0.12941429
105	0xbf522c01	-0.82098395
106	0xbf13ede8	-0.5778489
107	0xbde84a9e	-0.11342357
108	0xbe567799	-0.2094406
109	0x3d8d2def	0.06893527
110	0xbefd9fff	-0.4953613
111	0xbed6560b	-0.4186252
112	0xbeb4f965	-0.35346523
113	0x3f0c57da	0.5482155
114	0xbe8d70ce	-0.27625126
115	0xbf4693f0	-0.77569485
116	0xbeb3a7a1	-0.35088828
117	0x3f1b01d3	0.6054966
118	0x3f3f8685	0.74814636
119	0xbf0b215c	-0.5434778
120	0x3d00015c	0.031251296
121	0x3ea3d44b	0.31997904
122	0xbe8115f1	-0.25212052
123	0xbef019c5	-0.4689466
124	0x3dac119a	0.08401795
125	0xbf3441ab	-0.704127
126	0x3f1dd7d8	0.61657476
127	0x3f6ece34	0.9328339

bn3.running_var f4 [128]
0	0x3dda1e99	0.10650367
1	0x3dd950ee	0.10611139
2	0x3e0ed15c	0.13947052
3	0x3e03b849	0.12863268
4	0x3e27ec50	0.1639874
5	0x3e0fe79c	0.14053196
6	0x3ddc79e8	0.10765439
7	0x3df8bfe3	0.121459745
8	0x3e278190	0.16358018
9	0x3e31972b	0.17342822
10	0x3df8ba4d	0.12144909
11	0x3e5e60f0	0.21716666
12	0x3e53cfef	0.20684789
13	0x3de470ec	0.11154351
14	0x3e2f196c	0.17099541
15	0x3deea177	0.11651891
16	0x3de295b2	0.11063708
17	0x3e2ef266	0.17084655
18	0x3e09b600	0.13448334
19	0x3dd16acc	0.10225448
20	0x3dac8b46	0.08425002
21	0x3e0f3782	0.13986018
22	0x3e3d7b8e	0.18504164
23	0x3e2a74a3	0.16646056
24	0x3df99ffc	0.12188718
25	0x3e0450f5	0.12921508
26	0x3dcfde2f	0.101498
27	0x3ead67e8	0.33868337
28	0x3de71ec9	0.11285169
29	0x3e1f2d64	0.15544659
30	0x3e0b5306	0.1360589
31	0x3e0c2d57	0.13689171
32	0x3e27d06b	0.16388099
33	0x3e09ac38	0.13444602
34	0x3e2ad0da	0.16681233
35	0x3e399d51	0.18126418
36	0x3dd3090a	0.103044584
37	0x3e14a54d	0.14516182
38	0x3e42b77d	0.19015308
39	0x3dd86ff9	0.10568232
40	0x3e2ad249	0.1668178
41	0x3e2e6703	0.17031483
42	0x3e1f81af	0.15576814
43	0x3e60d41c	0.21955913
44	0x3de79a72	0.11308755
45	0x3e2c6bcf	0.16838
46	0x3de1be30	0.110226035
47	0x3e15a076	0.14611992
48	0x3db49434	0.0881733
49	0x3e22358e	0.15840742
50	0x3de553ff	0.111976616
51	0x3e217ec8	0.1577102
52	0x3df55e14	0.119808346
53	0x3df05c13	0.11736312
54	0x3e02043b	0.12696926
55	0x3dfa4bbe	0.12221478
56	0x3e1485e2	0.14504197
57	0x3e417ed6	0.1889604
58	0x3df23519	0.11826534
59	0x3e0a8ec8	0.13531029
60	0x3df78a3d	0.12086914
61	0x3e0c9d33	0.13731842
62	0x3e03a3aa	0.12855402
63	0x3ddab596	0.10679166
64	0x3e6ebf24	0.23315102
65	0x3deee148	0.11664063
66	0x3e050d74	0.12993413
67	0x3dd07cec	0.10180077
68	0x3e1645c7	0.14675055
69	0x3e3833b1	0.17988469
70	0x3e6319f6	0.22177872
71	0x3df9f882	0.12205602
72	0x3dccf9cd	0.10008583
73	0x3e02c024	0.12768608
74	0x3dd5436a	0.10413249
75	0x3deb6a8b	0.11494931
76	0x3e056fe8	0.1303097
77	0x3e2425ec	0.16030091
78	0x3e451622	0.19246724
79	0x3e3c121d	0.18366285
80	0x3e05a736	0.13052067
81	0x3dcf39e7	0.10118466
82	0x3e2b709b	0.16742174
83	0x3dffa5fa	0.124828294
84	0x3e317be0	0.17332411
85	0x3de499da	0.11162157
86	0x3e10cbbe	0.14140221
87	0x3dcffc95	0.10155598
88	0x3df6d928	0.12053138
89	0x3de8a444	0.11359456
90	0x3e334b46	0.17509183
91	0x3e5d7477	0.21626459
92	0x3e067faf	0.13134645
93	0x3dda4532	0.10657729
94	0x3e27803e	0.16357514
95	0x3dec09e5	0.11525325
96	0x3e15c594	0.14626151
97	0x3e26df35	0.16296084
98	0x3e2fa2ab	0.17151897
99	0x3e2a635c	0.16639465
100	0x3e6f43a0	0.2336564
101	0x3e469cc7	0.19395743
102	0x3e101182	0.14069179
103	0x3e02253e	0.1270952
104	0x3e015987	0.12631808
105	0x3dd8452b	0.10560068
106	0x3dc5d9fd	0.096607186
107	0x3dfbd70c	0.12296876
108	0x3e074313	0.1320918
109	0x3df81806	0.12113957
110	0x3e039f54	0.12853748
111	0x3e153a2c	0.14572972
112	0x3e14c4d2	0.14528206
113	0x3e40e513	0.18837385
114	0x3dea174b	0.11430224
115	0x3dffd169	0.12491114
116	0x3e2381af	0.15967439
117	0x3e1f6b68	0.15568316
118	0x3e47a7a0	0.19497538
119	0x3e084f60	0.13311529
120	0x3e1cb020	0.15301561
121	0x3e99dbc7	0.3005049
122	0x3df8cebf	0.12148809
123	0x3df928fd	0.12166021
124	0x3e23eff9	0.16009511
125	0x3de52a41	0.111897
126	0x3e186e9e	0.14885947
127	0x3e28e070	0.16491866

fc1.weight f4 [64, 128]
0	0x3da01528	0.07816535
1	0xbda5a259	-0.08087606
2	0x3e24bcb7	0.16087614
3	0xbda4fba7	-0.080558114
4	0x3d6a3d26	0.057187222
5	0x3d4e326a	0.050341047
6	0xbcc87126	-0.024468016
7	0xbcc38210	-0.02386573
8	0x3d9a2358	0.075262725
9	0xbdbb9faf	-0.091613166
10	0x3e30016a	0.1718804
11	0x3dc7c7f4	0.09754935
12	0xbd4698ba	-0.048485495
13	0xbe482927	-0.19546948
14	0xbd9d19c6	-0.076709315
15	0xbd088be1	-0.033336524
16	0xbdd08ab6	-0.10182707
17	0x3e2247fe	0.15847775
18	0x3e10022f	0.14063333
19	0x3bb1ac88	0.0054221787
20	0xbdb5ccd9	-0.08876962
21	0x3e1fbcff	0.1559944
22	0xbc0148ce	-0.007890893
23	0x3dbc3d64	0.09191397
24	0x3d1b6011	0.037933413
25	0xbde96275	-0.11395732
26	0x3d142fb4	0.036178306
27	0x3d737503	0.059437763
28	0x3e39c10e	0.18140051
29	0x3db67d98	0.08910674
30	0x3e12fce5	0.14354284
31	0xbced20d0	-0.02894631
32	0xbe01034f	-0.12598918
33	0x3d904660	0.07044673
34	0xbd38228a	-0.044954814
35	0x3d84b9de	0.06480764
36	0xbd698563	-0.057011973
37	0x3df291d0	0.11844218
38	0x3d667a41	0.056268934
39	0xbcf6fb88	-0.030149236
40	0x3cb82fe0	0.022483766
41	0x3d711cde	0.05886542
42	0x3d90bb63	0.07066991
43	0xbd14d66e	-0.03633731
44	0xbdd393ee	-0.1033095
45	0x3c59cd83	0.013293627
46	0x3d0ddf4c	0.03463678
47	0x3e0aaa05	0.1354142
48	0xbd73d938	-0.059533328
49	0xbd86cd2b	-0.065821014
50	0x3d133770	0.03594154
51	0xbc993754	-0.01870314
52	0x3e14988e	0.1451132
53	0xbdd2cf2d	-0.10293422
54	0xbdf54111	-0.11975301
55	0x3e143b36	0.14475712
56	0x3dcb0fe7	0.099151425
57	0xbb463858	-0.0030245986
58	0xbdc15871	-0.09440697
59	0xbe0f83ae	-0.14015076
60	0x3dbdfa4f	0.09276258
61	0x3e0f823c	0.14014524
62	0x3d9057ab	0.07047971
63	0xbc2e1cbe	-0.01062697
64	0x3d984193	0.07434382
65	0x3e413657	0.18868385
66	0xbd8813ba	-0.066443875
67	0xbd968740	-0.07350016
68	0x3e25dc05	0.16197212
69	0x3c312c45	0.010813777
70	0xbd55c10f	-0.05218607
71	0xbd1cbb4d	-0.03826456
72	0x3dc9ebdc	0.0985944
73	0x3b5f5df2	0.0034083095
74	0xbde21f44	-0.1104112
75	0xbca7161a	-0.020396281
76	0x3e690a7d	0.22757907
77	0xbd092759	-0.03348479
78	0xbd268c62	-0.040661223
79	0xbd2520b2	-0.040314384
80	0xbcd3bf68	-0.025848106
81	0xbe0f098b	-0.13968484
82	0x3ddcbb82	0.10777952
83	0x3cdc312b	0.026878914
84	0x3d73205e	0.05935704
85	0x3e00b9b2	0.12570837
86	0x3d661664	0.056173697
87	0x3d5fa519	0.05460081
88	0xbdd61b74	-0.10454455
89	0x3e407608	0.18795025
90	0xbd453c68	-0.04815331
91	0x3d272b7a	0.040812947
92	0x3e646077	0.22302423
93	0xbe052422	-0.13002065
94	0x3c682729	0.014169493
95	0x3e22251e	0.15834472
96	0x3d3c041f	0.045902368
97	0x3e037d99	0.1284088
98	0x3cc271df	0.023735939
99	0x3c67c8c6	0.014146989
100	0x3dc62194	0.09674373
101	0x3cb9bef0	0.022674054
102	0x3dc8be4d	0.09801922
103	0x3e4fa811	0.20278956
104	0x3e07b265	0.13251646
105	0xbe4d18fd	-0.20029064
106	0xbda26d7f	-0.07931041
107	0x3e0eabb3	0.13932686
108	0xbd0a9b26	-0.033839367
109	0x3cd702b4	0.026246406
110	0x3e0cb7b2	0.13741949
111	0x3d43360e	0.047658972
112	0x3dfa7918	0.12230128
113	0x3e41351a	0.18867913
114	0x3e1ccdda	0.15312901
115	0xbc9b091d	-0.018925244
116	0x3d814dda	0.06313677
117	0x3dccce08	0.10000235
118	0x3e14af0f	0.14519905
119	0x3e2b1f81	0.16711237
120	0xbe17763a	-0.14791194
121	0x3df2e449	0.11859948
122	0x3e18adf9	0.14910115
123	0xbdf19426	-0.11795835
124	0x3d536add	0.051615585
125	0x3e0a506a	0.13507238
126	0x3e653817	0.22384678
127	0xbb543159	-0.0032378046
128	0x3e5d41ba	0.21607104
129	0x3e1fb966	0.15598068
130	0x3dca1a37	0.09868281
131	0xbce952e7	-0.028481914
132	0x3d173f52	0.03692562
133	0x3db704c3	0.08936455
134	0xbc95403b	-0.018219104
135	0xbda1c59c	-0.07899019
136	0x3d5d88b4	0.05408545
137	0xbc887292	-0.016656194
138	0x3d7e23e8	0.06204596
139	0xbd8de252	-0.06927933
140	0xbcbea2c4	-0.023270972
141	0x3c0e8211	0.008698002
142	0x3c3f99ae	0.011694355
143	0x3d5ce519	0.053929422
144	0x3e224e0e	0.15850088
145	0xbceded20	-0.029043734
146	0x3e6fbbb6	0.2341145
147	0x3e2ba068	0.16760409
148	0x3c9f7cc1	0.019468667
149	0x3d8d7645	0.06907324
150	0x3ce322e1	0.027726592
151	0xbb5a6e26	-0.0033329814
152	0x3d136c3f	0.035991903
153	0x3cf72e21	0.030173363
154	0xbdadd124	-0.08487156
155	0xbdd369f6	-0.10322945
156	0xbcbde5fa	-0.02318095
157	0xbbbf519a	-0.005838585
158	0xbd003aaa	-0.031305946
159	0xbdb5d6fe	-0.08878897
160	0xbc887d7d	-0.0166614
161	0x3e123181	0.14276697
162	0x3df39e0b	0.11895379
163	0xbe301e9e	-0.1719918
164	0x3dfbe9dc	0.123004645
165	0x3d6aecc3	0.0573547
166	0xbc76fb76	-0.015074601
167	0x3d958dad	0.07302413
168	0x3d122675	0.035681207
169	0x3d60ae61	0.0548538
170	0xbd159f34	-0.03652878
171	0xbd80b12a	-0.06283791
172	0x3df7fa59	0.12108297
173	0xbd687337	-0.056750502
174	0x3d9cafba	0.07650705
175	0x3d8afd89	0.06786639
176	0x3d0a42cf	0.03375512
177	0x3b1091df	0.0022059602
178	0x3e2fcaaf	0.17167161
179	0xbdf1415a	-0.11780043
180	0x3e2159a1	0.15756847
181	0xba094614	-0.00052365777
182	0x3d6fb23e	0.058519594
183	0x3d6c30d8	0.05766377
184	0x3e647afc	0.2231254
185	0xbda1b5ed	-0.07896028
186	0x3d13ad31	0.03605384
187	0xbd9dab83	-0.07698729
188	0x3dce0421	0.10059381
189	0x3df9740a	0.12180336
190	0xbe252474	-0.16127187
191	0x3dd4b79f	0.103865854
192	0xbe01177a	-0.12606612
193	0xbd3b4404	-0.04571916
194	0xbd439174	-0.047746137
195	0x3da884c5	0.08228449
196	0xbdfea2f8	-0.124334276
197	0xbd5ceabd	-0.0539348
198	0xbd3b37a9	-0.04570738
199	0x3dad2221	0.08453775
200	0x3e02eaf5	0.12784941
201	0xbd0404ff	-0.032231327
202	0x3de7886a	0.11305316
203	0x3e08e4e7	0.1336857
204	0x3de8bf78	0.11364645
205	0xbdc1e830	-0.094681144
206	0xbd619894	-0.05507715
207	0xbd3fa644	-0.046789423
208	0xbdcba1b5	-0.099429525
209	0x3dfe9acf	0.12431871
210	0xbe0ed044	-0.13946635
211	0xbe25b80a	-0.16183487
212	0xbdc9e014	-0.09857193
213	0x3dcb5946	0.09929137
214	0x3e217b62	0.15769723
215	0x3e3fca19	0.18729438
216	0xbe32598b	-0.1741697
217	0xbe0902b1	-0.13379933
218	0x3c242b31	0.010020063
219	0xbd0109be	-0.03150343
220	0xbdf0ab33	-0.11751404
221	0x3e11b882	0.1423054
222	0xbcf2ab49	-0.02962269
223	0xbd9f8bfa	-0.0779037
224	0xbdcceb88	-0.100058615
225	0x3954fbdb	0.00020311719
226	0xbdf60052	-0.1201178
227	0xbca05572	-0.019571993
228	0xbe408adf	-0.18802975
229	0xbd43ec3a	-0.047832705
230	0xbd8bd1b6	-0.068271086
231	0x3d9f5909	0.07780654
232	0xbdeeb157	-0.11654919
233	0xbcff6b3c	-0.031179063
234	0x3bcc776c	0.006239822
235	0xbd047049	-0.032333646
236	0x3de8eebd	0.11373661
237	0x3e0207ea	0.12698331
238	0x3e1cd580	0.15315819
239	0x3d9eba0e	0.07750331
240	0x3dd87735	0.10569612
241	0x3d1e60d8	0.038666576
242	0x3e1bb7dd	0.15206857
243	0xbd905e52	-0.0704924
244	0x3b7cb006	0.0038557067
245	0x3cdd9d29	0.027052479
246	0xbd5a56d8	-0.053305477
247	0x3e706856	0.23477301
248	0xba978575	-0.0011560159
249	0xbd70df4f	-0.058806714
250	0x3dcb1de5	0.09917811
251	0x3d6034b4	0.05473776
252	0xbe000a8b	-0.12504022
253	0x3d478c6d	0.048717905
254	0xbd0dba11	-0.034601275
255	0xbdd1ba3d	-0.102406
