runs/20260226_205212/best.pt (torch, 215157 bytes, 18 tensors)

conv1.weight f4 [32, 3, 7]
0	0x3e0f00ba	0.13965121
1	0x3e37386e	0.1789262
2	0xbcf2dce2	-0.02964634
3	0x3e3429d9	0.17594089
4	0xbd545212	-0.05183608
5	0x3d0203fb	0.031742077
6	0xbddb5be6	-0.107108876
7	0x3e4d9814	0.20077544
8	0x3e582c23	0.21110587
9	0xbd79243b	-0.060825568
10	0x3e48fe19	0.1962818
11	0x3e21523f	0.1575403
12	0x3e759ef8	0.23986423
13	0x3df877d2	0.12132229
14	0x3da3caeb	0.07997688
15	0xbd3db55c	-0.046315536
16	0x3e247787	0.16061221
17	0x3d495ed1	0.04916269
18	0xbdb12a21	-0.086506136
19	0x3d8e5c96	0.06951253
20	0xbd88defd	-0.06683157
21	0x3c9f311d	0.019432599
22	0xbce3664b	-0.027758738
23	0x3e684993	0.22684316
24	0xbe071d03	-0.13194661
25	0xbd39116f	-0.04518264
26	0xbb95298d	-0.0045520724
27	0xbd8cef13	-0.06881537
28	0x398b0cb1	0.00026521602
29	0xbe706bed	-0.2347867
30	0x3e534048	0.2062999
31	0xbe3e62a9	-0.18592323
32	0x3e2cd965	0.16879804
33	0x3cf5a519	0.029985951
34	0xbd8f86b0	-0.070081115
35	0x3de9f2f9	0.114232965
36	0x3d6ad5a5	0.057332654
37	0x3e49a48f	0.1969168
38	0x3c7d8b27	0.015475071
39	0xbd8ba07c	-0.06817719
40	0x3bc60466	0.006043005
41	0xbd42e239	-0.047579024
42	0x3dfff8ba	0.12498613
43	0x3e5f4759	0.2180456
44	0x3e24b2c3	0.16083817
45	0xbd65deab	-0.056120556
46	0x3e29726c	0.16547555
47	0x3df78886	0.12086587
48	0x3e2e6e2e	0.17034218
49	0xbdf9971a	-0.121870235
50	0xbe3bf88d	-0.18356533
51	0xbd532cf6	-0.05155655
52	0xbe065278	-0.13117397
53	0x3e519709	0.20467772
54	0x3dc0873c	0.09400794
55	0x3df9fd13	0.12206473
56	0x3d782831	0.060585205
57	0xbb606a12	-0.003424291
58	0x3e229d06	0.15880212
59	0xbe1eda06	-0.15512857
60	0x3c247d85	0.010039692
61	0xbe0ef947	-0.1396228
62	0x3d672948	0.056435853
63	0xbd329ff0	-0.04360956
64	0x3da719ba	0.08159204
65	0xbcc10a25	-0.023564408
66	0x3e49a1c9	0.19690622
67	0xbdb3b7ef	-0.08775317
68	0xbda169b4	-0.078814894
69	0xbde7987e	-0.113083825
70	0x3e78890d	0.2427103
71	0x3e2a0bdf	0.16606091
72	0x3e77e9c4	0.24210268
73	0xbe1cb6c1	-0.1530409
74	0xbe4fa9ee	-0.20279667
75	0xbe1c3422	-0.15254262
76	0xbe215e3b	-0.15758602
77	0x3d573b56	0.05254682
78	0x3d93180b	0.0718232
79	0x3e16e612	0.14736202
80	0xbdf12b17	-0.11775797
81	0xbe199e63	-0.15001826
82	0x3d992a1a	0.07478733
83	0xbddc4b51	-0.10756553
84	0x3e113505	0.14180382
85	0xbd67cf4e	-0.056594186
86	0x3e0253ea	0.12727323
87	0xbe1fa1a8	-0.1558901
88	0xbde42b14	-0.11141029
89	0x3d960353	0.07324853
90	0x3d55cf24	0.052199498
91	0xbcb9685f	-0.022632776
92	0x3e443296	0.19159922
93	0x3e5876b0	0.21139026
94	0xbe447a53	-0.19187288
95	0xbe101ea5	-0.1407419
96	0x3e675fad	0.22595091
97	0xbd9d9cb2	-0.07695903
98	0xbdaacbf4	-0.08339682
99	0xbe1fb0a6	-0.1559473
100	0xbd044c46	-0.032299303
101	0x3daf5b42	0.08562328
102	0xbc9e6b65	-0.01933832
103	0xbdcccff3	-0.10000601
104	0x3c8d1b66	0.017224979
105	0xbe02ae89	-0.12761892
106	0xbe350642	-0.17678168
107	0xbdcc3fc3	-0.09973099
108	0xbe22ddb7	-0.1590489
109	0xbe03db2b	-0.12876575
110	0x3e713d15	0.23558457
111	0x3d9344be	0.07190846
112	0x3ddada51	0.10686172
113	0xbe46a8b5	-0.19400294
114	0xbdb96f88	-0.09054476
115	0x3ca005c7	0.019534005
116	0x3ddbbe22	0.10729624
117	0xbe00fd49	-0.1259662
118	0xbd1ed0d3	-0.03877337
119	0xbda05a5d	-0.078297354
120	0xbc9583ae	-0.018251266
121	0xbddc1d09	-0.107477255
122	0xbe07ceba	-0.13262454
123	0xbe75f707	-0.24020015
124	0xbe678be3	-0.22611956
125	0xbe097bd8	-0.13426149
126	0xbd814128	-0.06311256
127	0xbe2435a2	-0.16036084
128	0x3e3f9eb1	0.1871288
129	0xbd4e92c5	-0.05043294
130	0x3e44c086	0.19214067
131	0x3db2ee4f	0.0873686
132	0xbe121df3	-0.14269237
133	0x3e511201	0.20417024
134	0xbc8670fe	-0.0164113
135	0xbd58bc30	-0.052913845
136	0xbe3503b0	-0.17677188
137	0xbe46da7f	-0.19419287
138	0x3d8a7c00	0.067619324
139	0xbd58ea1b	-0.052957635
140	0x3d18a0ac	0.037262604
141	0xbe3ef453	-0.1864789
142	0x3e370db6	0.17876324
143	0xbdfaffd5	-0.12255827
144	0x3cfd3307	0.03090812
145	0x3df1e268	0.11810762
146	0x3e54de30	0.20787883
147	0x3e21306e	0.1574113
148	0x3e4990b1	0.19684102
149	0xbe15c819	-0.14627112
150	0x3d9edee2	0.07757355
151	0xbdd335a5	-0.10312966
152	0xbc684aa1	-0.014177949
153	0xbe211d4a	-0.15733829
154	0x3e48f040	0.19622898
155	0xbe4af70b	-0.19820802
156	0x3da4d996	0.08049314
157	0x3dac15d2	0.084025994
158	0x3cbad23c	0.022805326
159	0xbe7855b4	-0.24251443
160	0x3e1e6f87	0.15472232
161	0x3c864a60	0.016392887
162	0x3c5d833e	0.01352006
163	0xbe1e1ec4	-0.15441424
164	0x3df0128c	0.117222875
165	0x3c974a1e	0.018467959
166	0xbb839cdd	-0.0040165023
167	0x3e76ede7	0.2411419
168	0x3db23939	0.087023206
169	0xbdbddb30	-0.09270322
170	0xbda6c1d2	-0.08142437
171	0x3cb0daa4	0.021588631
172	0x3e28f360	0.1649909
173	0xbc15a87c	-0.009134408
174	0xbdaf908f	-0.08572494
175	0xbdae90d3	-0.08523717
176	0xbe61d6f5	-0.22054656
177	0x3d9bc42b	0.076057754
178	0x3e40ec06	0.18840036
179	0xbe46a8aa	-0.19400278
180	0x3df49140	0.11941767
181	0x3dd6b625	0.1048396
182	0x3d14fc5b	0.036373477
183	0xbd477ed7	-0.04870495
184	0x3e09ed0e	0.13469335
185	0x3df7e0da	0.12103434
186	0x3d8da1a2	0.06915595
187	0xbd10c2d9	-0.03534207
188	0xbdb58b55	-0.08864466
189	0xbca562d4	-0.020188726
190	0xbd418070	-0.04724163
191	0xbd90aa4b	-0.07063731
192	0x3df7882c	0.120865196
193	0x3e255377	0.1614512
194	0xbd43387a	-0.047661282
195	0xbd9d8b3e	-0.07692574
196	0x3caed9d8	0.02134411
197	0x3d8da09d	0.069154
198	0x3d963158	0.0733363
199	0x3d1c73f5	0.038196523
200	0xbe24fab8	-0.16111267
201	0xbd5346d4	-0.05158122
202	0x3e32246f	0.17396711
203	0x3dca4df1	0.098781474
204	0x3d064b2f	0.032786544
205	0xbdb60e2a	-0.0888942
206	0xbe72dd84	-0.23717314
207	0xbe76504d	-0.2405407
208	0xbdd1f9b7	-0.102527075
209	0x3cb4db43	0.022077208
210	0x3dd9f64f	0.10642683
211	0x3dcef8dc	0.1010606
212	0xbe52f422	-0.20600942
213	0xbe1d84ee	-0.1538274
214	0xbd57ddf4	-0.052701905
215	0x3e424b08	0.18973935
216	0x3c9ae828	0.018909529
217	0xbcaf3e2b	-0.021391949
218	0x3df66033	0.12030067
219	0xbd60652c	-0.054783985
220	0xbe1c9314	-0.15290481
221	0x3e41f1da	0.18939915
222	0xbd08a6d9	-0.033362243
223	0x3d8225de	0.06354879
224	0xbe02cc22	-0.12773183
225	0x3e71a5a1	0.23598339
226	0x3e777e07	0.2416917
227	0x3e02167d	0.12703891
228	0xbdfe4d8c	-0.12417135
229	0xbe391f17	-0.18078266
230	0xbe11c164	-0.14233929
231	0x3df767c8	0.120803416
232	0x3dc115ab	0.09427961
233	0x3e3dfd08	0.18553555
234	0x3df84a79	0.121235795
235	0x3d14e236	0.036348544
236	0xbd359407	-0.044330623
237	0xbe57ea1d	-0.21085401
238	0xbdb73fa3	-0.089476846
239	0xbe18ecff	-0.14934157
240	0x3b86f875	0.004118974
241	0xbd7ff6d5	-0.062491257
242	0xbc55c1fa	-0.013046736
243	0xbdc3d02d	-0.09561191
244	0xbc7c25ed	-0.015389902
245	0xbe757998	-0.23972166
246	0xbe77e2c8	-0.24207604
247	0x3d6d4a85	0.057932395
248	0xbd85b66a	-0.06528933
249	0x3e0da11d	0.13830991
250	0xbd4ad731	-0.04952163
251	0xbe21573a	-0.1575593
252	0xbc8546c8	-0.016269103
253	0xbd73fe49	-0.059568677
254	0xbce1e952	-0.027577076
255	0xbe284cb9	-0.16435517

bn1.weight f4 [32]
0	0x3f8a2058	1.079112
1	0x3f7f1241	0.9963723
2	0x3f7e5edd	0.993635
3	0x3f88a935	1.0676638
4	0x3f7c740d	0.9861458
5	0x3f75a5a9	0.959559
6	0x3f8273ed	1.0191628
7	0x3f82643e	1.0186841
8	0x3f7cb555	0.9871419
9	0x3f7964cd	0.97419435
10	0x3f85813f	1.0430068
11	0x3f7e24cc	0.992749
12	0x3f7c4b7b	0.98552674
13	0x3f792fa7	0.97338337
14	0x3f77799b	0.9666993
15	0x3f7e83b2	0.994197
16	0x3f78f778	0.9725261
17	0x3f76fff2	0.9648429
18	0x3f7d5c27	0.9896874
19	0x3f8cb0b8	1.099143
20	0x3f7f88e6	0.99818265
21	0x3f79080f	0.9727792
22	0x3f8a3e61	1.0800287
23	0x3f84c4b5	1.037253
24	0x3f819f67	1.0126771
25	0x3f87c24a	1.0606167
26	0x3f86b384	1.0523534
27	0x3f74b778	0.9559245
28	0x3f83753a	1.027015
29	0x3f652208	0.8950505
30	0x3f82ef86	1.0229347
31	0x3f8386a0	1.0275459

bn1.bias f4 [32]
0	0xb7db3c8b	-2.6135027e-05
1	0xbc6fda50	-0.014639452
2	0xbc868d04	-0.016424663
3	0x3bf30e51	0.007417478
4	0x3bd5b90d	0.006522304
5	0xbc878eee	-0.016547646
6	0x3b5246ce	0.003208566
7	0xbcf48685	-0.0298493
8	0xbdc13557	-0.09434002
9	0xbd7bf3df	-0.06151187
10	0x3aaf2f9d	0.001336563
11	0xbd9dff53	-0.07714715
12	0x3cd80ca0	0.026373208
13	0x3af80fcf	0.001892561
14	0xbd60633a	-0.05478213
15	0x3c97402c	0.018463217
16	0xbcfd1a2c	-0.030896269
17	0xbd40a931	-0.047036353
18	0xba78dd69	-0.0009493442
19	0xbb6be741	-0.0035995992
20	0xbd0d44f1	-0.034489576
21	0x3cd14ba6	0.025548767
22	0xbcef2905	-0.029194364
23	0x3d8ec191	0.069705136
24	0x3cf7284f	0.030170588
25	0x3d25ceb0	0.040480316
26	0x3d73daae	0.05953472
27	0xbd514d15	-0.0510989
28	0x3c5277bb	0.012845929
29	0xbd74727d	-0.059679497
30	0x3d0ee94d	0.03489046
31	0xbc90eb8f	-0.017690448

bn1.running_mean f4 [32]
0	0x3c0d279e	0.0086154025
1	0xbb0f02a0	-0.0021821633
2	0xbae478c1	-0.0017431007
3	0xb74cb9d0	-1.220261e-05
4	0x3b6c04ba	0.003601356
5	0x3b894847	0.0041895243
6	0xbb8b71b1	-0.0042554964
7	0xba1ee856	-0.00060618424
8	0xbacc97b1	-0.0015609172
9	0x3b98e022	0.0046653906
10	0x3a026ceb	0.00049753365
11	0xba7587d8	-0.00093662506
12	0x3bfed2e0	0.007776603
13	0xbb89204d	-0.0041847588
14	0xbb9edcd3	-0.0048481016
15	0xbaace930	-0.0013192054
16	0xbbf177e9	-0.0073690307
17	0x3b31a796	0.0027107946
18	0xbb1ed938	-0.002423836
19	0xba10c3cc	-0.000552234
20	0x38d04a20	9.93202e-05
21	0xbb33bec8	-0.0027426947
22	0x3bd928ac	0.006627163
23	0xb78570d6	-1.5907379e-05
24	0xbc20a6d2	-0.009805398
25	0xba21c046	-0.00061703136
26	0x3bd164e6	0.006390202
27	0x3a3bf8ba	0.0007170547
28	0x3a5fc8b2	0.0008536681
29	0xb9ccf806	-0.00039094704
30	0x39d9a188	0.00041509815
31	0xb8f6342a	-0.000117399104

bn1.running_var f4 [32]
0	0x3f167164	0.5876677
1	0x3e50cf12	0.20391491
2	0x3f22ff24	0.63670564
3	0x3efff553	0.49991855
4	0x3e700e73	0.23443012
5	0x3f12240e	0.57086265
6	0x3ebd8c9c	0.3702134
7	0x3e77e521	0.242085
8	0x3e43dadd	0.19126458
9	0x3ea049f7	0.3130643
10	0x3eb4bdec	0.3530115
11	0x3eea1501	0.4571915
12	0x3ee83137	0.45350048
13	0x3edcf9f0	0.43159437
14	0x3ea7126f	0.3263125
15	0x3efb3669	0.4906495
16	0x3ed8da88	0.42354226
17	0x3ea551d4	0.32288992
18	0x3e709e4f	0.2349789
19	0x3e6ba940	0.23013783
20	0x3e6684f3	0.22511654
21	0x3ea91dd4	0.3303057
22	0x3f01794b	0.50575703
23	0x3e91470e	0.28374523
24	0x3eeb2b61	0.45931533
25	0x3e7e3ffa	0.24829093
26	0x3f082257	0.531774
27	0x3eec8616	0.4619605
28	0x3e880f14	0.26574004
29	0x3e5cab17	0.2154964
30	0x3ed13460	0.4086027
31	0x3e33f422	0.17573598

conv2.weight f4 [64, 32, 5]
0	0x3dd0ebb0	0.10201204
1	0x3ce0ce07	0.027441991
2	0xbd26c422	-0.04071439
3	0x3d7eb607	0.062185314
4	0xbd663c5c	-0.056209907
5	0xbab658a9	-0.0013911921
6	0xbd9dca99	-0.07704658
7	0x3bbadcea	0.0057026045
8	0x3d843fe3	0.06457498
9	0xbc2c2743	-0.010507408
10	0xba32b723	-0.00068174506
11	0x3d5f8eaf	0.054579433
12	0x3c14adc1	0.009074629
13	0x3df7ca75	0.120991625
14	0xbbd69375	-0.00654834
15	0xbc1b75e3	-0.009488556
16	0xbdc82dce	-0.097743616
17	0xbcf442fc	-0.029817097
18	0x3d9d80a3	0.07690551
19	0x3dea5225	0.11441449
20	0x3cc971b0	0.024590343
21	0x3de42f71	0.11141861
22	0x3b3b9191	0.00286207
23	0x3cdf1bf4	0.027235009
24	0x3d6ee24c	0.058321282
25	0x3d98285f	0.07429575
26	0xbcaf8c76	-0.021429282
27	0x3d8d4f49	0.06899888
28	0x3cb0503f	0.02152264
29	0xbd416d50	-0.04722339
30	0x3b96cda6	0.004602152
31	0xbd524b06	-0.05134108
32	0x3ce0567c	0.027384989
33	0xbd9322f3	-0.071844004
34	0xbcc87569	-0.024470048
35	0xbcc41635	-0.02393637
36	0xbc968bce	-0.018377211
37	0xbbaf9af5	-0.0053590485
38	0x3c4b9b18	0.012427114
39	0x3d5622e7	0.05227938
40	0x3d021add	0.0317639
41	0xbdd2e587	-0.10297685
42	0x3dce4c4a	0.10073145
43	0x3dc6035a	0.09668608
44	0x3c98c475	0.018648366
45	0xbd6664da	-0.056248523
46	0xbc5d8ebe	-0.013522802
47	0x3ccf3654	0.02529446
48	0xbce7395a	-0.02822559
49	0x3c0aabb5	0.00846379
50	0x3ccb450a	0.024813194
51	0x3d8f2b49	0.06990678
52	0xbd2f7848	-0.04283932
53	0x3c11ae3c	0.008891638
54	0x3ccb2f98	0.024802968
55	0xbdeddd40	-0.11614466
56	0xbdf40d35	-0.119165815
57	0xbdc14d79	-0.09438605
58	0x3d3493e4	0.044086352
59	0xbdb051d7	-0.0860936
60	0xbde07e9f	-0.10961651
61	0x3b7e391a	0.003879136
62	0x3d1f4d66	0.038892172
63	0x3d62c0a6	0.055359505
64	0xbdaa726a	-0.08322604
65	0xbce773b7	-0.02825342
66	0x3d14ff80	0.036376476
67	0x3cdbf5eb	0.026850661
68	0x3cd4c68a	0.025973577
69	0x3c20c9cf	0.00981374
70	0x3c86a0ec	0.016434155
71	0x3d89a6a4	0.06721237
72	0xbdb3e3a8	-0.08783656
73	0xbd467805	-0.048454303
74	0xb9b3346a	-0.00034180592
75	0xbd30b767	-0.043143656
76	0xbd6688ca	-0.056282796
77	0x3caccc24	0.021093436
78	0x3ced69d9	0.028981136
79	0x3d2132cc	0.039355084
80	0xbd71afd0	-0.05900556
81	0x3c565534	0.013081837
82	0x3d972317	0.0737974
83	0xbd88fd26	-0.06688909
84	0xbc8f2300	-0.017472744
85	0xbd0c35c4	-0.034230962
86	0xbdd4cce9	-0.10390646
87	0x3ce70841	0.028202178
88	0xbd230bd3	-0.0398062
89	0xbd7e9b24	-0.062159672
90	0x3d3f503b	0.046707373
91	0xbcf33433	-0.029687976
92	0xbd7e2930	-0.062051
93	0x3ca95598	0.020670697
94	0x3d29253b	0.04129527
95	0xbdb135fc	-0.08652875
96	0xbd5b391f	-0.05352127
97	0x3d947670	0.07249153
98	0x3c85640a	0.016283054
99	0x3d6968d7	0.05698475
100	0xbdcc2f84	-0.099700004
101	0xbd63037e	-0.055423252
102	0xbcb4b721	-0.022059979
103	0xbcd00e7e	-0.025397535
104	0xbd41f668	-0.047354132
105	0x3a7f130f	0.0009730318
106	0xbc768139	-0.0150454575
107	0xbc63378e	-0.013868226
108	0xbb872721	-0.0041245376
109	0xbd439722	-0.047751553
110	0x3ccac5bc	0.02475249
111	0x3cecb9d8	0.028897211
112	0xbd8799d7	-0.066211395
113	0xbdb353cd	-0.08756218
114	0x3d384c15	0.044994432
115	0x3d1540a0	0.036438584
116	0xbd611ddc	-0.054960117
117	0x3d95c456	0.07312839
118	0xbd00096c	-0.031258985
119	0x3d1f49e6	0.038888834
120	0x3d5feaf4	0.054667428
121	0xbd86171c	-0.065473765
122	0x3d435f59	0.047698352
123	0xbdec3056	-0.11532657
124	0xbd3d22aa	-0.046175636
125	0x3d173a02	0.036920555
126	0xbdc37d6c	-0.09545407
127	0x3d987a6d	0.07445226
128	0x3bf5d9c8	0.007502768
129	0x3d07a7e7	0.03311911
130	0xbbebb083	-0.0071926727
131	0x3d5016ff	0.05080318
132	0xbcf208f3	-0.029545283
133	0xbd828b47	-0.06374221
134	0x3c9cbf66	0.019134235
135	0x3d0a3238	0.0337393
136	0x3d843b46	0.06456618
137	0xbd4b86d6	-0.049689136
138	0xbd6d8812	-0.057991095
139	0xbc1633b3	-0.0091675995
140	0xbb8c6036	-0.00428393
141	0x3bf8657f	0.0075804587
142	0x3caabcab	0.020841917
143	0xbd4bbb88	-0.04973939
144	0x3cb44064	0.02200336
145	0xbb5c483f	-0.0033612398
146	0xbced320a	-0.028954525
147	0x3d36f205	0.0446644
148	0x3b6bf680	0.003600508
149	0x3d504283	0.05084468
150	0xbd9bfeb3	-0.076169394
151	0xbda03649	-0.07822854
152	0xbceec6d2	-0.02914754
153	0xbbf2d3ff	-0.007410526
154	0x3c3ba2ef	0.011452421
155	0xbcbce7a3	-0.023059672
156	0x3d905d75	0.070490755
157	0x3d1b52b3	0.037920665
158	0x3d80b8eb	0.0628527
159	0x3ae44379	0.0017415128
160	0xbdfe260d	-0.12409601
161	0xbdc2a33d	-0.095037915
162	0xbdac5fa6	-0.08416681
163	0xbd196261	-0.037447337
164	0xbdfcb1a2	-0.12338568
165	0x3cca9dba	0.024733413
166	0xbc263c4b	-0.010146211
167	0xbd5f098a	-0.054452457
168	0x3c0af25d	0.0084806355
169	0xbdb53c34	-0.088493735
170	0xbd71b5bb	-0.059011202
171	0xbd947cd3	-0.07250371
172	0xbc06543e	-0.008198796
173	0xbd25da87	-0.040491607
174	0x3cdcf442	0.02697194
175	0xbd2aa9a6	-0.041665696
176	0x3b2ae929	0.0026078916
177	0x3d51ca6e	0.051218443
178	0x3bef395f	0.0073005403
179	0xbde035fb	-0.10947796
180	0xbd37ee2c	-0.044904873
181	0x3da23c15	0.07921616
182	0xbcf944ad	-0.030428255
183	0x3d6f1979	0.058373902
184	0x3d637ba2	0.055537827
185	0x3ce3faa4	0.027829476
186	0x3d8247e2	0.06361367
187	0x3d79bce6	0.060971163
188	0xbae3e576	-0.001738711
189	0xbdadadf6	-0.08480446
190	0x3d60061b	0.054693323
191	0xbd5e01ff	-0.054201122
192	0xbd7e62c1	-0.062105898
193	0x3d9b0b91	0.075705655
194	0x3d879ff0	0.066223025
195	0x3cad5f30	0.021163553
196	0xbd4fb3af	-0.05070847
197	0xbc689092	-0.0141946245
198	0x3b8b6ae8	0.0042546876
199	0x3df5d5fd	0.12003706
200	0x3d64861a	0.05579195
201	0x3bcfb7c0	0.0063390434
202	0xbd28671d	-0.04111396
203	0x3b68f3db	0.003554574
204	0x3cfd164b	0.03089442
205	0x3c4b48dd	0.012407509
206	0x3cffbac1	0.03121698
207	0xbd2b6565	-0.041844744
208	0xbcc0331c	-0.02346187
209	0x3a496eb3	0.0007684037
210	0xbd02a3c2	-0.031894453
211	0x3d7f7e2c	0.062376186
212	0x3d0c1175	0.034196336
213	0x3ce4598b	0.027874729
214	0x3d09512d	0.03352468
215	0xbd509440	-0.050922632
216	0xbdd693c8	-0.10477406
217	0xbc8e03a1	-0.017335715
218	0xbbf75c37	-0.0075488347
219	0xbc43c214	-0.011948127
220	0xbcd58665	-0.02606506
221	0x3c537334	0.0129058845
222	0x3dbb4562	0.09144093
223	0x3d80d42b	0.06290468
224	0xbc89c088	-0.016815439
225	0xbd0cdfe1	-0.034393195
226	0xbccc5bc3	-0.0249461
227	0xbd7e1882	-0.06203509
228	0x3d215c4f	0.039394673
229	0x3ced31d7	0.02895443
230	0x3d3bb07c	0.045822605
231	0xbce91bb6	-0.028455596
232	0x3bc5f2ca	0.0060409056
233	0x3c27994b	0.010229419
234	0xbdb12bb6	-0.08650915
235	0xbba313af	-0.0049767117
236	0xbc18c0e2	-0.009323331
237	0xbd8782b5	-0.06616727
238	0xbdab02ee	-0.08350168
239	0x3cd2c29a	0.025727559
240	0x3d875810	0.066085935
241	0x3c082cc7	0.008311457
242	0x3d33da2a	0.04390923
243	0xbd47b398	-0.04875526
244	0xbd4150c9	-0.047196183
245	0x3d536858	0.05161318
246	0xbd22adc7	-0.03971651
247	0xbca0aae3	-0.019612735
248	0xbd841530	-0.06449354
249	0x3cd1f2f7	0.02562855
250	0xbd5c60e2	-0.053803332
251	0xbd0ae44d	-0.03390913
252	0x3da88f8c	0.082305044
253	0xbc63989b	-0.013891364
254	0xbc127eab	-0.008941333
255	0x3d88e794	0.06684795

bn2.weight f4 [64]
0	0x3f6e9402	0.9319459
1	0x3f7b29cc	0.9811065
2	0x3f75d0ad	0.9602154
3	0x3f7595c0	0.95931625
4	0x3f821b89	1.0164653
5	0x3f740fbd	0.95336515
6	0x3f7c3c55	0.9852956
7	0x3f7c3fdd	0.9853495
8	0x3f6fa82e	0.93615997
9	0x3f762bc1	0.96160513
10	0x3f85819a	1.0430176
11	0x3f8b9e8f	1.0907763
12	0x3f808561	1.0040704
13	0x3f80dcb1	1.006735
14	0x3f7067ee	0.93908584
15	0x3f7787f9	0.9669185
16	0x3f83d62e	1.0299737
17	0x3f7cb1bf	0.9870872
18	0x3f7fd197	0.99929184
19	0x3f7ca1f0	0.98684597
20	0x3f770037	0.964847
21	0x3f80e4f6	1.0069873
22	0x3f80a149	1.004922
23	0x3f803b11	1.0018026
24	0x3f888443	1.0665363
25	0x3f827bc6	1.0194023
26	0x3f86ab60	1.052105
27	0x3f6d38ca	0.9266478
28	0x3f7d26c4	0.98887277
29	0x3f80e985	1.0071265
30	0x3f833d2f	1.0253047
31	0x3f78cab5	0.97184306
32	0x3f7210d9	0.9455696
33	0x3f8049ea	1.0022557
34	0x3f7fa9ea	0.99868643
35	0x3f7f1e1c	0.9965532
36	0x3f7be63c	0.98398185
37	0x3f772dae	0.96554077
38	0x3f7612d8	0.96122503
39	0x3f80cba5	1.0062147
40	0x3f81cc94	1.0140557
41	0x3f81a8c6	1.012963
42	0x3f7ae79a	0.98009646
43	0x3f84c341	1.0372087
44	0x3f828410	1.0196552
45	0x3f785765	0.97008353
46	0x3f70e850	0.9410448
47	0x3f7e1e8a	0.9926535
48	0x3f74b04d	0.95581514
49	0x3f8294dc	1.0201678
50	0x3f813977	1.0095662
51	0x3f8015ea	1.0006688
52	0x3f7fcab7	0.99918693
53	0x3f7ea71e	0.9947375
54	0x3f86b7c3	1.052483
55	0x3f7f32b0	0.9968672
56	0x3f85fa2d	1.0466973
57	0x3f804314	1.0020471
58	0x3f855e28	1.0419359
59	0x3f77e164	0.96828294
60	0x3f85de7c	1.0458522
61	0x3f7d4dd6	0.98946893
62	0x3f7e5cc9	0.9936033
63	0x3f862e95	1.0482966

bn2.bias f4 [64]
0	0xbd6fe70f	-0.058569964
1	0xbdde0f6a	-0.10842784
2	0xbdf00d46	-0.11721282
3	0xbd8caf0c	-0.06869325
4	0xbdfd7af6	-0.123769686
5	0xbc952683	-0.01820684
6	0xbd49a14e	-0.049226098
7	0xbdc290b5	-0.09500257
8	0xbd9a26d8	-0.0752694
9	0xbd98dcde	-0.07464002
10	0xbd992516	-0.07477777
11	0xbd89cea8	-0.0672887
12	0xbd003926	-0.0313045
13	0xbde5ee49	-0.1122709
14	0xbd12e4cb	-0.035862725
15	0xbdaa70e1	-0.08322311
16	0xbd9d0f7f	-0.07668971
17	0xbd5c7f2c	-0.053832218
18	0xbda8856c	-0.08228573
19	0xbd53883c	-0.051643595
20	0xbd71472c	-0.058905765
21	0xbdae96bc	-0.08524844
22	0xbbc6ae2a	-0.0060632424
23	0xbdc49843	-0.09599354
24	0xbdec8379	-0.11548514
25	0xbd4c65ed	-0.04990189
26	0xbd143bdd	-0.036189903
27	0xbca92933	-0.020649528
28	0xbd450963	-0.048104655
29	0xbd0ff92c	-0.03514974
30	0xbc99aa4d	-0.018757964
31	0xbc99f69b	-0.018794348
32	0xbdbabcaa	-0.09118016
33	0xbd9370c8	-0.07199246
34	0xbd9d98a7	-0.07695132
35	0xbda10542	-0.07862331
36	0x3cf3b37d	0.029748673
37	0xbd319ca4	-0.043362275
38	0xbdc250c3	-0.0948806
39	0xbdc6ee31	-0.097134
40	0xbdab2072	-0.08355798
41	0xbb942e4a	-0.0045221196
42	0xbd5d4673	-0.054022264
43	0xbdcb7ba6	-0.099356934
44	0xbdd52771	-0.104079135
45	0xbd7df28f	-0.0619989
46	0xbca64af9	-0.020299422
47	0xbc1c8d42	-0.009555163
48	0xbd87bea9	-0.066281624
49	0xbdf5ecd4	-0.12008062
50	0xbd855548	-0.06510407
51	0xbd9b483e	-0.075821385
52	0xbda6a6f5	-0.08137313
53	0xbd8194f8	-0.06327242
54	0xbde4caa6	-0.111714646
55	0xbcf12d29	-0.02944048
56	0xbd938dd1	-0.07204784
57	0xbdab65d2	-0.0836903
58	0xbe1482c1	-0.14503004
59	0xbe01bb49	-0.126691
60	0xbca5fda7	-0.020262552
61	0xbd53d8b3	-0.051720332
62	0xbcbf982f	-0.023387996
63	0xbd9feb94	-0.07808605

bn2.running_mean f4 [64]
0	0xbe0fea61	-0.14054252
1	0xbea302c7	-0.31838056
2	0xbdd39074	-0.103302866
3	0x3f299abb	0.66251725
4	0xbf38db86	-0.72209966
5	0x3e83d7b8	0.25750518
6	0xbf110cad	-0.56659967
7	0xbe8ce8de	-0.27521414
8	0x3d06cb0a	0.032908477
9	0xbe656404	-0.22401434
10	0xbda100fe	-0.07861517
11	0xbef67af1	-0.48140672
12	0x3e96f1e7	0.29481432
13	0xbf12ebdb	-0.57391137
14	0x3ed93ea3	0.424306
15	0xbf068d61	-0.5255948
16	0xbf742f7a	-0.95384943
17	0xbf35cbd9	-0.7101417
18	0xbf594b1c	-0.8488023
19	0xbe604049	-0.21899523
20	0xbe31ee28	-0.17376006
21	0xbe725297	-0.23664318
22	0x3ee0a68f	0.43877074
23	0xbf426e54	-0.759496
24	0xbcb17dbc	-0.0216664
25	0xbf013e1f	-0.50485414
26	0xbe686ffa	-0.22698966
27	0x3f496d73	0.7868263
28	0xbf3d80f9	-0.7402492
29	0xbe47fd77	-0.19530283
30	0xbe0ca1d6	-0.1373361
31	0x3f00ff6e	0.50389755
32	0xbf164e5f	-0.58713335
33	0xbebe59a1	-0.37177756
34	0xbf2dc80f	-0.6788339
35	0x3d1f5b6f	0.038905557
36	0x3f7210d1	0.9455691
37	0xbf44ad6a	-0.7682711
38	0xbf1df77c	-0.61705756
39	0xbea7578a	-0.32683975
40	0xbf2150e5	-0.6301406
41	0xbe51cbcd	-0.204879
42	0xbf407c07	-0.7518925
43	0xbf362f5d	-0.7116602
44	0xbf21569d	-0.63022786
45	0xbee68bd5	-0.45028558
46	0xbe78fb01	-0.243145
47	0x3e430bea	0.19047514
48	0xbec9047b	-0.3926123
49	0xbf19559d	-0.5989626
50	0x3ee7a121	0.4524012
51	0xbeef4f54	-0.4674021
52	0xbf26662c	-0.6499965
53	0x3e35a896	0.17740092
54	0xbf1303e9	-0.5742784
55	0x3e94710f	0.28992507
56	0xbedbdb68	-0.4294083
57	0xbf517b4b	-0.81828755
58	0xbf207efd	-0.6269377
59	0x3ec88f83	0.3917199
60	0xbf01b281	-0.50663
61	0xbea1b61e	-0.31584257
62	0xbe870ffa	-0.26379377
63	0xbeed1d34	-0.46311343

bn2.running_var f4 [64]
0	0x3e5231fb	0.20526879
1	0x3e0491b2	0.12946203
2	0x3e3b6e9b	0.18303911
3	0x3e800a2f	0.2500777
4	0x3e6e4e82	0.23272136
5	0x3e6dc7e5	0.23220785
6	0x3e833f8c	0.2563442
7	0x3e956351	0.29177335
8	0x3e6d6e6f	0.23186658
9	0x3e4c06d6	0.19924483
10	0x3ef3a159	0.47584036
11	0x3e8c467a	0.2739752
12	0x3e7a4d09	0.24443449
13	0x3e74a40d	0.23890705
14	0x3e7b4a62	0.24540094
15	0x3e98a49c	0.29813087
16	0x3ee952d7	0.45571014
17	0x3ed33017	0.41247627
18	0x3e61e220	0.22058916
19	0x3e2cf22a	0.16889253
20	0x3e901548	0.28141236
21	0x3e59484d	0.21218987
22	0x3e50d21f	0.20392655
23	0x3ef63244	0.48085225
24	0x3e399ad2	0.18125466
25	0x3eb63456	0.35586804
26	0x3eaea4fe	0.34110254
27	0x3eaa6fab	0.3328832
28	0x3ee1e0cd	0.44116822
29	0x3e7732fc	0.24140543
30	0x3e9a6dfb	0.30162033
31	0x3ec6bec5	0.3881742
32	0x3e7ba29a	0.24573746
33	0x3e6f30ff	0.23358534
34	0x3ec21fde	0.37914938
35	0x3e73f812	0.238251
36	0x3ecaba88	0.39595437
37	0x3ed96556	0.42460126
38	0x3eb974a6	0.36221808
39	0x3e9625ef	0.29325816
40	0x3e844c96	0.2583968
41	0x3f0a5c6c	0.54047275
42	0x3eb2a402	0.34890753
43	0x3e8e56e6	0.27800673
44	0x3e9e23e5	0.3088676
45	0x3e7cc343	0.24683861
46	0x3eeabe65	0.45848384
47	0x3e3cdc2b	0.18443362
48	0x3e7310b2	0.23736838
49	0x3e608c0a	0.2192842
50	0x3e2ae0c1	0.166873
51	0x3eb488a2	0.35260493
52	0x3eb93f1c	0.3618096
53	0x3ee019b7	0.4376962
54	0x3e9da431	0.3078933
55	0x3e421083	0.18951611
56	0x3e91d636	0.28483742
57	0x3e985a1f	0.29756257
58	0x3e5b26ef	0.2140157
59	0x3e9297c7	0.28631422
60	0x3eb49a0e	0.35273784
61	0x3e92bc75	0.28659406
62	0x3e990f33	0.2989441
63	0x3e6eff73	0.23339634

conv3.weight f4 [128, 64, 3]
0	0x3cb87de0	0.02252096
1	0x3d5e9a09	0.054346118
2	0xbd348ec6	-0.04408147
3	0x3cfe196f	0.031017987
4	0x3d9dc8f0	0.077043414
5	0xbca9984d	-0.020702505
6	0xbc0d92b1	-0.008640931
7	0xbd52e513	-0.051487993
8	0xbd2ac893	-0.04169519
9	0x3c75f22a	0.01501135
10	0x3c004139	0.00782805
11	0xbc871de0	-0.016493738
12	0xbda5a7aa	-0.0808862
13	0xbd7610cd	-0.060074616
14	0xbde9dc88	-0.11419016
15	0xbd65eb08	-0.056132346
16	0xbda07163	-0.07834127
17	0xbd531987	-0.051538017
18	0x3c4747a4	0.012163077
19	0x3cf1ccda	0.029516626
20	0xbd6ae7b8	-0.05734989
21	0x3dbbc32a	0.09168084
22	0x3dc303aa	0.09522183
23	0x3dbfaee4	0.093595296
24	0xbd466d14	-0.04844387
25	0xbd539626	-0.051656865
26	0xbd2737d1	-0.040824715
27	0x3db9f7f0	0.090804935
28	0x3db041cf	0.08606302
29	0x3d338c2f	0.04383486
30	0xbdefbacb	-0.1170555
31	0xbd86026d	-0.065434314
32	0xbdd33d2c	-0.10314402
33	0xbca7b2d3	-0.020471012
34	0xbdd287de	-0.10279821
35	0xbd436f40	-0.04771352
36	0x3c18a38e	0.009316338
37	0x3bb76889	0.0055971784
38	0x3c7aa90d	0.015299094
39	0x3d3476a3	0.044058453
40	0xbd21d51d	-0.03950988
41	0xbd7f7ace	-0.062372975
42	0xbd37b163	-0.044846904
43	0x3ca22487	0.019792808
44	0xbda53ded	-0.08068452
45	0x3cb3cdaf	0.021948664
46	0x3d2f87f4	0.042854264
47	0xba605df3	-0.00085589214
48	0xbc95b5c8	-0.018275157
49	0xbcd49fd5	-0.02595512
50	0xbdda8f32	-0.106718436
51	0x3d3448e7	0.044014838
52	0xbb38273d	-0.002809956
53	0x3d7cdf3f	0.06173634
54	0xbd0ff3bb	-0.03514455
55	0x3cc1d93c	0.023663156
56	0xbd432df9	-0.047651265
57	0xbc5ad7af	-0.013357087
58	0x3d971799	0.07377548
59	0x3c8891eb	0.016671142
60	0x3cb43914	0.021999873
61	0x3d003fb6	0.03131076
62	0x3cd4a5a9	0.0259579
63	0x3d25ca5d	0.04047619
64	0xbd2d3606	-0.04228785
65	0xbca65830	-0.020305723
66	0xbdbc2a3c	-0.09187743
67	0xbdacf262	-0.08444668
68	0xbdc551e7	-0.09634762
69	0x3c821846	0.015880715
70	0xb92e5fda	-0.0001662964
71	0xbc9fb25e	-0.019494232
72	0xbd2655af	-0.040609058
73	0xbab725e2	-0.0013973082
74	0xbd2faeca	-0.0428913
75	0xbd32f6fb	-0.04369257
76	0xbd2ffab4	-0.0429637
77	0xbd3a757c	-0.045522198
78	0x3d1c22f7	0.038119283
79	0xbd18c22f	-0.037294563
80	0x3d1fdf9c	0.03903161
81	0xbd013bb4	-0.031551078
82	0xbd17f2ce	-0.03709679
83	0xbcfe9fdc	-0.031082086
84	0x3d441fe2	0.04788197
85	0xbceb9776	-0.028758746
86	0x3ca98950	0.020695359
87	0x3b2e3507	0.00265819
88	0x3bb0793c	0.005385546
89	0xbd176dad	-0.03696983
90	0x3c08bedd	0.008346287
91	0x3ddd50b8	0.108064115
92	0x3dab2319	0.08356304
93	0xbd330dc5	-0.043714304
94	0x3d744ed9	0.059645507
95	0x3d6e5cb9	0.058193896
96	0xbd5ae1c2	-0.053437956
97	0xbce48b4d	-0.027898455
98	0xbd8a7766	-0.06761055
99	0x3dd4fc37	0.10399669
100	0x39cc0cd3	0.00038919467
101	0xbc1e8318	-0.00967481
102	0xbc578465	-0.013154124
103	0xbced2b67	-0.02895136
104	0xbd74ac81	-0.059734825
105	0xbce4ea4b	-0.02794375
106	0x3cb7fe56	0.022460144
107	0x3cade060	0.021225154
108	0xbde2462f	-0.11048543
109	0xbd6ef07b	-0.05833481
110	0xbd4c225a	-0.049837448
111	0xbb08fca0	-0.002090253
112	0xbd2804e6	-0.041020297
113	0x3cac015f	0.020996748
114	0xbd287845	-0.041130323
115	0x3cfda40a	0.030962009
116	0xbce806ba	-0.02832352
117	0xbdb3b0cd	-0.087739564
118	0xbc033514	-0.00800826
119	0xbd35c7d3	-0.04438002
120	0x3c9a5b80	0.018842459
121	0xbd3d1641	-0.0461638
122	0xbcd047de	-0.025424894
123	0x3bd3116a	0.006441285
124	0xbdaaa0c7	-0.08331447
125	0xbd81f1ed	-0.06344972
126	0x3c85d4a8	0.016336754
127	0xba8caf81	-0.0010733457
128	0xbcc7a85a	-0.024372268
129	0x3d687abd	0.056757677
130	0x3cd5a8da	0.026081491
131	0x3c24a203	0.010048392
132	0xbbe791dc	-0.0070669483
133	0x3daa8020	0.08325219
134	0xbc8b8632	-0.017031763
135	0xbd48f807	-0.049064662
136	0xbdbef41f	-0.09323906
137	0xbd67d02d	-0.056595016
138	0xbc14e564	-0.009087894
139	0x3ad06b19	0.0015901058
140	0xbcac1fe6	-0.021011304
141	0x3cd8bf36	0.026458364
142	0x3d624536	0.055241786
143	0x3bcb2624	0.006199615
144	0xbcf249d2	-0.029576216
145	0x3cac546e	0.021036353
146	0x3d725a66	0.059168242
147	0x3d954695	0.07288853
148	0x3cf30b8f	0.029668598
149	0x3d8e2943	0.06941464
150	0x3c98ae2a	0.018637735
151	0x3d14f629	0.03636757
152	0x3baefadd	0.005339964
153	0x3d0c4e29	0.034254227
154	0x3bc56e0b	0.006025081
155	0xbcf6637c	-0.030076735
156	0x3d84bf29	0.064817734
157	0x3cee214e	0.029068615
158	0x3cf8de20	0.030379355
159	0xbce423f9	-0.027849184
160	0xbd8b58ac	-0.06804022
161	0xbdb7bfce	-0.08972131
162	0x3b8fc0a3	0.0043869778
163	0xbd7ca04b	-0.061676305
164	0xbcfa7fb8	-0.03057848
165	0x3ce87922	0.028378073
166	0x3d2a8e44	0.04163958
167	0x3c8a9211	0.016915353
168	0xbd1419d0	-0.03615743
169	0xbdd4f3c5	-0.10398058
170	0xbd659954	-0.05605443
171	0xbda69d03	-0.08135416
172	0xbdc51509	-0.09623153
173	0xbdd51571	-0.1040448
174	0xbd41e0fc	-0.047333702
175	0xbd38e227	-0.04513755
176	0xbd56de9d	-0.052458394
177	0x3d86780e	0.06565867
178	0x3d1b2ee5	0.03788652
179	0x3db81f9a	0.089904025
180	0x3d45fcd2	0.04833681
181	0xbd3d53bc	-0.046222433
182	0x3ceafdcf	0.028685478
183	0xbccf0c71	-0.025274487
184	0x3d55e108	0.05221656
185	0x3d6a52bb	0.057207804
186	0x3c997dc1	0.018736722
187	0x3bc6e508	0.006069783
188	0x3d1d5bb3	0.03841753
189	0xbd911f48	-0.070860445
190	0xbc928e72	-0.017890189
191	0x3d51be34	0.051206782
192	0xbc56e024	-0.013114963
193	0xbc8584f0	-0.016298741
194	0xbd424cb6	-0.04743644
195	0xbc3d6c6c	-0.011561494
196	0x3ccfbe04	0.025359161
197	0xbca3fa2e	-0.020016756
198	0x3d33c084	0.04388477
199	0xba06ca83	-0.0005141871
200	0x3ce78f16	0.02826647
201	0xbcbedd35	-0.02329884
202	0xbd13abae	-0.0360524
203	0xbcde7864	-0.027157016
204	0xbd41f308	-0.047350913
205	0xbbc0cb85	-0.0058836364
206	0xbd4f66e0	-0.05063522
207	0xbd1812dc	-0.03712736
208	0xbd785759	-0.060630176
209	0xb97c08bc	-0.00024035847
210	0x3be05489	0.006846015
211	0x3d4db60c	0.05022244
212	0x3c610c8e	0.013735903
213	0x3cd64b57	0.026158972
214	0x3d8fcafa	0.070211366
215	0x3d707ab4	0.05871077
216	0xbd83808c	-0.06421003
217	0xbd807fdd	-0.06274388
218	0xbd7c9ef7	-0.06167504
219	0x3c4001d3	0.011719185
220	0xbbfa2acb	-0.007634496
221	0xbd08faba	-0.033442236
222	0xbd442405	-0.047885913
223	0xbdcc11a8	-0.09964305
224	0xbddd8aef	-0.10817515
225	0xbd99461f	-0.07484078
226	0xbdc0c05a	-0.09411688
227	0xbdd0470a	-0.101697996
228	0xbc1c71ad	-0.009548587
229	0x3cb381e5	0.021912524
230	0x3a2854b5	0.0006421314
231	0xbcac4b10	-0.021031886
232	0xbd82e4a5	-0.06391267
233	0xbd04bb3f	-0.032405134
234	0xbd1f859a	-0.03894577
235	0xbd953d09	-0.07287032
236	0xbca4aaf9	-0.020101057
237	0xbc4fee6c	-0.012691122
238	0x3d0ff3ef	0.035144743
239	0xbd8c1a6f	-0.06840979
240	0xbd34617c	-0.04403828
241	0xbd30b3de	-0.043140285
242	0xbd761f61	-0.06008852
243	0x3a4b6486	0.00077588146
244	0xbcb43ac7	-0.022000683
245	0x3c82881c	0.015934043
246	0x3c15e4c7	0.009148783
247	0x3c1244f4	0.0089275725
248	0xbd1e6581	-0.03867102
249	0x3cebcde1	0.028784694
250	0x3da6811b	0.08130094
251	0x3d191fda	0.03738389
252	0x3d4a592e	0.049401455
253	0x3c81ab6a	0.015828807
254	0x3d15fcd0	0.036618054
255	0x3d43d033	0.047805976

bn3.weight f4 [128]
0	0x3f951e8b	1.1649946
1	0x3f910f86	1.1332862
2	0x3f8ef8b1	1.1169645
3	0x3f93e397	1.155383
4	0x3f8c76e4	1.0973783
5	0x3f925d10	1.143465
6	0x3f8f21ac	1.1182151
7	0x3f94ad88	1.1615458
8	0x3f8d77de	1.1052206
9	0x3f8a2084	1.0791173
10	0x3f94dea1	1.1630441
11	0x3f889952	1.067179
12	0x3f8b8267	1.0899171
13	0x3f9141e3	1.1348232
14	0x3f88a950	1.067667
15	0x3f8dc549	1.1075832
16	0x3f94aec4	1.1615834
17	0x3f906550	1.1280918
18	0x3f9bedf7	1.2181996
19	0x3f90c0f5	1.1308886
20	0x3f8dd994	1.1082025
21	0x3f90d295	1.1314265
22	0x3f8c865f	1.0978507
23	0x3f8f19d5	1.1179758
24	0x3f907d8c	1.1288314
25	0x3f8bb727	1.0915269
26	0x3f9114be	1.1334455
27	0x3f91f51e	1.1402929
28	0x3f94307f	1.15773
29	0x3f8f24e2	1.1183131
30	0x3f90dc6e	1.131727
31	0x3f8b8560	1.0900078
32	0x3f8c7905	1.0974432
33	0x3f91db6b	1.1395086
34	0x3f8c6dbe	1.0970991
35	0x3f936a42	1.1516802
36	0x3f8f1f19	1.1181365
37	0x3f929baa	1.1453755
38	0x3f8c4338	1.0958014
39	0x3f9586fe	1.1681821
40	0x3f87270f	1.0558795
41	0x3f8cde88	1.1005411
42	0x3f89f2c5	1.0777212
43	0x3f903484	1.1266026
44	0x3f8a8f5c	1.0825
45	0x3f893b99	1.0721313
46	0x3f951a02	1.1648562
47	0x3f91667a	1.1359398
48	0x3f94bede	1.1620748
49	0x3f87bae5	1.0603911
50	0x3f931d2e	1.149328
51	0x3f9260f8	1.1435843
52	0x3f972046	1.1806724
53	0x3f94e53d	1.1632458
54	0x3f8a6bd2	1.0814154
55	0x3f940761	1.1564752
56	0x3f98c05d	1.1933705
57	0x3f872d37	1.0560673
58	0x3f8afc07	1.0858163
59	0x3f956c7e	1.1673734
60	0x3f8a028f	1.0782031
61	0x3f9e0e13	1.2348045
62	0x3f91765a	1.1364243
63	0x3f8e6957	1.1125897
64	0x3f8ff060	1.1245232
65	0x3f963e5c	1.173778
66	0x3f8b9bc5	1.0906912
67	0x3f9474c1	1.159813
68	0x3f94a52a	1.1612904
69	0x3f8d3638	1.1032171
70	0x3f8adf7d	1.0849453
71	0x3f92bd82	1.1464083
72	0x3f903d3a	1.1268685
73	0x3f94466f	1.1583995
74	0x3f986437	1.1905583
75	0x3f8c3ced	1.0956093
76	0x3f95de9a	1.1708558
77	0x3f87b805	1.0603033
78	0x3f8f141f	1.1178015
79	0x3f8a68ea	1.0813267
80	0x3f94d945	1.1628805
81	0x3f960599	1.1720458
82	0x3f8efd56	1.1171062
83	0x3f94dd6f	1.1630076
84	0x3f8b38d4	1.0876718
85	0x3f920546	1.1407859
86	0x3f8be824	1.0930219
87	0x3f90620c	1.1279922
88	0x3f929fe1	1.1455041
89	0x3f982564	1.1886411
90	0x3f9413c8	1.1568537
91	0x3f899ba1	1.0750619
92	0x3f92f722	1.1481669
93	0x3f98f30b	1.1949171
94	0x3f8a860d	1.0822159
95	0x3f9214ed	1.1412636
96	0x3f981142	1.1880267
97	0x3f986755	1.1906534
98	0x3f911c3f	1.1336745
99	0x3f874cbc	1.0570292
100	0x3f92608a	1.1435711
101	0x3f8a2646	1.079293
102	0x3f97f6c9	1.1872188
103	0x3f951d34	1.1649537
104	0x3f9875ab	1.191091
105	0x3f93ccb5	1.1546847
106	0x3f9245e7	1.1427583
107	0x3f94c4e6	1.1622589
108	0x3f8b59c4	1.0886769
109	0x3f92a640	1.1456985
110	0x3f8f28fa	1.118438
111	0x3f8a4f52	1.0805457
112	0x3f8fbe38	1.1229925
113	0x3f919d79	1.1376182
114	0x3f90f5b5	1.1324984
115	0x3f9088bb	1.1291727
116	0x3f9bee4b	1.2182096
117	0x3f8d4fc5	1.1039969
118	0x3f8c40b1	1.0957242
119	0x3f9585c4	1.1681447
120	0x3f8af7d6	1.0856884
121	0x3f8ae0ea	1.0849888
122	0x3f918caf	1.1371058
123	0x3f8e2cc8	1.1107416
124	0x3f923754	1.1423135
125	0x3f8ac22e	1.0840509
126	0x3f8f7988	1.1208963
127	0x3f8a2953	1.0793861

bn3.bias f4 [128]
0	0x3dae8927	0.085222535
1	0x3cbb11e4	0.02283568
2	0x3d2e460a	0.042547263
3	0x3de67cdd	0.112542845
4	0x3d78c5fd	0.06073569
5	0x3d99d78b	0.07511815
6	0x3d351716	0.04421147
7	0x3d859602	0.06522752
8	0x3d98ba35	0.07457391
9	0x3cc24b99	0.023717688
10	0x3de4637c	0.11151788
11	0x3d4e04b5	0.050297458
12	0x3d43d795	0.047813017
13	0x3d510e05	0.05103876
14	0x3b698f67	0.0035638453
15	0x3d3c8ad2	0.046030827
16	0x3d95901e	0.07302879
17	0x3dc102b7	0.09424346
18	0x3daa53e1	0.0831678
19	0x3dc415f1	0.095744975
20	0x3d906849	0.07051141
21	0x3db98fb6	0.09060614
22	0x3d916b19	0.071005054
23	0x3db50352	0.08838524
24	0x3db3daa5	0.087819375
25	0x3d6cde99	0.057829473
26	0x3d9b710d	0.07589922
27	0x3d934df1	0.071926005
28	0x3dd98359	0.10620756
29	0x3dbe5f22	0.09295489
30	0x3db76116	0.089540645
31	0x3cbc984c	0.02302184
32	0x3d4f5380	0.05061674
33	0x3dc98c77	0.09841245
34	0x3c7cbfdc	0.015426602
35	0x3dd2ad11	0.10286916
36	0x3d745ee0	0.059660792
37	0x3dee37d4	0.11631742
38	0x3dbb2e15	0.09139649
39	0x3dbb1c21	0.091362245
40	0x3d5e06e3	0.054205786
41	0x3d8a020b	0.06738671
42	0x3d1b8432	0.03796787
43	0x3dac8082	0.084229484
44	0x3d206ca8	0.039166123
45	0x3c2a0888	0.010378011
46	0x3d05954f	0.032613095
47	0x3d5d7a00	0.054071426
48	0x3db1f063	0.08688428
49	0x3caa51c1	0.020790936
50	0x3d83f9ff	0.06444167
51	0x3dc6c9d8	0.097064674
52	0x3dd33e1e	0.10314582
53	0x3dbba1f1	0.09161747
54	0x3d655c10	0.055996
55	0x3dd7b900	0.10533333
56	0x3dda2866	0.10652237
57	0x3d56ade2	0.05241192
58	0x3d643281	0.055712227
59	0x3db5b577	0.08872502
60	0x3d8c5d96	0.068537876
61	0x3e0c56b0	0.13704944
62	0x3db626e2	0.08894135
63	0x3d37878e	0.04480701
64	0x3d82bb7b	0.06383415
65	0x3de9e644	0.11420873
66	0x3d6f0bda	0.058360912
67	0x3db13465	0.086525716
68	0x3ded2352	0.115790024
69	0x3d3d7e56	0.04626306
70	0x3be2bb1a	0.006919277
71	0x3dc0be8e	0.094113454
72	0x3d88dfb0	0.0668329
73	0x3cfb0dae	0.030646171
74	0x3db62485	0.08893684
75	0x3d03fcc8	0.032223493
76	0x3ddea5bd	0.10871456
77	0x3c5c0bcc	0.013430547
78	0x3d18389f	0.037163373
79	0x3d887015	0.06662003
80	0x3d9efbc5	0.07762865
81	0x3dd32ec2	0.10311653
82	0x3da40126	0.080080315
83	0x3d9ca85b	0.07649299
84	0x3d20c89f	0.039253827
85	0x3db4c65e	0.08826898
86	0x3d26f278	0.04075858
87	0x3da0d55e	0.078531966
88	0x3da388ba	0.07985063
89	0x3da693b6	0.081336424
90	0x3dc2c617	0.09510439
91	0xbce8f2f1	-0.028436156
92	0x3dd9707e	0.10617159
93	0x3d959587	0.07303911
94	0x3d3c175b	0.04592071
95	0x3de3f3f7	0.11130517
96	0x3db5fea4	0.088864595
97	0x3dd17e65	0.10229186
98	0x3db3575e	0.08756898
99	0x3c930349	0.017945902
100	0x3db91788	0.09037691
101	0x3d00e250	0.03146583
102	0x3dbffca7	0.093743615
103	0x3df44392	0.119269505
104	0x3dc03753	0.09385552
105	0x3d6a34c0	0.057179213
106	0x3db1b041	0.08676196
107	0x3daa8929	0.083269425
108	0x3d23d25e	0.039995544
109	0x3d89e71b	0.06733533
110	0x3db5b0f6	0.08871643
111	0xbb4fc94e	-0.003170568
112	0x3daf1cff	0.085504524
113	0x3dcba3cd	0.09943352
114	0x3dc49691	0.09599031
115	0x3da1a4c4	0.07892755
116	0x3df05eb9	0.11736817
117	0x3db46780	0.088088036
118	0x3d991e16	0.074764416
119	0x3db32da7	0.08748942
120	0x3d115fea	0.03549186
121	0x3dbe065c	0.09278557
122	0x3dde5f61	0.10858036
123	0x3d86bc98	0.0657894
124	0x3de33613	0.11094298
125	0x3d328133	0.043580245
126	0x3dac7991	0.084216245
127	0x3cb7d1bd	0.022438878

bn3.running_mean f4 [128]
0	0xbf2a4f67	-0.6652741
1	0xbf4fac33	-0.8112213
2	0xbd4db991	-0.050225798
3	0xbe695d74	-0.22789556
4	0xbf8efcc9	-1.1170894
5	0xbdc0ed2f	-0.09420239
6	0xbecd7cad	-0.40134183
7	0xbe68b30a	-0.22724548
8	0x3ea6728b	0.32509264
9	0x3eb20b4d	0.34774247
10	0xbd3415df	-0.04396617
11	0x3df5572e	0.11979519
12	0x3ec2a460	0.38016033
13	0xbf74d27e	-0.95633686
14	0x3ef252f2	0.47328907
15	0xbf317aa6	-0.6932777
16	0xbf43a74d	-0.76427156
17	0xbee1e342	-0.44118696
18	0xbe2e7c57	-0.1703962
19	0xbf4a2788	-0.7896657
20	0xbf7a7d78	-0.978477
21	0x3eb7ab49	0.35872868
22	0x3e0ef18d	0.13959332
23	0x3ec9a7cd	0.39385834
24	0xbf936d95	-1.1517817
25	0xbf3207bc	-0.6954305
26	0xbf2a6b30	-0.66569805
27	0x3e964363	0.29348287
28	0x3e19a8ac	0.1500575
29	0xbee425d4	-0.4456011
30	0x3eb0139d	0.34389964
31	0x3f0631cf	0.5241975
32	0x3e37d890	0.17953706
33	0xbe90d45e	-0.28287023
34	0x3e044bb9	0.12919511
35	0x3e74775d	0.23873658
36	0xbf80dd8a	-1.0067608
37	0x3ef5e55c	0.4802655
38	0xbe5fb87d	-0.2184772
39	0xbf8de601	-1.1085817
40	0x3e2cce58	0.16875589
41	0xbf37008a	-0.714852
42	0x3e77659e	0.24159858
43	0xbe1f2c6c	-0.1554429
44	0xbf7e0db6	-0.9923967
45	0x3f1f9f30	0.62352276
46	0xbf164cb9	-0.5871082
47	0x3ee28784	0.44244015
48	0xbf7ac93a	-0.979633
49	0xbd3ed40d	-0.046588946
50	0xbf411aad	-0.7543133
51	0x3ea27eb0	0.3173728
52	0x3bd15315	0.006388078
53	0xbf9c5a2f	-1.2215022
54	0xbdf00101	-0.117189415
55	0x3e795071	0.24347092
56	0x3d2e976c	0.042624876
57	0x3f0f915f	0.56081194
58	0xbda59633	-0.08085289
59	0xbf11a38f	-0.56890196
60	0xbf35fbbe	-0.71087253
61	0x3e1c8944	0.15286738
62	0x3ea4e239	0.32203844
63	0xbf808160	-1.0039482
64	0x3e995e12	0.29954582
65	0xbe2644e5	-0.16237219
66	0xbf0271e7	-0.5095505
67	0xbf70d1c1	-0.9407006
68	0x3e769895	0.24081643
69	0x3e0d027c	0.13770479
70	0x3f704b88	0.9386525
71	0xbf9cbe11	-1.2245504
72	0xbde2da0d	-0.11076746
73	0xbe675b99	-0.22593535
74	0xbf537c1a	-0.8261124
75	0xbe80b723	-0.25139722
76	0x3dfee34d	0.12445698
77	0x3f0cdfb9	0.55028874
78	0xbe1491dc	-0.14508766
79	0x3e168f20	0.14703035
80	0xbf4ff16e	-0.8122777
81	0xbf915b18	-1.1355925
82	0x3eb6df9b	0.35717472
83	0xbe1c8c0d	-0.152878
84	0x3f2bc34f	0.6709489
85	0x3cfd110d	0.03089192
86	0xbd865ba5	-0.065604486
87	0xbea6eb1b	-0.32601246
88	0xbec572f0	-0.38564253
89	0xbd77b775	-0.060477693
90	0x3e63e7e9	0.22256435
91	0x3f2beee8	0.67161417
92	0xbd29d88d	-0.041466285
93	0xbf4b17f8	-0.7933345
94	0x3d0a2e86	0.033735774
95	0x3e9fdbad	0.31222287
96	0xbcebfbb8	-0.028806552
97	0xbd1be1fb	-0.03805731
98	0x3e1b9a95	0.15195687
99	0xbe14a826	-0.14517269
100	0x3e6778eb	0.2260472
101	0x3d1338f9	0.035943005
102	0x3e38787d	0.18014713
103	0xbe349cb8	-0.17637908
104	0xbd9dc911	-0.07704366
105	0xbf3e9574	-0.744468
106	0xbf17fa8f	-0.593667
107	0xbdbf55bb	-0.09342524
108	0xbe5a491f	-0.21316956
109	0x3da79976	0.08183567
110	0xbef1aef0	-0.4720378
111	0xbe9ac8f7	-0.3023145
112	0xbe9b9f92	-0.3039518
113	0x3f010266	0.50394285
114	0xbdfa5cc2	-0.122247234
115	0xbf691344	-0.9104502
116	0xbe73a73d	-0.23794265
117	0x3f0713be	0.527645
118	0x3f40839d	0.75200826
119	0xbef8cf5f	-0.48595712
120	0xbb74bf3d	-0.0037345432
121	0x3ee29fec	0.44262636
122	0xbe4b8a84	-0.19877058
123	0xbf26860f	-0.6504831
124	0x3e94ba38	0.29048324
125	0xbf03b6f4	-0.5145104
126	0x3f1e332e	0.61796844
127	0x3f882f7b	1.063949

bn3.running_var f4 [128]
0	0x3ddd332f	0.10800778
1	0x3de7e871	0.113236316
2	0x3e0f1120	0.13971376
3	0x3e03b848	0.12863266
4	0x3e27eba9	0.16398491
5	0x3e19cf08	0.15020382
6	0x3de814bd	0.113320805
7	0x3e15919a	0.14606324
8	0x3e3ee764	0.18642956
9	0x3e22c64f	0.15895961
10	0x3e0e07b2	0.13870123
11	0x3e2dc402	0.16969302
12	0x3e81c552	0.25345856
13	0x3de43bb3	0.11144199
14	0x3e150b2a	0.1455504
15	0x3dec9c79	0.11553282
16	0x3de2e1dc	0.110782355
17	0x3e4a1439	0.19734277
18	0x3e1e8e85	0.15484054
19	0x3de8fbb6	0.11376135
20	0x3dabe7ef	0.08393847
21	0x3e1f70d5	0.15570386
22	0x3e5264f3	0.20546322
23	0x3e1e4ac1	0.15458204
24	0x3dff83cf	0.12476312
25	0x3e10b9f0	0.1413343
26	0x3dbaf0c4	0.09127954
27	0x3eaad347	0.33364317
28	0x3e0778fd	0.13229747
29	0x3e64624f	0.22303127
30	0x3df3b49d	0.118996836
31	0x3dfeeab0	0.12447107
32	0x3e3dc0c1	0.18530561
33	0x3dcf747e	0.10129641
34	0x3e388351	0.18018843
35	0x3e3935b2	0.1808689
36	0x3ddc8ea1	0.10769392
37	0x3e15ecf1	0.14641167
38	0x3e3e9edc	0.18615288
39	0x3dda9d6a	0.106745556
40	0x3e4a3c7a	0.19749632
41	0x3e33ca45	0.17557628
42	0x3e1da141	0.15393545
43	0x3e4ed2e2	0.20197633
44	0x3de8883d	0.113541104
45	0x3e25f6c5	0.16207416
46	0x3dff8168	0.12475854
47	0x3e01d907	0.12680446
48	0x3da56f46	0.08077864
49	0x3e25460a	0.16139999
50	0x3de61f39	0.11236424
51	0x3e001276	0.12507042
52	0x3de28c6a	0.11061938
53	0x3e02b3ea	0.12763944
54	0x3dd8103d	0.10549972
55	0x3df30b5c	0.11867401
56	0x3e1a0d3d	0.15044113
57	0x3e707478	0.2348193
58	0x3dd47970	0.10374725
59	0x3e0c0f24	0.1367765
60	0x3e0b0d27	0.13579236
61	0x3e0658b6	0.13119778
62	0x3e0395aa	0.12850061
63	0x3dcc4bf0	0.099754214
64	0x3e829b56	0.25509137
65	0x3df48b00	0.11940575
66	0x3deabf10	0.114622235
67	0x3dc52288	0.09625727
68	0x3e1d40f7	0.15356813
69	0x3e1779eb	0.14792602
70	0x3e6827a1	0.22671367
71	0x3e03ec08	0.12883008
72	0x3decda3a	0.11565061
73	0x3df50b4c	0.11965045
74	0x3dce9f85	0.1008902
75	0x3dfb6a18	0.12276095
76	0x3dfff0ad	0.12497077
77	0x3e1213cd	0.14265366
78	0x3e29e57e	0.1659145
79	0x3e5d33ef	0.21601842
80	0x3e0ad8a6	0.13559207
81	0x3dccec68	0.100060284
82	0x3e6ca580	0.23110008
83	0x3e17f695	0.14840157
84	0x3e25cbc5	0.16191013
85	0x3de05e2d	0.109554626
86	0x3e219397	0.15778957
87	0x3de77428	0.11301452
88	0x3e1368c3	0.14395432
89	0x3de2c275	0.11072246
90	0x3e0eda8e	0.1395056
91	0x3e5d6a40	0.21622562
92	0x3e1244fb	0.14284126
93	0x3dee2c51	0.116295464
94	0x3e295bc5	0.16538914
95	0x3dd12e46	0.10213904
96	0x3e4aff0d	0.19823857
97	0x3e20c59c	0.15700382
98	0x3e29ad6c	0.16570061
99	0x3e320166	0.17383346
100	0x3e9078c4	0.28217137
101	0x3e434a8f	0.1907141
102	0x3e0df674	0.13863546
103	0x3dfffbb8	0.124991834
104	0x3e2ba70d	0.16762944
105	0x3dc86764	0.09785345
106	0x3db904a9	0.09034092
107	0x3e315e8d	0.17321225
108	0x3e20a62b	0.15688388
109	0x3e0ae699	0.13564529
110	0x3e057b2b	0.13035266
111	0x3e272b18	0.16325033
112	0x3e315868	0.1731888
113	0x3e41c35d	0.18922181
114	0x3dcf2b62	0.101156965
115	0x3e05ebe3	0.13078265
116	0x3e40faf0	0.18845725
117	0x3e5cef23	0.21575598
118	0x3e83a831	0.25714257
119	0x3e021e6a	0.12706915
120	0x3e052bb3	0.13004951
121	0x3e8f92de	0.28041738
122	0x3e07688f	0.1322348
123	0x3dbae2bd	0.09125278
124	0x3e33e1ed	0.17566653
125	0x3de9446d	0.11390004
126	0x3ddbb509	0.10727889
127	0x3e2c7e51	0.16845061

fc1.weight f4 [64, 128]
0	0x3da1fe40	0.079098225
1	0xbd97695b	-0.07393142
2	0x3e28da39	0.16489495
3	0xbdb2c672	-0.08729257
4	0x3d70faa4	0.05883278
5	0x3d380e8e	0.044935755
6	0xbc9683ec	-0.018373452
7	0xbc70cc9d	-0.014697221
8	0x3d6e36f1	0.058157865
9	0xbdc0d2e8	-0.09415227
10	0x3e270091	0.1630881
11	0x3db64999	0.089007564
12	0xbd6b2ef4	-0.057417825
13	0xbe399438	-0.18122947
14	0xbd9dfbf6	-0.07714073
15	0xbcc6557a	-0.02421068
16	0xbdbd247e	-0.09235476
17	0x3e14a268	0.14515078
18	0x3e009960	0.12558508
19	0xbb44f304	-0.0030052075
20	0xbdb58f0f	-0.08865177
21	0x3e00db11	0.12583567
22	0xbc0a1e74	-0.008430112
23	0x3d900f9e	0.07034229
24	0x3d0f0345	0.034915227
25	0xbde9d0b0	-0.11416757
26	0x3c91fad3	0.017819798
27	0x3d4a1807	0.04933932
28	0x3e25b9ed	0.16184206
29	0x3daa6a24	0.08321026
30	0x3dfb9a21	0.12285257
31	0xbd1be07b	-0.038055878
32	0xbdec3851	-0.11534179
33	0x3d6e38be	0.058159582
34	0xbd4a2cd0	-0.049359143
35	0x3d84f02d	0.064911224
36	0xbd3e5610	-0.046468794
37	0x3db750fd	0.08950994
38	0x3d3aa8b5	0.045571048
39	0xbc66b3a4	-0.014080916
40	0x3c7e1492	0.015507834
41	0x3d3bfe04	0.045896545
42	0x3d936786	0.0719748
43	0xbd42a28c	-0.047518298
44	0xbdd6281b	-0.10456868
45	0x3bdcd45a	0.0067391815
46	0x3d139422	0.036029942
47	0x3df5fd13	0.12011161
48	0xbd4222a2	-0.04739631
49	0xbd7b86d5	-0.061407883
50	0x3d3865c1	0.045018915
51	0xbcaeb188	-0.021324888
52	0x3e03fc08	0.12889111
53	0xbdb975d0	-0.09055674
54	0xbde28e60	-0.11062312
55	0x3e0284d0	0.12745976
56	0x3db1502f	0.08657872
57	0xbbdb1fcf	-0.0066871415
58	0xbdab8db8	-0.0837664
59	0xbe084302	-0.13306811
60	0x3da30016	0.07959001
61	0x3df888ad	0.12135444
62	0x3d7566f5	0.05991264
63	0x3c0ccf93	0.008594411
64	0x3d83f366	0.06442909
65	0x3e370ff3	0.17877178
66	0xbd8487ab	-0.06471189
67	0xbd89f25c	-0.067356795
68	0x3e1740fe	0.14770886
69	0x3c5ecb55	0.013598283
70	0xbd6a4817	-0.057197656
71	0xbd0354cd	-0.032063294
72	0x3dceb812	0.100937024
73	0x3b5b27db	0.0033440504
74	0xbdd2d167	-0.102938466
75	0xbca0572e	-0.01957282
76	0x3e592c4b	0.21208303
77	0xbcf69ac6	-0.030103099
78	0xbd1e7df9	-0.038694356
79	0xbd371a4e	-0.04470282
80	0xbc895fa1	-0.016769232
81	0xbdfd150c	-0.1235753
82	0x3df77f19	0.12084789
83	0x3c964890	0.018345147
84	0x3d806f50	0.06271231
85	0x3ddaab33	0.10677185
86	0x3d542dd6	0.051801525
87	0x3d1a1915	0.037621576
88	0xbdc442a5	-0.09583024
89	0x3e45d6b6	0.19320187
90	0xbd57bc10	-0.052669585
91	0x3d057a90	0.032587588
92	0x3e4f5f88	0.20251286
93	0xbdf35d39	-0.11883015
94	0x3cb201e2	0.021729413
95	0x3e0b79b6	0.13620648
96	0x3d5fe35c	0.054660186
97	0x3de7b125	0.113130845
98	0x3c9cdf66	0.019149493
99	0x3c9043e1	0.017610492
100	0x3dc571fc	0.096408814
101	0x3cb5a9a2	0.022175614
102	0x3d751520	0.0598346
103	0x3e3d9a05	0.18515785
104	0x3dfb2577	0.12263005
105	0xbe40c9dc	-0.18827003
106	0xbd9e3254	-0.07724443
107	0x3e0c88fe	0.13724133
108	0xbcdc1c0c	-0.026868843
109	0x3c4878ba	0.012235815
110	0x3e05aed2	0.1305497
111	0x3d1fea91	0.03904206
112	0x3de6b8e1	0.112657316
113	0x3e2e6956	0.1703237
114	0x3e10236f	0.14076017
115	0xbcba6cc5	-0.022756943
116	0x3d6e396c	0.05816023
117	0x3dabb473	0.08384027
118	0x3e089b41	0.13340475
119	0x3e2e2389	0.17005743
120	0xbe151921	-0.14560367
121	0x3ddca11a	0.10772915
122	0x3e03532d	0.12824698
123	0xbde1a3a8	-0.11017543
124	0x3d36bf89	0.044616256
125	0x3df57114	0.119844586
126	0x3e5370e9	0.2064854
127	0xbc19cd29	-0.009387293
128	0x3e4b4e13	0.19854002
129	0x3e125589	0.14290442
130	0x3dc193d9	0.09452028
131	0xbd0eeaaf	-0.03489178
132	0x3c917d59	0.017759966
133	0x3da6bf21	0.08141924
134	0xbc67f33d	-0.014157114
135	0xbd90e846	-0.07075553
136	0x3d8baa1e	0.06819557
137	0xbc83b2c2	-0.01607645
138	0x3d9a5739	0.07536168
139	0xbd6ddced	-0.05807202
140	0xbc842914	-0.016132869
141	0x3c713679	0.01472246
142	0x3c31b0e1	0.010845394
143	0x3d3920ae	0.04519718
144	0x3e14e58b	0.14540689
145	0xbce5040b	-0.02795603
146	0x3e5c93c3	0.21540742
147	0x3e05d317	0.13068806
148	0x3c328a24	0.010897193
149	0x3daec503	0.08533671
150	0x3d12c658	0.035833687
151	0x3cb188ea	0.021671731
152	0x3cb59003	0.022163397
153	0x3c9ae2f6	0.018907052
154	0xbdba35b1	-0.09092272
155	0xbd9324d8	-0.07184762
156	0xbc317963	-0.0108321635
157	0xbc6dc244	-0.014511649
158	0xbcc44235	-0.023957351
159	0xbd94a30f	-0.072576635
160	0xbc83955e	-0.016062435
161	0x3dce3288	0.10068232
162	0x3de4e0a4	0.11175659
163	0xbdf2a935	-0.1184868
164	0x3de25ac2	0.11052467
165	0x3d529ee3	0.051421057
166	0xbc1e92da	-0.009678567
167	0x3d9f8b24	0.07790211
168	0x3d134d61	0.035962466
169	0x3d616c7d	0.055035103
170	0xbcee23f3	-0.029069876
171	0xbd77c06e	-0.06048625
172	0x3de80a6c	0.11330113
173	0xbd48d3c5	-0.049030084
174	0x3d6bc215	0.057558138
175	0x3da2b35b	0.079443656
176	0x3cfcf10f	0.030876664
177	0xbb5b1b61	-0.0033433067
178	0x3e24eb30	0.16105342
179	0xbd7d8ae6	-0.061900042
180	0x3e01295c	0.12613434
181	0xbb33129e	-0.002732433
182	0x3d662c5e	0.056194656
183	0x3d22d3d1	0.039752785
184	0x3e41b0f3	0.18915157
185	0xbd88066b	-0.06641849
186	0x3d2289c6	0.039682172
187	0xbd9ff7c3	-0.07810929
188	0x3db499a3	0.088183664
189	0x3dd22e30	0.10262716
190	0xbded030a	-0.11572845
191	0x3dc4e5e4	0.09614161
192	0xbdc7d0f1	-0.09756649
193	0xbd05d4a1	-0.03267348
194	0xbd37b158	-0.044846863
195	0x3d97d396	0.07413404
196	0xbdba834e	-0.09107076
197	0xbd616e7a	-0.055037
198	0xbd1bfade	-0.038081042
199	0x3db704d5	0.089364685
200	0x3dc2c4a1	0.0951016
201	0xbd083e7e	-0.033262722
202	0x3dd1fa28	0.10252792
203	0x3e017d6c	0.12645501
204	0x3def1817	0.11674517
205	0xbdb0e9b6	-0.08638327
206	0xbd3d274f	-0.046180066
207	0xbd34d436	-0.044147693
208	0xbdbc62a2	-0.091985
209	0x3e0044ce	0.12526247
210	0xbdb16795	-0.08662335
211	0xbe15d06e	-0.14630291
212	0xbdbbfb43	-0.09178784
213	0x3db548a4	0.08851746
214	0x3e18e646	0.14931592
215	0x3e3a9322	0.18220189
216	0xbe2cde6f	-0.16881727
217	0xbde4a6fd	-0.11164663
218	0x3aaf846e	0.0013390908
219	0xbd0b90d8	-0.03407368
220	0xbdd201bc	-0.10254237
221	0x3e034572	0.1281946
222	0xbd01ffb0	-0.031737983
223	0xbcc30a94	-0.023808755
224	0xbdb48c5b	-0.08815833
225	0x3b7bc447	0.003841655
226	0xbd93ad32	-0.07210769
227	0xbcbc6582	-0.022997621
228	0xbe118b98	-0.14213407
229	0xbd4f23d7	-0.05057129
230	0xbdbcb8ea	-0.09214957
231	0x3d820d28	0.063501656
232	0xbda9f886	-0.08299355
233	0xbd05d43a	-0.0326731
234	0x3b3d75f5	0.002890942
235	0xbc9d0813	-0.01916889
236	0x3de068db	0.109574996
237	0x3dee0684	0.116223365
238	0x3e0abe73	0.13549213
239	0x3d9b6b9a	0.07588883
240	0x3dc376f1	0.09544171
241	0x3d40fc77	0.04711577
242	0x3e100b72	0.14066866
243	0xbd9617f5	-0.07328788
244	0x3cc54b9e	0.024083909
245	0x3c396ea9	0.011317887
246	0xbcbd4fc5	-0.023109326
247	0x3e5dba99	0.21653213
248	0x3abcd0bb	0.0014405468
249	0xbcf59db4	-0.029982425
250	0x3d92f8e4	0.07176378
251	0x3d4f74cf	0.050648507
252	0xbdae969d	-0.08524821
253	0x3cdc4ae6	0.026891183
254	0xbcf2bc9a	-0.029630948
255	0xbdc16fe3	-0.09445169
