runs/20260226_205212/last.pt (torch, 584195 bytes, 42 tensors)

conv1.weight f4 [32, 3, 7]
000000 71 74 16 3e fa 55 3c 3e 98 14 a0 bc 8e d1 35 3e
       0.14692856 0.18392172 -0.01954107 0.1775572
000010 11 7d 36 bd a2 b6 f8 3c c4 0b d7 bd ec 1a 4a 3e
       -0.044552866 0.030360524 -0.10500291 0.19736832
000020 9c 2f 49 3e c6 52 47 bd 3d 9e 3f 3e 76 cd 2d 3e
       0.19647068 -0.048662923 0.18712707 0.16972908
000030 4b 98 6c 3e ad 57 f5 3d 62 a5 98 3d af b9 73 bd
       0.2310497 0.119796135 0.07453419 -0.059503254
000040 c7 b9 29 3e 14 18 57 3d ad d0 a9 bd 47 b9 9d 3d
       0.16574775 0.052513197 -0.08291755 0.077013545
000050 0d d0 86 bd 8d 17 89 3c e3 94 cc bc be 40 6a 3e
       -0.06582651 0.016734863 -0.024973338 0.2287626
000060 32 56 12 be c2 34 1f bd dd fb 2a 3b 90 a6 89 bd
       -0.14290693 -0.038868673 0.0026090064 -0.067212224
000070 5f 67 d2 3c 6b b2 6c be 4c c8 54 3e 05 2c 3f be
       0.025684057 -0.23114936 0.20779532 -0.18669136
000080 a3 ed 2d 3e 1d 49 0d 3d bc 5d 50 bd 2d f7 cb 3d
       0.16985182 0.034493554 -0.050870642 0.099592544
000090 e7 b0 5b 3d 69 e4 5a 3e 7b 60 4c 3c 6f 99 8c bd
       0.053635504 0.21376194 0.012474175 -0.06865203
0000a0 ad 3e df bb e8 12 37 bd 38 09 f9 3d 29 9a 6a 3e
       -0.0068128915 -0.044695765 0.121599615 0.2291037
0000b0 a4 cd 27 3e 92 b6 35 bd 8a df 2f 3e 09 76 0f 3e
       0.1638704 -0.044363566 0.17175117 0.1400987
0000c0 11 bb 33 3e 2b e7 fd bd d5 d4 3d be 74 3b 57 bd
       0.17551829 -0.123976074 -0.1853822 -0.052546933
0000d0 ca b7 06 be 51 f4 52 3e f0 84 c8 3d 21 ba f3 3d
       -0.13156047 0.20601012 0.09790981 0.11900736
0000e0 38 b7 54 3d c4 db 41 bc 29 35 23 3e 5c e2 1e be
       0.051932544 -0.011832181 0.15938248 -0.15516037
0000f0 79 21 14 3b 60 c5 10 be 5c c0 54 3d 67 39 2c bd
       0.002260296 -0.14137793 0.05194126 -0.04204693
000100 ef d4 a6 3d fc cb c1 bc 0b 73 4a 3e ef d3 af bd
       0.081460826 -0.023656838 0.19770448 -0.08585345
000110 c3 9a 8f bd 19 d5 e7 bd 6f a8 71 3e cf 37 34 3e
       -0.0701194 -0.11319942 0.23599409 0.17599414
000120 f7 65 71 3e 48 e7 25 be 28 54 4a be 0a cc 15 be
       0.23574053 -0.16201508 -0.19758666 -0.14628616
000130 c8 84 1f be f9 63 30 3d 17 7a 94 3d e8 2a 17 3e
       -0.15577996 0.04306409 0.07249849 0.14762461
000140 9f 54 f5 bd 20 28 19 be b6 fb 83 3d 60 80 e1 bd
       -0.11979031 -0.14956713 0.064444944 -0.11010814
000150 ba b5 16 3e 1b 62 70 bd ae e3 01 3e cb f8 1d be
       0.1471776 -0.05868731 0.12684509 -0.15426938
000160 6b 43 de bd ba d6 8c 3d 5b 5e 4f 3d f7 06 8c bc
       -0.10852703 0.06876893 0.050627094 -0.017093165
000170 00 6a 4c 3e f4 53 60 3e 98 64 48 be b5 f8 0f be
       0.19962311 0.21907026 -0.19569623 -0.14059718
000180 ab c1 74 3e 5d 21 9a bd a0 24 aa bd 53 e1 1f be
       0.23902003 -0.07525895 -0.08307767 -0.15613298
000190 51 d9 d7 bc 35 15 b1 3d e1 b3 98 bc a2 8d d4 bd
       -0.026348742 0.08646623 -0.01864046 -0.10378577
0001a0 dc d0 7d 3c 62 25 01 be f9 1b 28 be 64 15 ae bd
       0.0154916905 -0.12611917 -0.1641692 -0.08500174
0001b0 59 23 1d be ba 0e 0e be a5 07 6e 3e 3b f3 90 3d
       -0.15345515 -0.13872805 0.23245104 0.070776425
0001c0 17 9c db 3d c9 aa 5c be 3b ca d8 bd df 61 f1 3c
       0.10723131 -0.21549524 -0.105854474 0.029465614
0001d0 71 1d f6 3d 18 c4 f4 bd d5 3d 09 bd f7 6d 66 bd
       0.12017334 -0.119514644 -0.033506233 -0.056257214
0001e0 26 d1 b0 bc b1 e7 bf bd 3a 6c 11 be f6 f1 73 be
       -0.021584105 -0.093703635 -0.14201441 -0.2382277
0001f0 57 e6 61 be b9 e3 03 be 34 4f 7d bd 58 52 20 be
       -0.22060524 -0.12879838 -0.061843112 -0.15656412
000200 40 82 3e 3e b9 a1 53 bd e0 4a 41 3e dc 8b b1 3d
       0.18604374 -0.051667903 0.18876219 0.08669254
000210 96 b6 11 be 6f ee 59 3e cd 29 84 bc 48 be 73 bd
       -0.14229807 0.21282361 -0.016133213 -0.05950764
000220 02 dd 3d be 0e 6e 42 be 0c ee 9d 3d 7f 65 70 bd
       -0.18541339 -0.18987295 0.077114195 -0.058690544
000230 6e b4 ca 3c e2 e4 37 be 99 b5 40 3e 40 3f f8 bd
       0.024744239 -0.17958406 0.18819274 -0.12121439
000240 b4 de fe 3c 0c a9 f9 3d 31 8c 5e 3e 30 1b 1d 3e
       0.031112053 0.12190446 0.21733166 0.15342402
000250 7a 19 40 3e dd 4b 0d be 71 85 9e 3d 0d 42 cc bd
       0.18759719 -0.13798471 0.07740296 -0.09973536
000260 61 28 69 bc 1b 89 27 be 47 8c 42 3e 89 7c 6a be
       -0.0142308185 -0.16360895 0.18998824 -0.22899069
000270 ad 2a 81 3d 9b 47 b2 3d 8f 0a 97 3c 7a 25 73 be
       0.06306968 0.08705064 0.018437652 -0.23744765
000280 2a be 1e 3e 72 f2 95 3c 9d 93 1d 3b bf af 1b be
       0.1550223 0.018304083 0.0024044283 -0.1520376
000290 ca 8c f0 3d 2a 9f 85 3c 83 3c 28 3c f3 8b 6f 3e
       0.117456034 0.016311247 0.010268333 0.2339323
0002a0 ff 64 ad 3d c0 a2 b5 bd 68 f0 9f bd b9 d9 a2 3c
       0.08466529 -0.08868933 -0.07809526 0.019879209
0002b0 54 91 2b 3e 78 d0 96 bb 57 39 b2 bd fa 82 aa bd
       0.16754657 -0.004602488 -0.08702343 -0.08325763
0002c0 86 6a 67 be 3a d8 a3 3d e1 7e 45 3e 35 4c 5a be
       -0.22599229 0.08000226 0.19286682 -0.21318133
0002d0 cd 06 fc 3d 19 22 c8 3d ca e6 dc 3c e1 6a 4e bd
       0.12305985 0.097721286 0.026965518 -0.050394896
0002e0 18 4a 05 3e c5 1e fb 3d 5a 7e 90 3d 3d 35 26 bd
       0.13016546 0.12261728 0.0705535 -0.040578116
0002f0 6c 44 c2 bd 35 a2 a8 bc c6 15 2b bd ea 36 8b bd
       -0.09485707 -0.020585159 -0.04176881 -0.067975834
000300 79 ab f7 3d aa bf 27 3e 18 81 47 bd b8 31 af bd
       0.12093253 0.16381708 -0.048707098 -0.08554405
000310 92 68 d7 3c b1 b3 a7 3d 86 f0 b4 3d 7b e0 1d 3d
       0.02629498 0.0818857 0.08834939 0.03854416
000320 c4 60 1b be 35 03 3e bd dc e3 23 3e dd 86 c9 3d
       -0.15173632 -0.046389777 0.1600489 0.09840176
000330 0c 9d 44 3d 71 3c 88 bd 31 0b 70 be 8b 0e 74 be
       0.048001334 -0.06652153 -0.23441769 -0.23833673
000340 bf 61 eb bd 39 08 97 3c 7e 6a d6 3d b4 15 d6 3d
       -0.11493253 0.018436538 0.104695305 0.10453358
000350 b9 44 53 be 37 ba 1c be 0e d1 56 bd 5d 03 41 3e
       -0.20631684 -0.1530541 -0.052445464 0.18848939
000360 20 bb 8e 3c a9 8d d4 bc c5 43 f2 3d 16 91 4d bd
       0.017423213 -0.025946455 0.11829332 -0.050187193
000370 ce 9e 23 be 96 d0 3f 3e 98 e0 ca bc 3d 08 9e 3d
       -0.15978548 0.18731913 -0.024765298 0.07716415
000380 df 2f f6 bd f2 bc 74 3e 1b 66 74 3e f4 38 05 3e
       -0.120208494 0.23900202 0.23867075 0.13010007
000390 f6 3b f3 bd 42 8e 2e be 5f ab 1e be 3a a7 fc 3d
       -0.11876671 -0.17046455 -0.1549506 0.123365834
0003a0 32 1d d2 3d dc 97 43 3e 65 39 fd 3d 61 82 13 3d
       0.10259475 0.19100899 0.12364463 0.03601301
0003b0 bd ba 45 bd 0b 59 5e be 45 b1 a8 bd 49 32 01 be
       -0.04827379 -0.21713655 -0.082369365 -0.12616839
0003c0 29 63 86 bc 48 65 90 bd b0 3d 13 bc 5e 64 b6 bd
       -0.016404705 -0.07050568 -0.008986875 -0.08905862
0003d0 5f 31 86 bc 7e bc 72 be b7 41 73 be ca 63 6e 3d
       -0.016380964 -0.23704717 -0.23755537 0.058200635
0003e0 5a 5f 98 bd 76 22 fa 3d b0 d3 e1 bc 1f c8 17 be
       -0.07440062 0.12213604 -0.02756676 -0.14822434
0003f0 e4 08 d5 bc 46 b2 8d bd fc e9 60 bd e3 e1 31 be
       -0.026005216 -0.069187686 -0.054910645 -0.17371325

bn1.weight f4 [32]
000000 7e bc 8c 3f 7b c3 7d 3f 0c 7f 7f 3f 01 c5 8a 3f
       1.0995023 0.99126405 0.99803233 1.0841371
000010 e6 c0 7c 3f 98 b8 74 3f c3 18 84 3f 04 0a 83 3f
       0.9873184 0.9559417 1.0320057 1.0237432
000020 fc 20 7e 3f c8 e8 79 3f 5b d8 85 3f e9 fe 7f 3f
       0.9926908 0.9762082 1.0456651 0.9999834
000030 f6 0a 80 3f 00 b9 78 3f 47 04 77 3f 73 69 80 3f
       1.0003345 0.9715729 0.964909 1.003218
000040 b0 c4 78 3f e2 d5 76 3f bd d6 7f 3f 9f d5 8e 3f
       0.9717512 0.9642011 0.9993704 1.1158942
000050 e2 7e 7f 3f 29 b9 7b 3f 8c de 8a 3f ec e6 84 3f
       0.9980298 0.98329407 1.0849166 1.0382972
000060 47 5c 81 3f b5 cb 89 3f 4f 7a 86 3f 3f 25 75 3f
       1.0106286 1.0765291 1.0506076 0.9575996
000070 dc 7b 84 3f 78 67 62 3f 21 bb 81 3f cc 23 83 3f
       1.0350299 0.8843913 1.0135232 1.0245299

bn1.bias f4 [32]
000000 6d e6 39 bc 31 5c 03 bc 0c fe 13 bd 8c 1c a4 3c
       -0.011346442 -0.008017586 -0.03613095 0.020033143
000010 40 94 5d 3b 15 0d cb bc 14 9f c1 bc c8 09 10 bd
       0.0033810288 -0.024786511 -0.023635425 -0.035165578
000020 7f 2a d6 bd 97 cd ce bd 68 ca 76 bc e2 81 b0 bd
       -0.10457324 -0.10097807 -0.015062906 -0.08618523
000030 aa dd 3e 3c bb a2 3e bb 81 5a 7d bd 3d 32 48 3b
       0.0116495285 -0.0029088694 -0.06185389 0.0030547522
000040 4b 03 1a bd 76 4e 5b bd 88 5e b2 bc d5 8f 16 bc
       -0.037600797 -0.053541623 -0.021773592 -0.009189566
000050 4a 7c 11 bd ff ac a1 3c 3a b3 3d bd be df 95 3d
       -0.035518922 0.019735811 -0.046313502 0.07318066
000060 a0 00 02 3d c0 fe 4e 3c 32 6d 74 3d b5 81 82 bd
       0.031738877 0.012633979 0.05967445 -0.06372396
000070 78 4e 19 3c d9 37 81 bd a4 a6 9c 3c 19 76 be bc
       0.009357087 -0.0630948 0.01912243 -0.023249673

bn1.running_mean f4 [32]
000000 d3 7d 9d bb 9a 3c 8f 37 b5 a8 8f 3a 05 a0 2e 39
       -0.004806259 1.7075148e-05 0.0010960313 0.00016653545
000010 db 97 b0 ba c9 41 27 3a ca 17 8c 3a 76 6b 97 ba
       -0.0013472991 0.0006380347 0.0010688242 -0.0011552412
000020 b6 a5 80 b9 25 bb b8 ba 44 be 68 b9 4d ad b9 3a
       -0.00024537527 -0.0014093859 -0.00022196124 0.0014166028
000030 80 1b 60 bb e5 d7 b9 3a 96 72 38 3a ac da 9a 3a
       -0.0034196079 0.0014178721 0.00070361176 0.0011814437
000040 2c 86 dc 3a bc 2f 59 ba 07 6e e9 39 b2 c3 95 39
       0.0016824654 -0.0008285006 0.000445232 0.000285653
000050 96 26 ad b8 1f f8 4a 3a 63 1b 3c bb 18 58 d5 b9
       -8.25647e-05 0.00077426614 -0.0028702847 -0.0004069216
000060 85 41 42 3b 28 64 b8 b8 52 79 57 bb dd 5e 6e ba
       0.0029641103 -8.792459e-05 -0.003287871 -0.0009093115
000070 ab b0 31 b9 5d 6e 88 b8 4c 85 36 ba 67 d3 dd b9
       -0.0001694585 -6.505542e-05 -0.0006962612 -0.00042309912

bn1.running_var f4 [32]
000000 cd 9b 15 3f 2d 41 43 3e fb 52 37 3f 54 93 f4 3e
       0.5844086 0.19067831 0.71610993 0.47768652
000010 0d 80 73 3e bf da 07 3f e5 02 c1 3e 68 0b 73 3e
       0.23779316 0.53068155 0.3769752 0.2373482
000020 a6 d6 66 3e 43 c0 99 3e 8c 40 b2 3e b6 f0 ec 3e
       0.2254282 0.30029497 0.3481487 0.46277398
000030 e4 62 e0 3e d0 38 d6 3e 93 9c ad 3e 96 3f f4 3e
       0.43825448 0.4184022 0.3390852 0.47704762
000040 c0 e1 ec 3e f4 de ad 3e 04 2b 5f 3e 9c 61 61 3e
       0.46265984 0.33959162 0.21793753 0.22009891
000050 91 8e 56 3e a7 47 ae 3e 24 2f 04 3f 79 38 b8 3e
       0.20952822 0.3403904 0.5163443 0.35980585
000060 cf 1c 02 3f 6b cf 7f 3e e8 08 11 3f 9d 96 0a 3f
       0.5082521 0.24981467 0.56654215 0.5413607
000070 ec b1 8e 3e f8 d4 5c 3e b9 d3 ce 3e a8 ec 2a 3e
       0.2787012 0.21565616 0.40395907 0.1669184

conv2.weight f4 [64, 32, 5]
000000 08 d3 ab 3d f2 80 25 3c 3b 0e 21 bd 36 a6 97 3d
       0.083898604 0.010101544 -0.03932021 0.07404749
000010 2c 30 93 bd 0c aa 31 3c 59 93 81 bd 30 19 c8 3b
       -0.071869224 0.010843765 -0.063269325 0.006106518
000020 70 be 7a 3d 49 3b 77 3c 33 0c d0 3a 59 2c 58 3d
       0.06121677 0.015089818 0.0015872776 0.05277667
000030 04 37 cc 3b c5 0b f6 3d 24 18 98 3b d6 c9 86 bb
       0.0062321443 0.120139636 0.0046415497 -0.004113416
000040 26 f6 c5 bd 2c 0e 14 bd ee d7 bd 3d da a8 f9 3d
       -0.0966609 -0.036146328 0.09269701 0.12190409
000050 f8 21 b2 3c 3d 62 fb 3d d9 7e f9 bb df 63 16 3d
       0.021744713 0.12274597 -0.0076139984 0.03671634
000060 68 f9 7e 3d bb 80 a3 3d 4a 89 0b bc 2e 52 9c 3d
       0.06224957 0.07983538 -0.008516619 0.07632862
000070 28 88 b4 3c 03 44 3e bd 98 89 5b b8 f2 d7 4c bd
       0.02203758 -0.04645158 -5.2341813e-05 -0.05001063
000080 b8 10 44 3d f5 9a bc bd ff c2 61 bd 1a 3f 13 bd
       0.047867507 -0.09209243 -0.055117603 -0.03594885
000090 cf bd 96 bc 84 8a a4 bc 7b 4d 5a 3d e2 47 a3 3d
       -0.018401055 -0.02008558 0.053296547 0.07972695
0000a0 d5 a6 29 3d 5f 6f ca bd d2 9b db 3d 4a 40 d7 3d
       0.04141887 -0.098845236 0.1072308 0.10510309
0000b0 39 e7 36 3d 89 ab 32 bd 39 e1 be 3b cc 78 0c 3d
       0.044654105 -0.04362062 0.0058251885 0.03429489
0000c0 e5 50 13 bd 35 47 4f 3c 62 69 1e 3c 98 90 75 3d
       -0.03596582 0.012651254 0.00966868 0.05995235
0000d0 ec 0f 3c bd f2 8f 66 3c d6 a8 10 3d 56 61 fd bd
       -0.04591362 0.014072405 0.035317264 -0.12372081
0000e0 a9 ce 00 be e6 80 cd bd 2f cf 39 3d 84 38 bf bd
       -0.12578835 -0.10034351 0.0453636 -0.093369514
0000f0 31 1b ee bd ca 92 06 bc 2e 06 3a 3d 07 bd 3f 3d
       -0.1162628 -0.008213708 0.04541605 0.04681113
000100 29 10 d4 bd 98 10 49 bc 30 38 c7 3c 64 c9 8b 3c
       -0.10354645 -0.012272023 0.024318784 0.017063804
000110 ac 7f 0f 3d 14 8d 25 3c ac 97 0b 3d 80 cf 8d 3d
       0.035033867 0.010104436 0.034080192 0.06924343
000120 0d d6 dd bd 85 d7 1d bd a1 52 9d 3c 31 ec 43 bd
       -0.108318426 -0.038535614 0.01920444 -0.04783267
000130 7a 08 7a bd 2e a3 19 3d 82 e0 d8 3c d2 3a 3f 3d
       -0.06104324 0.037509136 0.026474241 0.046686955
000140 76 4c 44 bd 96 c1 ab 3c c2 36 8d 3d a5 85 8d bd
       -0.04792448 0.020966332 0.0689521 -0.06910256
000150 37 fd 86 bb 52 e2 89 bd 4d 7e f2 bd 0b b6 01 3d
       -0.004119541 -0.0673262 -0.11840496 0.03166775
000160 fa 7a ae bc 02 11 80 bd 0a 03 96 3d f5 ab 7f bc
       -0.021298874 -0.06253244 0.073247984 -0.015604963
000170 5b 9b 70 bd fe 85 ce ba 31 1a 8a 3d 03 71 90 bd
       -0.05874191 -0.0015756486 0.06743277 -0.07052805
000180 87 3a 41 bd da c0 a9 3d 0e b1 5f 3c 78 ec 39 3d
       -0.047174957 0.08288737 0.013653053 0.04539153
000190 ee fb e5 bd 50 ec 81 bd cd 89 d0 bc 4f a1 21 bd
       -0.112296924 -0.06343901 -0.025456334 -0.039460476
0001a0 ba 82 03 bd 22 a4 ce 3b 7e ac 84 bc 3e 5b 00 bc
       -0.032107092 0.0063061872 -0.016195532 -0.007834254
0001b0 81 b6 1b 3b f5 ad e1 bc 52 9e 38 3c f0 a3 22 3b
       0.0023759904 -0.02754877 0.011268215 0.0024816953
0001c0 72 9c 83 bd 36 81 c7 bd b4 84 1a 3d 78 9a 1b 3d
       -0.06426324 -0.09741442 0.03772421 0.03798911
0001d0 21 79 72 bd 69 a9 86 3d 42 99 07 bd 13 2f 27 3d
       -0.05919755 0.06575281 -0.033105142 0.040816378
0001e0 75 e4 46 3d 41 7c 85 bd a7 30 61 3d 9f f0 00 be
       0.048557717 -0.0651784 0.05497804 -0.1259179
0001f0 b6 94 f1 bc 6a 86 ca 3c 7e 27 d6 bd 24 92 79 3d
       -0.029489856 0.024722297 -0.10456751 0.060930386
000200 a8 6f 26 3a e3 d8 69 3c 64 54 d5 bb 19 88 40 3d
       0.00063490355 0.014272901 -0.0065103043 0.047004793
000210 c3 33 8d bc 28 15 8a bd 19 58 c0 3b 29 54 4a 3d
       -0.017236596 -0.067423165 0.005869877 0.049396668
000220 e3 d4 7e 3d 55 a2 56 bd fe 10 72 bd 47 29 39 bc
       0.062214743 -0.052400906 -0.059098236 -0.011301345
000230 a3 52 84 bc 2b 8d 6b 3c 25 f0 72 3b 92 f1 60 bd
       -0.016152686 0.014376919 0.0037069407 -0.05491788
000240 92 ff b4 3c 59 09 53 bc 8f 08 0f bd aa db 2a 3d
       0.022094522 -0.012880647 -0.03492027 0.041713394
000250 fd d0 3d 3c 62 b0 4f 3d c1 6c af bd 37 dd c5 bd
       0.011585471 0.05070532 -0.08565665 -0.09661334
000260 48 65 0a bd ba 84 83 bb 7a 71 30 3c b2 f7 c5 bc
       -0.033787996 -0.004013625 0.010769242 -0.024165962
000270 d4 f6 e0 3d 97 ba 0e 3d 36 2a 85 3d 03 cf 6b 3c
       0.10984579 0.034845915 0.06502192 0.014392617
000280 ca c9 ff bd f5 b9 c4 bd 1e 93 d3 bd 59 3b 44 bd
       -0.1248966 -0.09605781 -0.10330795 -0.04790816
000290 01 f7 00 be 66 57 1f 3d b8 cb a9 bc 0d fb 4a bd
       -0.12594225 0.03890171 -0.020727023 -0.049555827
0002a0 76 da 48 3b 5d a5 a5 bd 06 81 85 bd 73 aa 9f bd
       0.003064779 -0.08088181 -0.0651875 -0.077961825
0002b0 6b de 3b bc b5 cc 42 bd 42 3a ba 3c 09 03 45 bd
       -0.011466603 -0.047558505 0.022732858 -0.048098598
0002c0 2d 74 93 bb fd 47 8d 3d da 43 20 3c d0 9e e7 bd
       -0.004499933 0.06898496 0.009781802 -0.11309588
0002d0 c4 bb e4 bc 70 63 a0 3d 9c bc 15 bd bf 9f 72 3d
       -0.027921565 0.07831466 -0.036556825 0.059234377
0002e0 07 d5 4c 3d 3d db df 3c 8b f7 6b 3d 8a 4f 70 3d
       0.050007846 0.02732622 0.057609122 0.058669604
0002f0 59 bd 22 bc 9d 1d c4 bd 78 61 42 3d 7d 10 8c bd
       -0.009932839 -0.09575961 0.047456235 -0.068390824
000300 1c 77 96 bd 5d ec 86 3d 10 08 81 3d e4 b9 a8 3c
       -0.07346937 0.065880515 0.06300366 0.020596452
000310 9b c1 a5 bd 6c 83 b7 3b 3d 8f 35 3c d0 10 f2 3d
       -0.08093568 0.0056003835 0.011081514 0.11819613
000320 a6 35 7f 3d 2b 6d 50 3c fc a6 ee bc be 87 30 3c
       0.062307023 0.01272134 -0.029132359 0.010774551
000330 40 09 1e 3d 0b c2 f3 3b d1 4c 85 3c dd 17 53 bd
       0.03858304 0.007438903 0.01627198 -0.05153643
000340 49 e3 22 bd c2 9c 94 bb 4d 2b e8 bc 5b 59 8c 3d
       -0.039767537 -0.0045352885 -0.02834096 0.06852981
000350 82 32 d3 3c 78 61 d8 3c c7 64 11 3d 35 cc 56 bd
       0.02578092 0.026413664 0.0354965 -0.05244084
000360 5f ec d0 bd b5 0a 67 bc 30 80 e7 bb 65 87 12 bc
       -0.10201334 -0.014101674 -0.0070648417 -0.008943413
000370 16 4b 68 bc ef 5a 02 3d cf 46 cb 3d 7c fb af 3d
       -0.014178058 0.031825002 0.09925615 0.08592889
000380 58 a4 7e bc fd 37 1e bd 15 b3 d3 bc 89 08 7e bd
       -0.015542112 -0.038627613 -0.025842229 -0.06201986
000390 f3 ea 29 3d d8 f9 d8 3c f7 ba 31 3d ec bd 13 bd
       0.04148383 0.026486322 0.043391194 -0.036069795
0003a0 0e af d2 ba 0f 73 7f 3c a8 76 ba bd 01 ce 9b bc
       -0.0016073899 0.015591397 -0.09104663 -0.019019129
0003b0 8d 2a 71 bc 7d 79 a0 bd 58 f0 bd bd e7 c3 68 3c
       -0.014719618 -0.07835672 -0.092743576 0.014206863
0003c0 e0 34 81 3d 2a f9 2c 3b 11 ee ed 3c fe 2b 65 bd
       0.06308913 0.002639363 0.029044183 -0.055950157
0003d0 bc d8 7e bd 4b 19 7f 3d 90 93 2c bd 18 9e df bb
       -0.062218413 0.06227998 -0.042132914 -0.006824266
0003e0 b0 3d 50 bd d9 a8 12 3d e0 51 94 bd ed 62 02 bd
       -0.05084008 0.035805557 -0.07242179 -0.031832624
0003f0 a2 d6 cb 3d 0e 54 68 bc 7f 0a 1a 3b 0f 79 9a 3d
       0.09953047 -0.014180196 0.0023504791 0.07542621

bn2.weight f4 [64]
000000 6b 86 72 3f 42 f1 7a 3f 4f 06 74 3f 15 b5 73 3f
       0.94736356 0.9802438 0.95322126 0.95198184
000010 ec 0b 82 3f 03 4c 73 3f 04 18 7c 3f e0 7c 7f 3f
       1.0159888 0.9503786 0.98474145 0.9979992
000020 73 a6 6f 3f 67 61 74 3f 89 f9 85 3f fd 5c 8b 3f
       0.93613356 0.95461124 1.0466777 1.0887753
000030 ea 66 7f 3f 7a 33 81 3f 2c ee 6f 3f f3 bf 78 3f
       0.9976641 1.0093834 0.93722796 0.9716789
000040 26 e5 83 3f 35 9c 7a 3f 1a a8 80 3f ed 5f 7e 3f
       1.0304306 0.97894603 1.00513 0.9936512
000050 55 88 75 3f 2a 17 81 3f 05 a7 81 3f ea 84 80 3f
       0.9591115 1.0085194 1.0129095 1.0040562
000060 02 7c 88 3f 7c ef 81 3f e8 f0 86 3f b3 da 6c 3f
       1.0662844 1.015121 1.0542269 0.9252121
000070 77 d3 7b 3f be 13 80 3f 32 83 84 3f cb db 75 3f
       0.98369545 1.0006025 1.0352538 0.960385
000080 f1 5b 73 3f df 9d 80 3f 25 d8 7f 3f 9d 99 7d 3f
       0.95062166 1.0048178 0.99939185 0.9906252
000090 1e 37 7c 3f 8c 38 76 3f c2 4c 76 3f 85 66 82 3f
       0.985216 0.96180034 0.96210873 1.0187536
0000a0 fc ca 80 3f 67 e7 80 3f f2 ea 79 3f 85 14 84 3f
       1.0061946 1.0070618 0.97624123 1.0318762
0000b0 62 ad 82 3f 80 f1 76 3f 9d a5 6f 3f 1b 58 7d 3f
       1.0209162 0.9646225 0.9361208 0.98962563
0000c0 9b cc 74 3f 10 43 83 3f 42 6c 82 3f c6 c2 80 3f
       0.95624703 1.0254841 1.0189288 1.005944
0000d0 fd 5d 80 3f 1c dd 7f 3f 67 27 86 3f dc f4 7e 3f
       1.0028683 0.9994676 1.0480775 0.99592376
0000e0 1d 93 86 3f 6b 1f 80 3f 36 98 84 3f fd f6 79 3f
       1.0513645 1.0009588 1.0358951 0.976425
0000f0 b0 11 87 3f 5a 4a 7d 3f 64 08 80 3f 0d 7d 86 3f
       1.0552273 0.98941576 1.0002561 1.0506912

bn2.bias f4 [64]
000000 99 5a af bd d3 37 18 be 10 6d 1f be 61 2d b9 bd
       -0.08562202 -0.14865045 -0.15568948 -0.090418585
000010 79 f4 13 be 62 12 ff bc 3d d1 98 bd ab f5 d9 bd
       -0.14448728 -0.031136695 -0.07461784 -0.106425606
000020 b9 57 c7 bd 89 50 dd bd b9 bd ae bd 48 34 b8 bd
       -0.09733529 -0.108063765 -0.085322805 -0.08994347
000030 9d b8 6c bd bc fc fe bd e9 0c 6b bd 3c c4 c8 bd
       -0.05779325 -0.12450549 -0.05738536 -0.09803054
000040 36 8b b5 bd 48 ed ac bd 5b 6b cf bd f7 35 9a bd
       -0.08864443 -0.08443695 -0.10127898 -0.07529824
000050 24 93 a2 bd d6 1b e2 bd 45 bb 9f bc 36 95 dd bd
       -0.07938221 -0.110404655 -0.019498477 -0.10819475
000060 2e 13 12 be 00 d8 5e bd 1a df 5d bd 0d 93 d6 bc
       -0.14265129 -0.054405212 -0.054167844 -0.026193166
000070 a9 55 76 bd 3f db 3b bd 21 db fe bc 50 76 19 bd
       -0.060140286 -0.045863386 -0.031110348 -0.037466347
000080 14 6d f1 bd 65 99 b1 bd ed 29 bb bd 08 c2 c0 bd
       -0.11788383 -0.08671836 -0.09138856 -0.094120085
000090 b1 dd 99 3c 7c 6f 7f bd a1 51 df bd 28 f3 d9 bd
       0.018782469 -0.06236218 -0.10904241 -0.106420815
0000a0 ca 6e d9 bd f9 cb ff bb c5 bc a3 bd f9 24 ff bd
       -0.106168345 -0.007806298 -0.07994989 -0.12458224
0000b0 57 95 fc bd b1 61 9a bd f0 8b 0a bd 8a 7c 02 bd
       -0.12333172 -0.075381644 -0.03382486 -0.03185705
0000c0 7d a3 ba bd 50 9a 06 be 6d 10 8f bd 09 9d af bd
       -0.09113214 -0.13144803 -0.06985555 -0.08574874
0000d0 0f 71 c4 bd ae 6d 8e bd 37 d5 0d be 03 4a 5d bd
       -0.09591877 -0.069545135 -0.13850866 -0.05402566
0000e0 e8 9f b8 bd 68 9c c2 bd 40 ac 37 be 34 a5 11 be
       -0.09014875 -0.095024884 -0.17936802 -0.14223176
0000f0 e7 79 1f bd dd 4b 7e bd 9d 8a b3 bc ae 56 f3 bd
       -0.038934615 -0.062084068 -0.021916682 -0.11881767

bn2.running_mean f4 [64]
000000 dc fa 04 be 50 58 9f be fe 6f 2b be 32 1f 2c 3f
       -0.1298632 -0.31122065 -0.1674194 0.672351
000010 ac 21 29 bf 3d 52 98 3e f0 b2 1f bf bd ea 64 be
       -0.66067004 0.29750243 -0.6238241 -0.2235517
000020 d1 50 0e b9 e5 22 a4 be 81 92 28 be 9b 11 12 bf
       -0.00013572282 -0.32057872 -0.16462137 -0.57058114
000030 00 37 86 3e 8c c8 06 bf 09 b5 5e 3e b9 7f 14 bf
       0.26213837 -0.5264976 0.21748747 -0.5800739
000040 66 d1 7d bf 13 29 0e bf 09 d7 5e bf 74 80 9b be
       -0.9914764 -0.55531424 -0.8704687 -0.3037144
000050 64 89 81 be 4c c3 99 be 0a d0 f6 3e a7 ad 38 bf
       -0.25300133 -0.30031812 0.48205596 -0.7213997
000060 2b fc 7c bc 16 c7 13 bf e8 da 3a be 6e 56 1a 3f
       -0.015440981 -0.57725656 -0.18247569 0.6028813
000070 e8 08 39 bf 9c 6e 42 be fb 98 58 be c5 7c 07 3f
       -0.72279215 -0.18987507 -0.21152107 0.5292476
000080 e4 ac 2a bf 54 a8 cc be db 65 35 bf 6f f4 52 3d
       -0.6667006 -0.39972174 -0.70858544 0.05150264
000090 ca 8c 5c 3f 07 0c 2f bf 13 64 14 bf 00 f9 9d be
       0.8615233 -0.6837773 -0.579652 -0.30854034
0000a0 5a d7 27 bf f0 9f 66 be 38 7e 41 bf b3 66 4d bf
       -0.65562975 -0.22521949 -0.7558322 -0.8023483
0000b0 10 63 2c bf ea 75 ad be 64 af 96 be b6 7b 16 3e
       -0.6733866 -0.33879024 -0.29430687 0.1469563
0000c0 2d f5 be be 59 bd 1e bf f4 8b 1b 3f 5e 8a ed be
       -0.3729643 -0.6200767 0.60760427 -0.46394628
0000d0 3a ca 33 bf 75 cb c0 3c f1 91 27 bf da 0a 9b 3e
       -0.7023045 0.023534516 -0.65457064 0.30281717
0000e0 36 23 ed be 94 3e 68 bf 3f b7 18 bf 1e 7f b9 3e
       -0.46315926 -0.90720487 -0.5965461 0.36229795
0000f0 1c d3 e7 be 30 7f a5 bd c8 86 98 be e8 24 0b bf
       -0.4527825 -0.080809 -0.2979033 -0.5435319

bn2.running_var f4 [64]
000000 ed 69 4a 3e 4e 9d 17 3e 9a e8 43 3e 22 6c 6e 3e
       0.1976697 0.148061 0.19131699 0.23283437
000010 90 4e 56 3e a1 d6 6c 3e fe 99 87 3e eb 53 83 3e
       0.20928407 0.2312875 0.26484674 0.25649962
000020 f7 8d 87 3e e9 7b 80 3e 89 a2 fa 3e 5f 89 a3 3e
       0.26475498 0.25094536 0.4895213 0.31940743
000030 c3 40 87 3e 02 de 87 3e 2c e5 75 3e 7b aa a9 3e
       0.26416597 0.26536566 0.24013203 0.3313788
000040 f6 9b fa 3e 53 e0 c8 3e f3 27 7c 3e 83 1c 4d 3e
       0.48947114 0.39233646 0.24624614 0.20030408
000050 f9 e2 9c 3e 49 d3 72 3e ab 18 64 3e 9f 90 fa 3e
       0.30641916 0.23713411 0.22275035 0.48938462
000060 20 0c 36 3e 66 cf b9 3e 27 c6 b6 3e 55 bc a5 3e
       0.17778063 0.36291045 0.35698053 0.32370248
000070 82 ec f6 3e 6b 2b 86 3e 1a ae aa 3e b8 59 c3 3e
       0.48227316 0.26205 0.33335954 0.38154387
000080 e5 e5 97 3e e2 c5 85 3e 9c 22 af 3e b5 5a 82 3e
       0.29667583 0.26127535 0.34206092 0.2545983
000090 74 14 cd 3e c2 70 ef 3e 16 7a ac 3e a8 82 97 3e
       0.40054667 0.46765715 0.33686894 0.2959187
0000a0 33 92 a1 3e 8c 0b 19 3f 68 a4 d9 3e 37 82 a6 3e
       0.31556854 0.59783244 0.42508245 0.3252122
0000b0 83 6d a3 3e 29 b7 6f 3e 59 7b dc 3e 3a f2 4f 3e
       0.31919488 0.23409714 0.43062857 0.20307246
0000c0 01 c5 68 3e e5 66 56 3e 50 7b 48 3e 56 6e ca 3e
       0.22731401 0.20937689 0.1957829 0.39537305
0000d0 ae 9d db 3e 59 a8 f0 3e b2 f1 c3 3e e7 7b 5f 3e
       0.42893738 0.4700344 0.38270336 0.21824609
0000e0 71 57 b1 3e fb 9a a8 3e f2 4a 64 3e 98 aa 90 3e
       0.34637025 0.3293074 0.22294214 0.28255153
0000f0 f0 9b c7 3e 72 be 7d 3e 3a 4e a5 3e 0f 2d 84 3e
       0.38986158 0.2477968 0.32286245 0.25815627

conv3.weight f4 [128, 64, 3]
000000 b0 5f e8 3b 12 f7 6e 3d 52 fc 21 bd 3e 3c 2b 3d
       0.007091485 0.058341093 -0.039547272 0.0418055
000010 34 d4 86 3d ef d4 68 bc 78 ae 92 bc 11 dd 85 bd
       0.06583443 -0.014210924 -0.017905459 -0.06536306
000020 e6 cd 87 bd 10 13 74 3c 61 70 d4 3b dd b9 a5 bc
       -0.06631069 0.014897123 0.006483123 -0.020230228
000030 17 fc 95 bd 95 7e 36 bd d0 f8 e9 bd 71 2a 71 bd
       -0.07323473 -0.04455431 -0.1142441 -0.058878366
000040 cc 41 9f bd c0 b4 60 bd 2f 40 81 3c bf 86 f8 3c
       -0.07776222 -0.054859877 0.015777675 0.03033769
000050 46 46 79 bd 31 9b bf 3d c5 81 bb 3d e8 69 e2 3d
       -0.060858034 0.09355772 0.09155611 0.11055356
000060 2a aa 61 bd 88 30 80 bd fe 03 39 bd 55 9a c1 3d
       -0.05509392 -0.062592566 -0.045169823 0.094532646
000070 3f a3 bd 3d 16 20 65 3d eb 3e ef bd 0a 19 96 bd
       0.09259652 0.055938803 -0.116819225 -0.073289946
000080 25 e5 eb bd 2e d7 21 3b 3f 0d c9 bd 8b e2 bb bc
       -0.11518315 0.0024694907 -0.098169796 -0.022935173
000090 4e 44 30 3b bf 33 8d 3c 3e 4a 51 3c 1a b7 19 3d
       0.0026896182 0.017236589 0.012774048 0.037528135
0000a0 06 cf 46 bd 74 36 74 bd 0b a3 41 bd 88 49 d1 3c
       -0.048537277 -0.059622243 -0.04727463 0.025547758
0000b0 40 64 af bd 34 ed cf 3c eb 6d 50 3d 53 04 f6 3b
       -0.08564043 0.025381662 0.050886076 0.0075078397
0000c0 43 6a ec bc 0d c6 f9 bc f8 42 f2 bd 58 f1 3f 3d
       -0.028859263 -0.030489946 -0.118291795 0.046861023
0000d0 30 1d ae bb ed 0d 8c 3d 46 9a 0d bd bc 4a 42 3c
       -0.005313538 0.06838594 -0.034570955 0.011858638
0000e0 d1 33 5b bd af b3 3c bc 0d 0e 9b 3d 94 bc c0 3c
       -0.053516213 -0.011517449 0.07571039 0.023527421
0000f0 3b d4 60 3c 0d 7b 0a 3d 0f 8c da 3c e3 e6 09 3d
       0.013722475 0.033808757 0.026678113 0.033667456
000100 85 5e 5c bd e5 62 73 bc dd c2 c8 bd e7 a1 b5 bd
       -0.05380108 -0.014855121 -0.09802792 -0.08868771
000110 07 54 eb bd c8 52 8d 3c 87 f2 e3 3b ac a8 70 bc
       -0.11490636 0.017251387 0.0069564017 -0.014688652
000120 85 50 28 bd fd 99 0d bc 15 16 33 bd 61 0a 4e bd
       -0.041092414 -0.008642671 -0.04372223 -0.050302867
000130 7e df 04 bd 43 24 40 bd c3 1f 69 3d df bf 3a bd
       -0.0324397 -0.046909582 0.056915056 -0.04559314
000140 8b d5 58 3d 68 0d 2b bd 3a 79 12 bd 8d 13 fa bc
       0.052938025 -0.041760832 -0.035760142 -0.0305269
000150 d6 ff 2c 3d 7f ab e4 bc cb 0d 32 3c 8f 4d 0e bc
       0.04223617 -0.027913807 0.010867546 -0.008685484
000160 ab 31 e6 3b c2 70 f1 bc 36 b1 e6 3b 51 47 d2 3d
       0.007024964 -0.029472712 0.007040168 0.10267509
000170 b7 39 ac 3d fa 41 f5 bc a4 73 82 3d ba 9b 74 3d
       0.08409446 -0.029938687 0.06369713 0.059718825
000180 4a 83 74 bd 99 87 b8 bc a8 33 b4 bd 85 03 bf 3d
       -0.05969552 -0.022525596 -0.08798915 0.09326843
000190 0d 1e 6a bb 78 68 5a bc c8 cd 79 bc e7 2b ea bc
       -0.0035723478 -0.013330571 -0.015246816 -0.028585387
0001a0 15 93 67 bd 64 72 ef bc ae cb ae 3c 7d ed a6 3c
       -0.056536753 -0.02922935 0.021337356 0.020376915
0001b0 3a 41 f1 bd 26 3e 84 bd 45 c0 61 bd 24 f1 06 bc
       -0.11780019 -0.064571664 -0.055115003 -0.008236203
0001c0 50 c0 28 bd d5 af 8a 3c 26 20 ea bc d5 cb c1 3c
       -0.04119903 0.016929546 -0.028579783 0.023656765
0001d0 0c 40 b1 bc ff a8 d7 bd 44 be 44 bc bd 6d 57 bd
       -0.021636985 -0.1053028 -0.0120082535 -0.05259489
0001e0 cb 88 7e 3c 3a 43 36 bd 58 12 a8 bc 26 24 bb ba
       0.015535544 -0.044497706 -0.02051656 -0.0014277741
0001f0 97 a1 a3 bd 00 21 68 bd fc 40 00 3c 0e 13 07 ba
       -0.07989805 -0.056672096 0.0078279935 -0.00051526807
000200 04 4a 09 bd bb de 53 3d 6a f1 cd 3c 80 bb 5b 3b
       -0.033517852 0.051726084 0.02513953 0.0033528507
000210 41 3b f0 bb ee a0 be 3d 19 2c f6 bb 64 c3 81 bd
       -0.0073312824 0.09308039 -0.007512581 -0.06336096
000220 84 9f c9 bd a2 d6 42 bd 39 a2 b9 bb 2b 1c e6 3b
       -0.09844878 -0.04756797 -0.0056650904 0.007022401
000230 f6 82 b5 bc fa 61 cf 3c fc eb 4f 3d 7b 97 c4 bb
       -0.022157174 0.025315274 0.05076216 -0.005999503
000240 75 44 12 bd a5 e3 22 3c 50 a4 8c 3d 1a cb 7c 3d
       -0.035709817 0.00994197 0.068672776 0.06171713
000250 f0 01 fc 3c b7 2b 90 3d 7b 94 d7 3c 89 4c 17 3d
       0.030762643 0.07039588 0.026315918 0.036938224
000260 c0 e0 4a 3c 85 5a 9a 3c 86 da b4 b8 07 94 21 bd
       0.012382686 0.018841991 -8.623772e-05 -0.03944781
000270 e4 92 93 3d 8b 34 1c 3d 59 25 17 3d 87 7d 17 bd
       0.072057515 0.038136046 0.036900852 -0.036984947
000280 f8 3d 8b bd a6 54 ca bd 6d 31 8c 3b b9 25 86 bd
       -0.06798929 -0.09879427 0.004278353 -0.06550164
000290 39 69 d0 bc 99 48 b7 3c ee 9a 20 3d 0c ad e8 3c
       -0.0254408 0.022373484 0.039210252 0.028402828
0002a0 89 14 1d bd 28 b9 b8 bd 78 6f 71 bd 0c 97 a6 bd
       -0.038349662 -0.09019691 -0.058944196 -0.08134279
0002b0 0d 26 ad bd 32 7a db bd 84 f1 51 bd c9 5d 2f bd
       -0.08454523 -0.10716666 -0.051255718 -0.04281405
0002c0 a1 1f 58 bd 59 a7 90 3d 04 c7 2c 3d 18 da b8 3d
       -0.05276454 0.07063169 0.042181984 0.09025973
0002d0 d2 3e 71 3d 2a bf 5c bd 1a 3a 1e 3d e1 2a c7 bc
       0.0588978 -0.053893246 0.03862963 -0.024312438
0002e0 fc 6c 36 3d db fe 4f 3d 35 f8 04 b9 f3 9b be 3b
       0.04453753 0.05078016 -0.00012680965 0.0058169304
0002f0 85 3a 2f 3d d3 e9 a0 bd b8 30 bc bc 13 de 4a 3d
       0.042780418 -0.078570984 -0.02297245 0.049528193
000300 70 35 bb bc bd d0 c7 bb 3e 6a 5b bd 9b 27 32 3b
       -0.02285263 -0.0060978816 -0.053568117 0.0027184251
000310 5a c7 c8 3c 22 12 f0 bb 5a dc 10 3d aa 76 9e 3b
       0.02450912 -0.0073263803 0.035366394 0.004835923
000320 4b 3d 06 3c 30 8c aa bc 21 72 0b bd 68 e3 e9 bc
       0.008193324 -0.0208188 -0.03404439 -0.028550819
000330 29 9c 57 bd 8c 37 84 bb a0 18 62 bd 22 96 36 bd
       -0.05263916 -0.004034942 -0.055199265 -0.04457677
000340 1d 2f 77 bd 98 20 80 bb 3b f3 5c 3c a1 4e 71 3d
       -0.060347665 -0.0039101355 0.013485725 0.058912877
000350 04 a8 9b 3c 3b 7a 2c 3d c5 96 98 3d b1 30 91 3d
       0.019001015 0.042108756 0.07450632 0.07089365
000360 b8 1a 9d bd ca aa 7f bd 8a 15 8a bd 7e 6a 80 3c
       -0.07671112 -0.062418737 -0.067423895 0.01567578
000370 cd 45 05 bc 6c ad bf bc 51 ba 7c bd 1a 0d d3 bd
       -0.008134318 -0.023398124 -0.061701123 -0.10305233
000380 6b b0 ee bd 12 30 6e bd df a0 c6 bd 4e f8 c3 bd
       -0.11654743 -0.058151312 -0.096986525 -0.09568845
000390 5d d3 ac bc 11 23 9b 3c d9 0d 52 bc 18 30 9f bc
       -0.02109688 0.01893762 -0.012820684 -0.019432113
0003a0 8b 21 86 bd 13 ae a3 bc 46 ac 3f bd 7c 7a 8f bd
       -0.065493666 -0.019980466 -0.046795152 -0.07005784
0003b0 79 90 d8 bc 54 ba 11 3b eb e5 4d 3d a3 e1 7a bd
       -0.026436077 0.0022236304 0.050268095 -0.06125034
0003c0 54 02 4d bd 27 61 33 bd 8b 71 96 bd 84 dc 09 b9
       -0.05005105 -0.043793824 -0.07345875 -0.00013147487
0003d0 d4 49 f5 bc f7 5f bd 3c c2 64 8e 3b 4d 67 a4 3b
       -0.02994243 0.023117049 0.0043455074 0.005017197
0003e0 4b ac 15 bd 3b 4d 42 3c 7c a1 9c 3d c1 f2 19 3d
       -0.036541265 0.0118592335 0.07647988 0.037585024
0003f0 87 a7 3b 3d bf a2 34 3c 7a 4d 11 3d 45 57 54 3d
       0.045814063 0.01102513 0.035474278 0.05184104

bn3.weight f4 [128]
000000 1d d9 98 3f 67 d3 93 3f c6 fd 91 3f 7d 2f 98 3f
       1.1941258 1.154889 1.140557 1.1889492
000010 f0 4c 8f 3f 94 87 96 3f 30 45 92 3f 79 53 98 3f
       1.1195354 1.1760125 1.1427364 1.1900474
000020 ca 20 91 3f 1e 3c 8b 3f e7 ac 97 3f fe 1a 8a 3f
       1.1338131 1.0877721 1.1849641 1.0789487
000030 dc f6 8c 3f 57 f4 93 3f 9a 57 89 3f 02 af 91 3f
       1.1012836 1.1558942 1.0729859 1.1381533
000040 d1 48 97 3f eb 55 93 3f a8 de a2 3f ad 67 94 3f
       1.1819097 1.1510595 1.2724199 1.1594139
000050 9b 85 8f 3f 76 67 95 3f 19 2c 8e 3f ca eb 92 3f
       1.1212648 1.1672199 1.1107208 1.1478207
000060 18 4e 93 3f 75 47 8e 3f db 71 93 3f 08 a4 94 3f
       1.1508207 1.1115557 1.1519121 1.1612558
000070 41 59 97 3f 0d a4 91 3f b0 fe 94 3f 60 35 8d 3f
       1.1824113 1.1378189 1.1640224 1.1031914
000080 a6 ab 8d 3f 8a 4a 98 3f 45 a1 8d 3f 42 e1 98 3f
       1.1068008 1.1897748 1.106484 1.1943743
000090 1a 24 91 3f 8e 0d 98 3f d4 34 8e 3f 50 02 99 3f
       1.1339142 1.1879137 1.1109872 1.1953831
0000a0 f4 0f 88 3f b7 53 90 3f 3a 24 8c 3f a9 60 92 3f
       1.0629869 1.1275548 1.0948555 1.1435748
0000b0 d8 2a 8c 3f e2 9d 8a 3f d2 4f 98 3f ad f5 96 3f
       1.0950575 1.0829432 1.1899359 1.1793724
0000c0 64 da 97 3f cb 71 88 3f d8 4c 95 3f 5c e4 97 3f
       1.1863523 1.0659727 1.1664076 1.1866565
0000d0 96 1f 9c 3f 2e a1 97 3f f2 c7 8b 3f 1b 2a 98 3f
       1.2197139 1.1846063 1.0920393 1.188785
0000e0 2a dc 9d 3f ee 3a 88 3f c7 83 8c 3f 84 bc 97 3f
       1.2332814 1.0642984 1.0977715 1.1854405
0000f0 90 fa 8b 3f 94 86 a2 3f f0 54 96 3f 4e ec 90 3f
       1.0935841 1.269732 1.1744671 1.1322114
000100 27 a6 92 3f 09 c2 99 3f 40 ae 8c 3f 7e 0e 98 3f
       1.1456956 1.201234 1.0990677 1.1879423
000110 19 8a 99 3f 25 f9 8d 3f f6 f8 8b 3f 17 47 95 3f
       1.1995269 1.1091658 1.0935352 1.166232
000120 f6 bd 91 3f 31 63 97 3f 05 8e 9a 3f ce 07 8d 3f
       1.1386096 1.1827146 1.2074591 1.1018007
000130 3a 93 99 3f 03 67 88 3f fa 09 91 3f d3 8e 8b 3f
       1.1998055 1.0656437 1.133117 1.0902961
000140 3d af 97 3f 5a 3b 98 3f 6c 91 94 3f 04 39 98 3f
       1.1850353 1.1893113 1.1606879 1.18924
000150 e5 9e 8c 3f 66 b3 95 3f 77 4c 8d 3f 85 8c 94 3f
       1.0985991 1.1695373 1.103896 1.1605383
000160 6b 97 96 3f cf fc 9c 3f 57 57 99 3f 66 d7 8a 3f
       1.1764959 1.2264651 1.1979779 1.0846984
000170 e9 10 97 3f 0a f4 9a 3f 4c de 8b 3f fb 5c 96 3f
       1.1802036 1.2105725 1.0927215 1.1747125
000180 62 08 9c 3f 7a 49 9c 3f 06 dc 95 3f f9 8d 87 3f
       1.2190058 1.2209923 1.1707771 1.0590202
000190 5c 77 96 3f e4 18 8b 3f 46 47 9c 3f fd 5b 9a 3f
       1.1755176 1.0866971 1.2209251 1.2059323
0001a0 17 77 9c 3f 59 a4 96 3f 36 46 95 3f a2 de 97 3f
       1.2223843 1.1768905 1.1662052 1.1864817
0001b0 20 31 8c 3f dd 3e 95 3f 6e 29 92 3f f9 31 8d 3f
       1.0952492 1.1659809 1.1418893 1.1030875
0001c0 9f 36 92 3f 77 4e 96 3f d1 cd 93 3f 42 0a 93 3f
       1.1422919 1.1742696 1.1547185 1.1487505
0001d0 0c 50 a1 3f c3 9e 90 3f 7b 89 8f 3f 8d b7 9a 3f
       1.2602553 1.129845 1.1213831 1.2087265
0001e0 0c 4f 8c 3f b3 91 8c 3f ee 91 96 3f 0e 22 90 3f
       1.0961623 1.0981964 1.1763284 1.1260393
0001f0 1f a2 97 3f e9 88 8d 3f 65 81 91 3f 04 b1 8b 3f
       1.184635 1.1057407 1.1367613 1.0913396

bn3.bias f4 [128]
000000 23 5b a6 3d 72 03 83 3c b0 e0 38 3d c3 f2 ec 3d
       0.08122852 0.015992854 0.045136154 0.115697406
000010 4e e5 75 3d 85 f2 a5 3d 3a a8 25 3d 3e 43 7f 3d
       0.060033135 0.081028976 0.040443636 0.062319987
000020 93 22 9f 3d 1f 1e a7 3c 3c e8 e4 3d dd 88 5f 3d
       0.077702664 0.020400105 0.11177108 0.054573882
000030 9d 1f 66 3d df 23 43 3d 88 83 4b b8 84 c0 37 3d
       0.056182493 0.04764163 -4.852147e-05 0.04486133
000040 6a 04 87 3d 14 57 c5 3d 94 0a b4 3d 2e 91 c5 3d
       0.06592639 0.096357495 0.0879108 0.096468315
000050 2c e6 89 3d 91 24 be 3d a8 6b 9b 3d f5 26 ba 3d
       0.06733355 0.09284318 0.07588893 0.09089462
000060 27 18 b1 3d b2 eb 7e 3d 60 c6 9a 3d 7e bc a2 3d
       0.08647185 0.062236495 0.07557368 0.07946108
000070 56 91 de 3d 2f 33 be 3d 23 8e bc 3d fa 7e d5 3c
       0.108675644 0.09287106 0.09206798 0.026061524
000080 dd d9 2e 3d 3c 02 e7 3d e4 a3 4a 3c a5 54 e2 3d
       0.04268824 0.11279723 0.012368176 0.11051301
000090 44 ba 5b 3d 86 67 02 3e c0 87 c3 3d 75 6c c2 3d
       0.053644434 0.12734804 0.09547377 0.09493343
0000a0 29 99 76 3d 8a 18 98 3d 92 84 0d 3d 52 45 b5 3d
       0.06020466 0.074265555 0.034550257 0.088511124
0000b0 e1 5f 14 3d 06 47 3f 3c 98 c3 e8 3c 0a 91 63 3d
       0.03622425 0.011674648 0.028413579 0.055558242
0000c0 3a a4 b1 3d 86 c9 52 3c 70 d2 6b 3d b9 6d d6 3d
       0.08673902 0.01286543 0.057573736 0.10470147
0000d0 be 34 dc 3d 42 b3 b6 3d 0b d4 69 3d bf e1 ea 3d
       0.10752247 0.089209095 0.057086986 0.11468839
0000e0 87 b6 ed 3d ff 16 6f 3d 3c e3 72 3d 42 8f b0 3d
       0.1160708 0.05837154 0.05929874 0.08621074
0000f0 b6 9a 8c 3d 44 44 13 3e 6c 69 c2 3d 7e 69 21 3d
       0.06865446 0.1438151 0.09492764 0.039407246
000100 fa 46 98 3d 53 0e f3 3d 5c 08 71 3d 05 10 ac 3d
       0.07435413 0.118679665 0.058845863 0.08401493
000110 1c 1a fb 3d 21 65 47 3d 0b 85 38 3c 4a fe c8 3d
       0.12260839 0.04868043 0.011262189 0.09814127
000120 57 0d 82 3d c6 92 ee 3c 49 52 aa 3d bf 72 ee 3c
       0.063502006 0.029122721 0.08316476 0.02910745
000130 46 67 e9 3d 65 1d 26 3c 0b 8d 1d 3d 5d 96 8d 3d
       0.11396651 0.010138844 0.038464587 0.06913445
000140 e8 89 9d 3d 7e 43 cd 3d b5 ac bc 3d da 20 9d 3d
       0.07692319 0.10022639 0.09212629 0.076722816
000150 bb cd 21 3d 4c 7b be 3d 4a bf 17 3d ba 0f a6 3d
       0.03950284 0.09300861 0.03704766 0.08108468
000160 17 9a a2 3d 5c b3 a6 3d 5a 4e ce 3d 0d fc 00 bd
       0.079395466 0.08139679 0.10073538 -0.031490374
000170 a8 80 e0 3d 85 71 80 3d 06 2b 2a 3d cc 39 f9 3d
       0.10962039 0.06271652 0.041544937 0.12169227
000180 35 03 b7 3d 61 07 ce 3d 5e 62 c8 3d 0b 9a 24 3c
       0.089361586 0.10060001 0.09784387 0.010046492
000190 36 7b c9 3d 0b 5f e0 3c fb 8c bf 3d 97 03 08 3e
       0.09837954 0.02738907 0.09353062 0.1328262
0001a0 a9 da c2 3d 06 3a 63 3d d4 b8 b1 3d f4 13 a9 3d
       0.09514362 0.055475257 0.08677831 0.08255759
0001b0 3f e1 0a 3d f6 40 84 3d f7 48 c1 3d af 5e 2e bb
       0.033906218 0.06457703 0.09437745 -0.0026606729
0001c0 f0 fb b3 3d 1e 71 d8 3d c4 dc d3 3d ab 43 9c 3d
       0.08788288 0.105684504 0.10344842 0.07630094
0001d0 0f c1 f6 3d ac 34 b9 3d 94 21 ac 3d e3 15 b5 3d
       0.12048542 0.090432495 0.08404842 0.08842065
0001e0 c0 51 07 3d e6 65 d0 3d a3 f5 f3 3d 1a 5d 86 3d
       0.033036947 0.101756856 0.11912086 0.065607265
0001f0 41 c7 f1 3d 60 c5 35 3d 12 c5 bc 3d 70 00 e0 3c
       0.11805583 0.044377685 0.09217276 0.027343959

bn3.running_mean f4 [128]
000000 32 9d 36 bf 26 b1 51 bf 7f 34 37 3c 4b 18 6d be
       -0.7133361 -0.8191093 0.01118195 -0.23153798
000010 38 cc 8a bf bf 0e d5 bd de 03 f6 be 89 76 93 be
       -1.0843573 -0.10403203 -0.48049825 -0.28801373
000020 28 9e b0 3e ad 37 d8 3e d5 f9 cd bd d2 79 11 3c
       0.34495664 0.42229977 -0.10057417 0.008879142
000030 86 11 d8 3e fe 5f 6a bf b5 a6 03 3f 74 60 10 bf
       0.4220087 -0.9155272 0.5142625 -0.56397176
000040 c2 c2 44 bf 25 d1 fe be 59 72 3a be b7 c8 39 bf
       -0.76859677 -0.4976894 -0.18207683 -0.7257189
000050 1e 91 75 bf 6a b7 ee 3e c5 54 f2 3d ab a9 e6 3e
       -0.95924556 0.4662431 0.11832575 0.4505132
000060 71 cf 92 bf 72 27 1f bf 52 27 3e bf cd 3d 26 3e
       -1.1469556 -0.62169564 -0.7427875 0.16234513
000070 1c 2e 33 3e e2 86 e8 be 56 7e bf 3e 6e 60 0b 3f
       0.17498058 -0.45415407 0.37401074 0.54444015
000080 87 62 c6 3e 88 34 ee be 8b 43 2c 3e 12 4d 51 3e
       0.38747045 -0.46524453 0.1682264 0.20439556
000090 a5 2b 70 bf 37 b4 1b 3f 2a 16 ce bd 27 cf 80 bf
       -0.93816596 0.6082186 -0.10062821 -1.0063218
0000a0 90 3a 35 3e 49 8d 33 bf fe 16 58 3e 91 0e 08 be
       0.17698121 -0.7013746 0.21102521 -0.13286807
0000b0 54 0a 74 bf 9e 31 10 3f 4d fb 0f bf 7d 64 eb 3e
       -0.9532826 0.5632571 -0.5624283 0.45975104
0000c0 bf ad 76 bf 01 9d 18 3e f2 58 49 bf 39 f3 55 3e
       -0.96358865 0.14903642 -0.78651345 0.20893563
0000d0 e8 c9 86 3d f9 e4 9c bf c8 32 98 3b 7e ab 38 3e
       0.06581479 -1.2257377 0.0046447255 0.18034169
0000e0 d4 b4 17 3b 17 b5 fd 3e af 31 71 bd 9b 10 08 bf
       0.0023148553 0.49552223 -0.058885273 -0.5315034
0000f0 af 11 19 bf 63 67 78 3e 37 29 8b 3e 18 47 61 bf
       -0.5979261 0.24258189 0.27179882 -0.87999105
000100 47 9d 70 3e e4 0a c9 bd 23 58 21 bf 1b b8 56 bf
       0.23497497 -0.0981653 -0.6302511 -0.8387467
000110 14 50 45 3e 51 ca 3e 3d 06 65 72 3f 1d 62 9b bf
       0.19268829 0.046579663 0.946854 -1.2139317
000120 d2 9b 64 bd 1d 19 c1 be 86 ec 62 bf fa d7 be be
       -0.055812664 -0.37714472 -0.88642156 -0.37274152
000130 36 32 a0 3d e6 a4 10 3f c0 b4 1a be 85 b9 ef 39
       0.07822077 0.56501615 -0.15108013 0.00045723855
000140 6e c0 4d bf 6c ae 8f bf f9 27 02 3e 90 23 9e be
       -0.8037175 -1.1225104 0.12710561 -0.30886507
000150 82 6c 3b 3f 25 94 df 3c 34 49 8f 3c dc 40 82 be
       0.73212445 0.02729232 0.01749096 -0.2544011
000160 df 6f ce be bb 57 9d bd 39 fe 51 3e 8e ab 47 3f
       -0.40319726 -0.07682749 0.20507134 0.77996147
000170 2d db a6 bd eb a3 4e bf c1 a0 72 3e d2 fd db 3e
       -0.08147273 -0.8071887 0.23694135 0.42967087
000180 f6 aa 2e be 4b b4 ed bd 7b f6 93 3d 0c 7d 09 3d
       -0.17057404 -0.11606654 0.07224747 0.03356652
000190 46 e3 2f 3e 7b 31 45 3e c4 0a 36 3e 2c 90 a6 bd
       0.17176542 0.19257157 0.17777544 -0.08132967
0001a0 01 be 27 be cb c8 3b bf 18 fd 07 bf 13 cb 3d be
       -0.16381074 -0.7335326 -0.53120565 -0.18534498
0001b0 b5 1f 4b bd e1 97 08 bd fe 4e 0c bf 29 c9 00 bf
       -0.049590785 -0.033347968 -0.5480803 -0.50306946
0001c0 ba c8 a1 be 2c e3 14 3f 88 10 18 be 9b 85 46 bf
       -0.31598455 0.58159137 -0.14850056 -0.77547616
0001d0 5c af a3 be fb 2d 22 3f 7d 9a 44 3f 2a 37 cb be
       -0.31969726 0.6335141 0.7679823 -0.39690524
0001e0 40 fd a0 bd 9b 31 c6 3e b2 07 6c be c7 1b 1c bf
       -0.078608036 0.3870972 -0.2304981 -0.60979885
0001f0 a0 e3 07 3e 88 e3 2f bf bd 5f 08 3f d2 e8 71 3f
       0.13270426 -0.6870656 0.53271085 0.9449588

bn3.running_var f4 [128]
000000 ed 18 dd 3d 98 dd db 3d a5 15 11 3e 86 0f 03 3e
       0.1079577 0.10735625 0.14168413 0.1279889
000010 98 28 25 3e 82 c1 12 3e 0d 77 ee 3d 10 4b 0f 3e
       0.16128767 0.1433163 0.11643801 0.13993478
000020 29 93 24 3e 4b 36 12 3e 61 77 09 3e c8 6c 33 3e
       0.16071762 0.14278524 0.13424446 0.17521966
000030 db c9 60 3e 60 4b d8 3d 94 46 2b 3e bb 81 ee 3d
       0.21952002 0.10561252 0.16726142 0.11645838
000040 32 fd dd 3d e3 9d 32 3e a3 1c 0d 3e 23 44 e2 3d
       0.10839309 0.17443042 0.13780455 0.11048152
000050 92 1e c0 3d 3e 81 1d 3e cb 12 42 3e cb 30 29 3e
       0.09380831 0.15381333 0.18952481 0.1652252
000060 c1 38 f2 3d 0e d4 08 3e 2c 4a d4 3d ca 78 c0 3e
       0.11827231 0.13362142 0.1036571 0.37592155
000070 e8 e3 0d 3e cf 39 46 3e 5e a0 06 3e 96 db 22 3e
       0.1385647 0.1935799 0.13147113 0.15904078
000080 be 63 24 3e e4 ac ee 3d 28 2e 1e 3e ee 8a 5a 3e
       0.16053674 0.1165407 0.15447295 0.2134206
000090 d8 8c e5 3d 3b fc 0c 3e 48 4e 55 3e 52 e3 d8 3d
       0.112085044 0.13768093 0.20830643 0.10590233
0000a0 c2 c3 5d 3e e4 55 25 3e c0 21 1d 3e 5b 55 58 3e
       0.21656707 0.16146046 0.15344906 0.2112631
0000b0 b2 c6 d7 3d bd ce 69 3e 43 35 ea 3d 88 69 0e 3e
       0.10535945 0.2283277 0.1143594 0.13907444
0000c0 1e c8 b2 3d e6 b6 1b 3e 8d 0d e5 3d d8 67 16 3e
       0.087295756 0.15206489 0.11184225 0.14688051
0000d0 01 8d e3 3d 9d 2e ee 3d 56 9f 00 3e 3c eb 02 3e
       0.11110879 0.116299845 0.12560782 0.12785047
0000e0 64 91 0f 3e d7 b6 63 3e 6c 87 ea 3d 2b 89 0b 3e
       0.14020306 0.22237717 0.11451611 0.13626544
0000f0 d6 54 01 3e ce e4 07 3e e9 a1 08 3e d2 c7 d2 3d
       0.12630019 0.13270876 0.13343014 0.10292019
000100 03 c9 83 3e 73 46 de 3d 81 c6 dd 3d cd ae bf 3d
       0.25739297 0.10853281 0.10828877 0.093595125
000110 15 91 0c 3e 77 b8 36 3e e9 75 74 3e fd 33 f8 3d
       0.1372722 0.17843805 0.23873104 0.12119291
000120 06 96 f4 3d f1 d3 f3 3d 77 f3 ea 3d 35 49 e7 3d
       0.11942677 0.11905659 0.114722185 0.1129326
000130 a7 14 f6 3d 67 ad 36 3e ac 9a 31 3e ab e7 2b 3e
       0.12015658 0.17839585 0.17344159 0.16787593
000140 5d 67 f5 3d 86 d6 c8 3d 3f 48 4e 3e 81 2d 0a 3e
       0.119826056 0.09806542 0.20144747 0.13493921
000150 b4 b9 38 3e bd 8c eb 3d 33 9f 03 3e 28 f5 c5 3d
       0.1803959 0.11501453 0.12853698 0.096659005
000160 24 7b 03 3e 69 e4 ea 3d 99 87 33 3e 40 8e 8a 3e
       0.12839943 0.11469347 0.17532195 0.27061653
000170 aa f0 06 3e bc 36 ec 3d 6e 92 1c 3e be 37 d1 3d
       0.13177744 0.11533877 0.15290233 0.1021571
000180 37 2d 2e 3e d2 2f 20 3e c3 95 29 3e 04 22 27 3e
       0.17009436 0.15643242 0.16561036 0.1632157
000190 44 cb 70 3e a3 02 2c 3e 87 a1 02 3e 9e 65 e6 3d
       0.2351504 0.16797881 0.1275693 0.11249851
0001a0 de ba 16 3e cf 72 c7 3d ba 61 c6 3d 4a 6d 14 3e
       0.14719722 0.09738695 0.096866086 0.14494815
0001b0 02 11 07 3e 02 65 08 3e 87 f5 11 3e de da 22 3e
       0.13190082 0.13319781 0.14253817 0.15903804
0001c0 c1 0d 2c 3e de 5b 36 3e 1d 7a de 3d e6 bb 02 3e
       0.16802122 0.17808482 0.10863135 0.1276699
0001d0 70 b6 24 3e 9f cb 48 3e 0a ea 6c 3e 5d 72 dc 3d
       0.1608522 0.19608925 0.23136154 0.107640006
0001e0 20 57 05 3e 53 61 8d 3e 26 9a f6 3d 93 c3 b7 3d
       0.13021517 0.27613315 0.1204112 0.0897285
0001f0 c7 32 16 3e 7e 4b 0b 3e 35 80 0f 3e 10 11 32 3e
       0.14667808 0.13603017 0.14013751 0.17389321
