runs/20260226_205508/best.pt (torch, 215157 bytes, 18 tensors)

conv1.weight f4 [32, 3, 7]
0.14590345 0.17859283 -0.028507283 0.17709453 -0.0450042 0.038448736 -0.1020889 0.19684389
0.21104869 -0.06299217 0.19471292 0.15561444 0.24382849 0.12348623 0.072146155 -0.055107985
0.1599145 0.048773967 -0.08675072 0.070671625 -0.07453659 0.019647192 -0.026951397 0.22586101
-0.13990633 -0.04640336 -0.0020274387 -0.0741762 0.0025269056 -0.2416871 0.21341425 -0.18820287
0.16231649 0.034073032 -0.068924166 0.10580073 0.051920217 0.19111484 0.016061889 -0.07410732
-0.0019384712 -0.049186863 0.11504192 0.21814197 0.15731055 -0.059826966 0.16015762 0.108293824
0.15911332 -0.118272394 -0.18350922 -0.053719327 -0.12787783 0.20930004 0.09593237 0.12441543
0.056166694 -0.003279841 0.16054948 -0.1524684 0.008219669 -0.1361417 0.060693335 -0.045248833
0.07872739 -0.027463388 0.19333534 -0.08864837 -0.081730776 -0.11493769 0.24332316 0.16240756
0.24218166 -0.15886617 -0.20962915 -0.15781401 -0.15917137 0.05079595 0.080366805 0.15167545
-0.12106657 -0.1515829 0.075531796 -0.10484382 0.14189297 -0.058172747 0.12873238 -0.1592737
-0.11853952 0.07007284 0.050054207 -0.03140252 0.18754944 0.20318893 -0.1866266 -0.13064466
0.23213422 -0.070121035 -0.086695224 -0.15785529 -0.04290866 0.07804635 -0.02521938 -0.11073565
0.019308772 -0.12219896 -0.17720896 -0.100025445 -0.16244486 -0.13592063 0.23158957 0.06778413
0.10700999 -0.19405335 -0.101669945 0.0047702533 0.09742536 -0.12855709 -0.040668596 -0.08134809
-0.016738418 -0.11251937 -0.1369544 -0.24314801 -0.23459393 -0.14141896 -0.065088846 -0.16000912
0.18711592 -0.046999574 0.19411229 0.0881077 -0.14349757 0.20209958 -0.016839849 -0.05659258
-0.18490398 -0.20208152 0.06243138 -0.049907908 0.041119125 -0.18626732 0.16885449 -0.12816927
0.028190883 0.11282993 0.20022696 0.16331029 0.20114973 -0.1386674 0.0791206 -0.10042386
-0.011921796 -0.15900794 0.19222328 -0.19473734 0.08468339 0.08891279 0.023792136 -0.24578573
0.15145841 0.009760102 0.0075805415 -0.15931016 0.10743812 0.016397683 -0.017705435 0.23329821
0.0871549 -0.094081864 -0.08534387 0.020901486 0.16738258 -0.010619572 -0.08551327 -0.09307297
-0.2157017 0.078067586 0.18697941 -0.19505347 0.1261192 0.09109175 0.02499528 -0.047039133
0.12252349 0.11077118 0.061644338 -0.042559773 -0.097263955 -0.017069906 -0.046914373 -0.069404475
0.12134713 0.16399768 -0.047565967 -0.07846222 0.030424353 0.065848194 0.07511294 0.052642286
-0.16000897 -0.052571654 0.18323429 0.09336064 0.020191025 -0.0941681 -0.23413031 -0.24328864
-0.09108415 0.02244757 0.118786894 0.10708449 -0.19743052 -0.15063784 -0.052249134 0.19118169
0.021667913 -0.024036212 0.11889355 -0.052947454 -0.13844734 0.19349755 -0.033926554 0.0599361
-0.12514968 0.23581019 0.24123478 0.12249632 -0.12630212 -0.189568 -0.15154345 0.12398585
0.09236882 0.18269871 0.122022584 0.04149418 -0.042114843 -0.20808691 -0.09199361 -0.1552689
0.0047963043 -0.062444817 -0.012692467 -0.09504237 -0.0018858406 -0.24616724 -0.24638884 0.045426182
-0.0793212 0.1266718 -0.05543107 -0.15892255 -0.015708089 -0.055391237 -0.03375105 -0.16638257
00000000: b767 153e 0ae1 363e 1b88 e9bc 4558 353e
00000010: 5356 38bd 6c7c 1d3d fc13 d1bd 7291 493e
00000020: 261d 583e 0a02 81bd d362 473e 6459 1f3e
00000030: 2dae 793e 59e6 fc3d 5dc1 933d e9b8 61bd
00000040: a0c0 233e 36c7 473d 5daa b1bd 49bc 903d
00000050: a4a6 98bd 26f3 a03c 2dc9 dcbc 1c48 673e
00000060: 9b43 0fbe 7311 3ebd c7de 04bb b1e9 97bd
00000070: 719a 253b d37c 77be 4489 5a3e 41b8 40be
00000080: 4b36 263e 2a90 0b3d 1d28 8dbd 0eae d83d
00000090: 4baa 543d 9cb3 433e 3994 833c 94c5 97bd
000000a0: 4d14 feba 2a78 49bd 199b eb3d 9c60 5f3e
000000b0: 0416 213e 1f0d 75bd 5c00 243e 27c9 dd3d
000000c0: 9aee 223e cc38 f2bd d7e9 3bbe cc08 5cbd
000000d0: 68f2 02be c052 563e 3178 c43d 84cd fe3d
000000e0: 0c0f 663d 9af2 56bb 1567 243e ad20 1cbe
000000f0: caab 063c bb68 0bbe 9399 783d d756 39bd
00000100: d33b a13d e6fa e0bc b3f9 453e 478d b5bd
00000110: 7762 a7bd 7464 ebbd b529 793e 2b4e 263e
00000120: 78fe 773e d0ad 22be 06a9 56be ff99 21be
00000130: d2fd 22be 6a0f 503d 5a97 a43d cf50 1b3e
00000140: c0f1 f7bd 8c38 1bbe 6ab0 9a3d 5bb8 d6bd
00000150: 644c 113e 8c46 6ebd 6cd2 033e a518 23be
00000160: d9c4 f2bd 5982 8f3d a405 4d3d ee9f 00bd
00000170: f60c 403e c210 503e 0b1b 3fbe b7c7 05be
00000180: 98b4 6d3e 9e9b 8fbd 448d b1bd d1a4 21be
00000190: fec0 2fbd c4d6 9f3d e098 cebc 5fc9 e2bd
000001a0: 6e2d 9e3c 7343 fabd 4476 35be 24da ccbd
000001b0: f257 26be c72e 0bbe d125 6d3e 68d2 8a3d
000001c0: 0e28 db3d ecb5 46be 5538 d0bd c94f 9c3b
000001d0: f286 c73d 78a4 03be 1d94 26bd d499 a6bd
000001e0: 021f 89bc 8e70 e6bd c63d 0cbe cbfb 78be
000001f0: 6439 70be 22d0 10be 4d4d 85bd 6ed9 23be
00000200: 519b 3f3e a082 40bd 5fc5 463e cf71 b43d
00000210: 07f1 12be 31f3 4e3e b9f3 89bc 9fcd 67bd
00000220: 7857 3dbe 75ee 4ebe 0cb8 7f3d 3c6c 4cbd
00000230: 876c 283d dcbc 3ebe 31e8 2c3e ce3e 03be
00000240: 91f0 e63c 6113 e73d 4c08 4d3e d03a 273e
00000250: 32fa 4d3e d4fe 0dbe fb09 a23d 06ab cdbd
00000260: a353 43bc fad2 22be 2ed6 443e 3a69 47be
00000270: 7c6e ad3d e917 b63d bae7 c23c 41af 7bbe
00000280: ea17 1b3e d6e8 1f3c 3166 f83b 3422 23be
00000290: 8408 dc3d 6f54 863c fd0a 91bc bae5 6e3e
000002a0: 457e b23d fead c0bd c4c8 aebd 9839 ab3c
000002b0: 5766 2b3e b7fd 2dbc 9521 afbd 0b9d bebd
000002c0: e8e0 5cbe e6e1 9f3d 8877 3f3e 19bc 47be
000002d0: 6425 013e 508e ba3d e7c2 cc3c 1bac 40bd
000002e0: 98ed fa3d 00dc e23d c67e 7c3d 2853 2ebd
000002f0: 5332 c7bd 30d6 8bbc 4929 40bd ef23 8ebd
00000300: d884 f83d 02ef 273e 88d4 42bd cdb0 a0bd
00000310: 7e3c f93c 6bdb 863d d0d4 993d 709f 573d
00000320: 64d9 23be 6055 57bd c5a1 3b3e dd33 bf3d
00000330: a667 a53c 34db c0bd dbbf 6fbe a820 79be
00000340: 548a babd f7e3 b73c 8b46 f33d 1d4f db3d
00000350: 3a2b 4abe ce40 1abe 3003 56bd 22c5 433e
00000360: e880 b13c 97e7 c4bc 767e f33d 6edf 58bd
00000370: 24c5 0dbe 3924 463e 92f6 0abd 8e7f 753d
00000380: 3d27 00be 3a78 713e 4006 773e 5adf fa3d
00000390: 5855 01be 1d1e 42be 352e 1bbe 4bec fd3d
000003a0: dd2b bd3d 5f15 3b3e fae6 f93d cdf5 293d
000003b0: 9d80 2cbd bc14 55be 2567 bcbd cffe 1ebe
000003c0: 512a 9d3b 23c6 7fbd 11f4 4fbc 93a5 c2bd
000003d0: 4f2e f7ba 4413 7cbe 5b4d 7cbe ce10 3a3d
000003e0: 2773 a2bd 41b6 013e b10b 63bd 98bc 22be
000003f0: 40ae 80bc ece1 62bd 8a3e 0abd 3160 2abe

bn1.weight f4 [32]
1.0772916 1.0023669 0.98514014 1.0687665 0.97641915 0.973423 1.0130571 1.024738
0.99335295 0.9764386 1.0443726 0.99386346 0.98729026 0.97741354 0.96788114 0.99292505
0.981886 0.96921676 0.97314006 1.0966663 0.9972938 0.9741165 1.0823003 1.0448464
1.0158193 1.0495936 1.0318948 0.9615658 1.0094815 0.8956058 1.0258029 1.0329009
00000000: b1e4 893f 8f4d 803f 2532 7c3f 57cd 883f
00000010: 9bf6 793f 4032 793f dbab 813f 9d2a 833f
00000020: 614c 7e3f e1f7 793f 00ae 853f d66d 7e3f
00000030: 0ebf 7c3f c637 7a3f 0fc7 773f 5630 7e3f
00000040: e25c 7b3f 971e 783f b51f 793f 905f 8c3f
00000050: a54e 7f3f b35f 793f d188 8a3f 87bd 853f
00000060: 5e06 823f 1559 863f 2115 843f 2d29 763f
00000070: b136 813f 6c46 653f 824d 833f 1936 843f

bn1.bias f4 [32]
-0.0018633063 -0.009930615 -0.018917227 0.0053335624 -0.0004875145 0.007776298 0.008841952 -0.013739301
-0.09442363 -0.05521891 0.024757186 -0.07962044 0.0140536 0.0048409863 -0.05054475 0.01674005
-0.023472816 -0.0328212 -0.01088659 0.0021263054 -0.038454726 0.042107593 -0.024204956 0.07430432
0.030546594 0.041564498 0.051401105 -0.036045797 6.4395885e-05 -0.055094324 0.029843276 -0.010685573
00000000: 2f3a f4ba 05b4 22bc 4df8 9abc 2ac5 ae3b
00000010: 1799 ffb9 51d0 fe3b d6dd 103c ce1a 61bc
00000020: 2d61 c1bd 392d 62bd 95cf ca3c 0b10 a3bd
00000030: 1241 663c 23a1 9e3b 0308 4fbd 6e22 893c
00000040: 104a c0bc 866f 06bd ab5d 32bc 7c59 0b3b
00000050: b482 1dbd 0379 2c3d 7949 c6bc dd2c 983d
00000060: da3c fa3c 893f 2a3d f789 523d c2a4 13bd
00000070: 470c 8738 96aa 61bd e379 f43c 8b12 2fbc

bn1.running_mean f4 [32]
0.00883404 -0.0018967941 -0.0016396693 0.00032227742 0.0039120778 0.003684443 -0.004071145 -9.03592e-05
-0.0012595002 0.0047401795 0.0009779244 -0.0007113827 0.00777524 -0.0043248106 -0.0052863224 -0.0014197709
-0.007620212 0.0023621055 -0.0024735548 2.863463e-05 4.8623202e-05 -0.0023310152 0.006288017 -0.00010533702
-0.010563517 -0.0006339908 0.0065379883 0.00091259053 0.0015258327 -1.8488696e-05 0.0006755075 -2.6439753e-05
00000000: a6bc 103c d99d f8ba 2cea d6ba 58f7 a839
00000010: e330 803b b276 713b 3d67 85bb 3a7f bdb8
00000020: d015 a5ba 8253 9b3b b32d 803a 167c 3aba
00000030: 71c7 fe3b 24b7 8dbb e338 adbb 9b17 baba
00000040: f9b2 f9bb 8ecd 1a3b 5d1b 22bb 6634 f037
00000050: c4f0 4b38 f2c3 18bb b60b ce3b 62e8 dcb8
00000060: 9a12 2dbc 6732 26ba 9f3c d63b ea3a 6f3a
00000070: 73fe c73a 2c18 9bb7 8a14 313a f0ca ddb7

bn1.running_var f4 [32]
0.5714854 0.17794505 0.5925004 0.5082177 0.22711247 0.57341206 0.37795246 0.24645253
0.21164997 0.31969753 0.35944036 0.4654856 0.45612943 0.43637416 0.33699486 0.49300683
0.43933898 0.3207183 0.24065459 0.23570116 0.21852694 0.31301364 0.487386 0.28433323
0.48207605 0.26317006 0.54644954 0.4840025 0.2844449 0.20915768 0.40703145 0.17779237
00000000: de4c 123f 3a37 363e 1bae 173f 8e1a 023f
00000010: 2c90 683e 22cb 123f fc82 c13e 0d5e 7c3e
00000020: c5ba 583e 65af a33e 9108 b83e 2154 ee3e
00000030: cc89 e93e 6f6c df3e 978a ac3e 646b fc3e
00000040: 0af1 e03e 3035 a43e 286e 763e a55b 713e
00000050: 87c5 5f3e 5343 a03e a88a f93e 2094 913e
00000060: acd2 f63e 3abe 863e 1ee4 0b3f 2dcf f73e
00000070: c3a2 913e 6e2d 563e 6d66 d03e 340f 363e

conv2.weight f4 [64, 32, 5]
0.075194195 -0.0044072447 -0.039644826 0.053545624 -0.065028474 -0.0028005738 -0.07418214 0.016167821
0.071332395 -0.009038951 -0.022320159 0.0386572 -0.005262787 0.11486846 -0.027626785 -0.025217079
-0.10279752 -0.030048933 0.060327087 0.10645101 0.017814204 0.10943177 -0.015008285 0.02669263
0.054321647 0.08269924 -0.020888887 0.07794704 0.023816915 -0.045141116 0.006950388 -0.060200803
0.02878864 -0.06347691 -0.038538907 -0.028830389 -0.030435534 -0.020812476 0.014900955 0.06530114
0.047581356 -0.10160282 0.1050425 0.0977591 0.01533455 -0.045989644 -0.0095495805 0.027932536
-0.037583582 0.0042672185 0.024525674 0.06910672 -0.029151991 0.018033499 0.020617362 -0.12191643
-0.12270964 -0.08737379 0.0645524 -0.07272196 -0.09963662 0.021266365 0.06160666 0.082625166
-0.06345257 -0.021325147 0.027630033 0.03659629 0.02978115 0.009748235 0.023480605 0.081065536
-0.07737543 -0.043076687 0.007989138 -0.050294187 -0.06622556 0.014231051 0.019886369 0.0299533
-0.05597114 0.013891964 0.075368516 -0.0580655 -0.01435589 -0.02695012 -0.09605301 0.043015387
-0.020597333 -0.06185068 0.03797272 -0.05058146 -0.06800635 0.024958435 0.033645175 -0.07103871
-0.047092006 0.068099186 0.022967651 0.06633124 -0.101253875 -0.055804446 -0.022339508 -0.028467683
-0.057310022 0.0065698656 -0.009239442 -0.0008501256 0.0021703723 -0.040497467 0.034262244 0.026526153
-0.06742937 -0.09509568 0.033836875 0.03363692 -0.0602454 0.06576113 -0.042144332 0.02941065
0.051135138 -0.062580936 0.043474995 -0.1267064 -0.045402385 0.024815198 -0.098663904 0.06618061
-0.020458844 0.025931519 -0.0076682633 0.043116864 -0.032259624 -0.058556043 0.025726315 0.035342637
0.05792367 -0.05651329 -0.07091881 -0.016220493 -0.01368243 0.006233878 0.046394564 -0.032395907
0.031222995 -0.0007061809 -0.028844729 0.039518077 0.0015801829 0.056544017 -0.068058625 -0.07165555
-0.02338924 -0.0035312437 0.035075974 -0.025550919 0.0740852 0.029456774 0.0514105 0.012729522
-0.12192974 -0.104298145 -0.10331915 -0.046905197 -0.12260147 0.016856907 -0.0014908594 -0.04753647
0.009614684 -0.08949474 -0.06458721 -0.063537575 -0.0015377129 -0.035481937 0.027057342 -0.045079958
-0.00945803 0.044615738 -0.005574778 -0.103206106 -0.052840404 0.076963395 -0.03793759 0.046891328
0.0569207 0.024909709 0.06558927 0.06434581 -0.00053928635 -0.084642254 0.05276281 -0.050403934
-0.06719413 0.0685534 0.059224214 0.00879808 -0.07049248 -0.04712932 -0.0071711303 0.08835373
0.05586022 0.0033243634 -0.038338862 0.0008146863 0.039871633 0.0008102173 0.02556411 -0.026700191
-0.007889258 0.0058536143 -0.024236826 0.05278088 0.043505512 0.04205134 0.027847914 -0.048807576
-0.10395309 -0.015396285 -0.0008719282 0.00041257788 -0.026382249 0.009070521 0.08209137 0.05619022
-0.01723879 -0.032836024 -0.02832676 -0.05496087 0.045560826 0.029186998 0.053448077 -0.029724026
-0.0011906711 0.009764852 -0.09086341 -0.0061338814 -0.011416366 -0.063818015 -0.08841352 0.02872301
0.06903999 0.010851738 0.043572042 -0.046478234 -0.040860843 0.04546653 -0.029528556 -0.016017443
-0.064266786 0.027710166 -0.052346393 -0.032523848 0.082256906 -0.007745789 0.00026188823 0.070506826
00000000: 6aff 993d a66a 90bb 9d62 22bd a852 5b3d
00000010: a62d 85bd d589 37bb ceec 97bd 6172 843c
00000020: b816 923d 1c18 14bc c4d8 b6bc 0357 1e3d
00000030: 7573 acbb 2840 eb3d 9151 e2bc 0c94 cebc
00000040: 8287 d2bd 2e29 f6bc 8919 773d fd02 da3d
00000050: 18ef 913c c41d e03d 4fe5 75bc 81aa da3c
00000060: 6080 5e3d 385e a93d 2c1f abbc b3a2 9f3d
00000070: b11b c33c e4e5 38bd 15c0 e33b 1e95 76bd
00000080: 27d6 eb3c 2f00 82bd f9da 1dbd b52d ecbc
00000090: f153 f9bc ed7e aabc 2323 743c 9bbc 853d
000000a0: abe4 423d 2415 d0bd 8620 d73d ec35 c83d
000000b0: c43d 7b3c a35f 3cbd d875 1cbc c6d2 e43c
000000c0: 3ef1 19bd 06d4 8b3b 11ea c83c d387 8d3d
000000d0: 28d0 eebc fdba 933c bee5 a83c 52af f9bd
000000e0: 314f fbbd 08f1 b2bd 0c34 843d 40ef 94bd
000000f0: 490e ccbd cd36 ae3c 4457 7c3d 6237 a93d
00000100: 6cf3 81bd 13b2 aebc 6158 e23c fee5 153d
00000110: 99f7 f33c 10b7 1f3c 665a c03c b005 a63d
00000120: 0277 9ebd 2e71 30bd e0e4 023c 4701 4ebd
00000130: 44a1 87bd 5b29 693c bde8 a23c 9f60 f53c
00000140: fe41 65bd 1f9b 633c cf5a 9a3d 17d6 6dbd
00000150: f834 6bbc 80c6 dcbc 71b7 c4bd e730 303d
00000160: bdbb a8bc 2357 7dbd 4889 1b3d 812e 4fbd
00000170: ea46 8bbd a275 cc3c 86cf 093d be7c 91bd
00000180: 8ce3 40bd 9677 8b3d a826 bc3c acd8 873d
00000190: 315e cfbd 3493 64bd 5801 b7bc 0f35 e9bc
000001a0: eabd 6abd 0748 d73b 0761 17bc f7da 5eba
000001b0: ce3c 0e3b ace0 25bd 9156 0c3d 604d d93c
000001c0: 6918 8abd 86c1 c2bd 8998 0a3d dec6 093d
000001d0: e1c3 76bd c5ad 863d 899f 2cbd 9aee f03c
000001e0: 1473 513d 6f2a 80bd d612 323d 53bf 01be
000001f0: daf7 39bd 3e49 cb3c 4d10 cabd b389 873d
00000200: 4e99 a7bc 566e d43c 0e46 fbbb 4f9b 303d
00000210: ab22 04bd 76d8 6fbd febf d23c 71c3 103d
00000220: 5f41 6d3d 7b7a 67bd e23d 91bd d7e0 84bc
00000230: 452c 60bc 8f45 cc3b 3a08 3e3d 92b1 04bd
00000240: 5ec7 ff3c ff1e 39ba c84b ecbc b5dd 213d
00000250: 241e cf3a b39a 673d 5262 8bbd 25c0 92bd
00000260: cb9a bfbc 706c 67bb d3ab 0f3d 2950 d1bc
00000270: fbb9 973d 554f f13c d193 523d 7c8f 503c
00000280: 4db6 f9bd 449a d5bd fe98 d3bd aa1f 40bd
00000290: 7b16 fbbd 7f17 8a3c f168 c3ba 9ab5 42bd
000002a0: e886 1d3c 0549 b7bd 4d46 84bd fd1f 82bd
000002b0: 158d c9ba 8255 11bd 5ca7 dd3c c3a5 38bd
000002c0: daf5 1abc febe 363d a1ac b6bb b95d d3bd
000002d0: 2e6f 58bd fc9e 9d3d 7264 1bbd 1f11 403d
000002e0: ae25 693d 720f cc3c ab53 863d bcc7 833d
000002f0: e55e 0dba eb58 adbd d11d 583d 5b74 4ebd
00000300: 139d 89bd ba65 8c3d 1795 723d d225 103c
00000310: 5d5e 90bd ad0a 41bd cdfb eabb cdf2 b43d
00000320: b0cd 643d 90dd 593b 3609 1dbd ac90 553a
00000330: 7050 233d c364 543a d36b d13c 5cba dabc
00000340: f241 01bc adcf bf3b 4f8c c6bc c430 583d
00000350: d632 323d 073e 2c3d 4f21 e43c 74ea 47bd
00000360: 5ce5 d4bd b340 7cbc 1c92 64ba 444f d839
00000370: 961f d8bc 869c 143c 851f a83d b727 663d
00000380: 5d38 8dbc 117f 06bd 850d e8bc a61e 61bd
00000390: fd9d 3a3d 9219 ef3c 5fec 5a3d cd7f f3bc
000003a0: 4b10 9cba c2fc 1f3c 9816 babd bafe c8bb
000003b0: b60b 3bbc 05b3 82bd 2612 b5bd 854c eb3c
000003c0: d764 8d3d 7dcb 313c 9978 323d f65f 3ebd
000003d0: b35d 27bd 1d3b 3a3d dfe5 f1bc 0337 83bc
000003e0: 4e9e 83bd 6e00 e33c 2c69 56bd ba37 05bd
000003f0: 4f76 a83d 63d0 fdbb 0b4e 8939 e265 903d

bn2.weight f4 [64]
0.9167914 0.98253655 0.9516278 0.95050037 1.0164604 0.95646673 0.9762273 0.9945927
0.9408946 0.95669997 1.0458165 1.0936172 0.9964524 1.0008334 0.9459045 0.98018396
1.0287126 0.98449403 0.9939242 0.98675656 0.9617576 0.98928183 1.0078254 0.9977773
1.0444623 1.0241698 1.0566806 0.9200383 0.98611027 1.0075898 1.0294893 0.96440345
0.943721 1.0021664 0.99304557 0.99541897 0.9936616 0.9602202 0.9724098 1.0156546
1.0120773 1.0099106 0.9880095 1.0320345 1.0230923 0.9825106 0.9406833 0.99122316
0.96134937 1.0111324 1.006887 0.9922061 0.9989019 0.9934402 1.0599523 0.9921508
1.0521644 1.001625 1.0453708 0.96201843 1.0340648 0.9814703 0.98603064 1.0507505
00000000: d7b2 6a3f 8487 7b3f e19d 733f fe53 733f
00000010: 601b 823f 01db 743f 08ea 793f a19d 7e3f
00000020: 78de 703f 4aea 743f 51dd 853f a6fb 8b3f
00000030: 8117 7f3f 4f1b 803f cc26 723f 56ed 7a3f
00000040: dbac 833f cd07 7c3f d171 7e3f 149c 7c3f
00000050: bf35 763f 9341 7d3f 6c00 813f 556e 7f3f
00000060: f1b0 853f ff17 833f 4f41 873f a187 6b3f
00000070: b971 7c3f b4f8 803f 4ec6 833f 25e3 763f
00000080: b397 713f fd46 803f 3c38 7e3f c7d3 7e3f
00000090: 9b60 7e3f fed0 753f d9ef 783f f800 823f
000000a0: c08b 813f c044 813f 31ee 7c3f b519 843f
000000b0: b0f4 823f d185 7b3f 9fd0 703f cdc0 7d3f
000000c0: fe1a 763f c96c 813f ace1 803f 3801 7e3f
000000d0: 09b8 7f3f 1952 7e3f 84ac 873f 98fd 7d3f
000000e0: 53ad 863f 3f35 803f b6ce 853f d746 763f
000000f0: 3c5c 843f a341 7b3f 816c 7c3f fe7e 863f

bn2.bias f4 [64]
-0.06825671 -0.1026758 -0.11946661 -0.0633358 -0.12872769 -0.018451864 -0.056689255 -0.09953468
-0.07279833 -0.08756291 -0.07634541 -0.07428173 -0.033402223 -0.11156034 -0.038351752 -0.073826276
-0.07169836 -0.056468323 -0.06444096 -0.06606604 -0.06641311 -0.0726205 -0.0020919726 -0.10248064
-0.14874306 -0.056989875 -0.023325043 -0.013870304 -0.052250493 -0.02220224 -0.022480456 -0.025160033
-0.08257749 -0.06586998 -0.0838943 -0.093936116 0.035189956 -0.05074982 -0.088755056 -0.099788256
-0.09259358 -0.0058606872 -0.051653367 -0.09348789 -0.10700373 -0.051204275 -0.0415039 -0.015860146
-0.059060324 -0.13999493 -0.068325356 -0.0777629 -0.078885645 -0.042430583 -0.11467695 -0.040292207
-0.065915845 -0.07899595 -0.15566285 -0.13133231 -0.024461612 -0.05474607 -0.026167216 -0.07918162
00000000: 2dca 8bbd b147 d2bd e9aa f4bd 33b6 81bd
00000010: 31d1 03be 5d28 97bc fe32 68bd d7d8 cbbd
00000020: 4a17 95bd 2f54 b3bd fb5a 9cbd 0521 98bd
00000030: c5d0 08bd bf79 e4bd ba16 1dbd 3b32 97bd
00000040: 97d6 92bd 544b 67bd 9ff9 83bd a24d 87bd
00000050: 9903 88bd 0fba 94bd 7a19 09bb 5fe1 d1bd
00000060: 1a50 18be 376e 69bd 2914 bfbc 4640 63bc
00000070: 9d04 56bd 79e1 b5bc ef28 b8bc 6a1c cebc
00000080: 631e a9bd d7e6 86bd c6d0 abbd 9461 c0bd
00000090: 5823 103d 0bdf 4fbd 36c5 b5bd c95d ccbd
000000a0: b4a1 bdbd 020b c0bb 7b92 53bd 9476 bfbd
000000b0: c624 dbbd 93bb 51bd feff 29bd 23ed 81bc
000000c0: 3de9 71bd d55a 0fbe 2aee 8bbd 2842 9fbd
000000d0: cc8e a1bd b1cb 2dbd c0db eabd 7109 25bd
000000e0: e3fe 86bd a1c8 a1bd 1566 1fbe fa7b 06be
000000f0: b863 c8bc 6a3d 60bd a15c d6bc f929 a2bd

bn2.running_mean f4 [64]
-0.11961465 -0.4816836 -0.18307002 0.6076344 -0.6106157 0.28396058 -0.4149108 -0.23084182
-0.035106298 -0.2387272 -0.115727276 -0.43897504 0.3006951 -0.5940855 0.4364767 -0.56100184
-0.99989474 -0.6272464 -0.9326491 -0.19364053 -0.19134241 -0.39119884 0.42831272 -0.8075337
0.048157252 -0.47731742 -0.2187369 0.6450641 -0.7624817 -0.27884147 -0.07650902 0.46850416
-0.52964985 -0.41100112 -0.6483871 0.024829747 0.9025807 -0.66323316 -0.60638887 -0.38949963
-0.6901968 -0.19764605 -0.79328364 -0.6846918 -0.6132179 -0.43980217 0.113020435 0.19058482
-0.44044307 -0.6191295 0.50869364 -0.36395243 -0.69212043 0.06882996 -0.5483466 0.37722245
-0.49293914 -0.8720313 -0.50829095 0.40163112 -0.5598272 -0.2859309 -0.27947718 -0.44293395
00000000: 87f8 f4bd 3c9f f6be b576 3bbe ee8d 1b3f
00000010: 4f51 1cbf 4863 913e 306f d4be cc61 6cbe
00000020: 9fcb 0fbd e774 74be 6c02 edbd 56c1 e0be
00000030: b5f4 993e fd15 18bf e079 df3e d19d 0fbf
00000040: 1af9 7fbf 3893 20bf 17c2 6ebf b449 46be
00000050: 44ef 43be 374b c8be ce4b db3e 87ba 4ebf
00000060: 8a40 453d f362 f4be 91fc 5fbe ec22 253f
00000070: 0032 43bf 4fc4 8ebe c3b0 9cbd c7df ef3e
00000080: 2297 07bf bd6e d2be b2fc 25bf c167 cb3c
00000090: 870f 673f a6c9 29bf 4d3c 1bbf 7f6c c7be
000000a0: bdb0 30bf ba63 4abe a314 4bbf f647 2fbf
000000b0: d9fb 1cbf c02d e1be 4277 e73d ab28 433e
000000c0: c181 e1be 457f 1ebf bf39 023f f957 babe
000000d0: ce2e 31bf b9f6 8c3d 7160 0cbf 4d23 c13e
000000e0: 8562 fcbe 713d 5fbf 5b1f 02bf 98a2 cd3e
000000f0: d650 0fbf 8965 92be a217 8fbe 3dc8 e2be

bn2.running_var f4 [64]
0.21680939 0.15558386 0.19295904 0.2179443 0.21387503 0.23910885 0.24326041 0.2533488
0.22558305 0.2111518 0.4564595 0.28025267 0.25882623 0.2576734 0.2786328 0.3114067
0.46654007 0.39270902 0.27634534 0.15829146 0.27655676 0.28341588 0.20338923 0.5099243
0.18763666 0.35493848 0.28999308 0.2983781 0.47037423 0.25774994 0.24770655 0.37890977
0.22583497 0.20815884 0.35577905 0.27798447 0.3785478 0.42148668 0.3198827 0.31765667
0.2872772 0.5519289 0.34407043 0.26692957 0.30154595 0.22309464 0.4406672 0.23299845
0.25350836 0.21300986 0.18461774 0.3070118 0.3768315 0.44124922 0.32772368 0.2467778
0.2945596 0.31182504 0.17619516 0.2987787 0.35325953 0.2746225 0.2630954 0.21663855
00000000: 4803 5e3e 6051 1f3e 0e97 453e ca2c 5f3e
00000010: 0e02 5b3e f3d8 743e 4219 793e efb6 813e
00000020: 3eff 663e 2d38 583e 0fb5 e93e 477d 8f3e
00000030: df84 843e c5ed 833e f5a8 8e3e b370 9f3e
00000040: 57de ee3e 2811 c93e 237d 8d3e 2817 223e
00000050: d998 8d3e e31b 913e 4445 503e 668a 023f
00000060: d323 403e 7fba b53e f979 943e 04c5 983e
00000070: e4d4 f03e cdf7 833e c9a6 7d3e 7600 c23e
00000080: 4841 673e 9727 553e ac28 b63e fb53 8e3e
00000090: 04d1 c13e 1acd d73e aac7 a33e e5a3 a23e
000000a0: ff15 933e 364b 0d3f 002a b03e feaa 883e
000000b0: 3b64 9a3e ec72 643e 229f e13e 2597 6e3e
000000c0: d9cb 813e 421f 5a3e 6f0c 3d3e a730 9d3e
000000d0: 0ff0 c03e 6beb e13e 66cb a73e 52b3 7c3e
000000e0: 84d0 963e 88a7 9f3e 816c 343e 86f9 983e
000000f0: 6fde b43e 529b 8c3e 71b4 863e 7fd6 5d3e

conv3.weight f4 [128, 64, 3]
0.009653226 0.04218526 -0.0510226 0.038635533 0.06864067 -0.016217956 -0.016014846 -0.054994535
-0.043977484 0.023159973 0.0029576686 -0.010167063 -0.083507895 -0.043039918 -0.09924111 -0.060741495
-0.08591485 -0.039552156 0.010487633 0.030409638 -0.058493916 0.089602076 0.093685314 0.09233272
-0.060750086 -0.07502292 -0.050087817 0.084006116 0.08340482 0.042096887 -0.1119576 -0.055187386
-0.107188866 -0.015577367 -0.11559158 -0.069245785 -0.0063512195 -0.0017109686 0.009320197 0.03136526
-0.04572371 -0.06640475 -0.049480826 0.009202082 -0.093066245 0.043703154 0.05709406 0.009246526
-0.025681332 -0.030481616 -0.112574995 0.043946873 -0.014889708 0.059196614 -0.03623482 0.034199394
-0.042055815 -0.013183653 0.0675604 0.025076734 0.025077013 0.027810939 0.026288506 0.028669922
-0.04397005 -0.036462534 -0.101404786 -0.09466811 -0.10102653 0.02351553 -0.0022701672 -0.011080171
-0.045278136 -0.010071533 -0.050063938 -0.051866945 -0.051062927 -0.055179585 0.043214276 -0.012666703
0.040575143 -0.037955504 -0.032775216 -0.04305124 0.04564436 -0.033317 0.019160962 0.0079332655
0.010383049 -0.023785403 0.010216496 0.10585222 0.07397621 -0.03893133 0.056737486 0.05775025
-0.0654987 -0.025110887 -0.066665195 0.095311105 0.002062624 -0.0034424164 -0.011275688 -0.020934764
-0.04691282 -0.024645675 0.0117894225 0.012913955 -0.116547085 -0.059958868 -0.05746618 -0.0017300284
-0.039725713 0.032340053 -0.05998934 0.018335942 -0.039709676 -0.08469308 -0.01879288 -0.045768842
0.013952981 -0.046872452 -0.024904933 0.003776507 -0.08147909 -0.06888103 0.009113009 0.0026917262
-0.02150917 0.04772286 0.01773285 0.0038654942 -0.008486794 0.088090114 -0.03291193 -0.069445774
-0.09025713 -0.07061865 -0.015159115 0.0014540007 -0.015134924 0.023689648 0.047248844 0.008435805
-0.02214354 0.013127462 0.05746147 0.07049076 0.022820693 0.076067224 0.017223561 0.037398618
-0.0002649515 0.04045586 0.010476234 -0.027317438 0.058599643 0.022142468 0.026304308 -0.0340987
-0.060859814 -0.09939906 0.009216528 -0.04943303 -0.014151572 0.02207818 0.043065805 0.012544328
-0.05706569 -0.09443156 -0.06576482 -0.076063685 -0.087313876 -0.100216664 -0.043335956 -0.049374904
-0.04252471 0.072852254 0.039893795 0.08983385 0.046678863 -0.06158078 0.021662073 -0.018698765
0.052523248 0.0619571 0.013452887 -0.0023134362 0.043735072 -0.06643067 -0.015514231 0.053361256
-0.042152777 -0.037077546 -0.069924876 -0.0069926465 0.023876015 -0.029817782 0.01615013 -0.021280449
0.0026514353 -0.01571578 -0.031064007 -0.01812965 -0.043586805 -0.0039074733 -0.049009558 -0.03192803
-0.055451263 0.016338738 -0.0113999285 0.03651565 -0.0012843139 0.0072720065 0.059998013 0.039843295
-0.05157722 -0.05929005 -0.032536022 0.00047715683 -0.004976039 -0.039360907 -0.07630115 -0.10030752
-0.10672371 -0.051308762 -0.11163333 -0.10047066 -0.015838627 0.02022378 -0.0039884523 -0.016776228
-0.071343414 -0.043789685 -0.047285486 -0.07438847 -0.02775195 -0.009861361 0.023558728 -0.0548409
-0.041399095 -0.041927055 -0.057257473 -0.0015273452 -0.041514844 0.012385758 0.013303248 0.00342415
-0.05447427 0.013097163 0.06644052 0.0297515 0.0406411 0.012924907 0.038922846 0.01018599
00000000: 9028 1e3c 74ca 2c3d 13fd 50bd 4b40 1e3d
00000010: 7b93 8c3d 85db 84bc 9131 83bc f341 61bd
00000020: bc21 34bd fcb9 bd3c 72d5 413b c193 26bc
00000030: 3006 abbd a04a 30bd ec3e cbbd 13cc 78bd
00000040: 20f4 afbd 7101 22bd 52d4 2b3c a21d f93c
00000050: 5197 6fbd 4b81 b73d 16de bf3d f018 bd3d
00000060: 15d5 78bd 9ea5 99bd e228 4dbd 660b ac3d
00000070: 25d0 aa3d c96d 2c3d 074a e5bd 2b0c 62bd
00000080: d685 dbbd 3638 7fbc 47bb ecbd bcd0 8dbd
00000090: e41d d0bb 9442 e0ba bdb3 183c dc78 003d
000000a0: c948 3bbd 37ff 87bd 68ac 4abd 54c4 163c
000000b0: 8499 bebd 1402 333d 76db 693d be7e 173c
000000c0: a861 d2bc 95b4 f9bc b88d e6bd a301 343d
000000d0: f6f3 73bc 2678 723d f66a 14bd aa14 0c3d
000000e0: b842 2cbd 4000 58bc 1b5d 8a3d b96d cd3c
000000f0: 4f6e cd3c c4d3 e33c fe5a d73c 2fdd ea3c
00000100: f019 34bd bd59 15bd 50ad cfbd 5be1 c1bd
00000110: ffe6 cebd a4a3 c03c 16c7 14bb 9b89 35bc
00000120: 9175 39bd 1203 25bc d80f 4dbd 6f72 54bd
00000130: 5c27 51bd fd03 62bd 7401 313d 0188 4fbc
00000140: 1f32 263d 3b77 1bbd 4e3f 06bd 7f56 30bd
00000150: 95f5 3a3d 6877 08bd 73f7 9c3c 87fa 013c
00000160: aa1d 2a3c 9bd9 c2bc 1763 273c 0cc9 d83d
00000170: d780 973d 7576 1fbd 9165 683d 878b 6c3d
00000180: 2f24 86bd 59b5 cdbc c387 88bd 7832 c33d
00000190: 172d 073b 2a9a 61bb aabd 38bc 627f abbc
000001a0: a827 40bd bae5 c9bc 6c28 413c 0e95 533c
000001b0: 3db0 eebd 6e97 75bd a861 6bbd 1fc2 e2ba
000001c0: 6eb7 22bd 0177 043d 62b7 75bd 4235 963c
000001d0: 9da6 22bd 9173 adbd 87f3 99bc 1c78 3bbd
000001e0: 0b9b 643c 54fd 3fbd 6e05 ccbc 467f 773b
000001f0: 82de a6bd 7f11 8dbd bb4e 153c ac67 303b
00000200: 0034 b0bc 0c79 433d 7b44 913c 3b54 7d3b
00000210: 320c 0bbc 9768 b43d a9ce 06bd 9639 8ebd
00000220: bbd8 b8bd 83a0 90bd f05d 78bc 2b94 be3a
00000230: 79f8 77bc cb10 c23c 0188 413d 5536 0a3c
00000240: 5f66 b5bc 9114 573c b85c 6b3d 765d 903d
00000250: 76f2 ba3c 22c9 9b3d 6d18 8d3c 4b2f 193d
00000260: 30e9 8ab9 0bb5 253d 83a4 2b3c d2c8 dfbc
00000270: 2e06 703d 1f64 b53c 227c d73c 14ab 0bbd
00000280: 2448 79bd bc91 cbbd ec00 173c 4a7a 4abd
00000290: ffdb 67bc 4ddd b43c c565 303d ba86 4d3c
000002a0: b7bd 69bd 5565 c1bd b5af 86bd 47c7 9bbd
000002b0: 9ed1 b2bd 653e cdbd 0b81 31bd 573d 4abd
000002c0: 642e 2ebd 9033 953d ad67 233d cffa b73d
000002d0: 5632 3f3d 213c 7cbd a974 b13c 272e 99bc
000002e0: 9e22 573d bac6 7d3d 7f69 5c3c 059d 17bb
000002f0: 8c23 333d ce0c 88bd 672f 7ebc 5591 5a3d
00000300: 64a8 2cbd a0de 17bd c634 8fbd 9222 e5bb
00000310: a297 c33c 6c44 f4bc 474d 843c 5654 aebc
00000320: b4c3 2d3b 61be 80bc f279 febc a284 94bc
00000330: 1488 32bd 430a 80bb 3fbe 48bd f7c6 02bd
00000340: dd20 63bd d1d8 853c c4c6 3abc 6f91 153d
00000350: 6c56 a8ba 034a ee3b 7ac0 753d b932 233d
00000360: a342 53bd 20da 72bd 7e44 05bd e82a fa39
00000370: 0a0e a3bb e738 21bd c743 9cbd 076e cdbd
00000380: f691 dabd 2329 52bd 04a0 e4bd 90c3 cdbd
00000390: 02c0 81bc 57ac a53c 90b1 82bb 4d6e 89bc
000003a0: 7f1c 92bd d05c 33bd 6dae 41bd fb58 98bd
000003b0: 0f58 e3bc 8c91 21bc 3cfe c03c daa0 60bd
000003c0: 1992 29bd b4bb 2bbd d086 6abd 3331 c8ba
000003d0: 780b 2abd a2ed 4a3c def5 593c b467 603b
000003e0: 6a20 5fbd 7c95 563c f811 883d 6bb9 f33c
000003f0: 4877 263d fdc2 533c 906d 1f3d 23e3 263c

bn3.weight f4 [128]
1.1730984 1.1357704 1.0763762 1.1510847 1.0972877 1.1368734 1.1191906 1.1629337
1.1057101 1.0839871 1.1646055 1.0657759 1.0893519 1.131958 1.0724151 1.1038702
1.158781 1.1239206 1.2258852 1.1397238 1.1046646 1.1323515 1.0966388 1.1228846
1.120739 1.0920169 1.1302857 1.1540433 1.1601889 1.1126788 1.1286796 1.0952172
1.102036 1.1352863 1.0988418 1.1522759 1.1217971 1.1536219 1.0930537 1.175062
1.0584081 1.0858928 1.071473 1.1200752 1.0817783 1.0817242 1.1667492 1.142619
1.1652154 1.0635555 1.1519965 1.1546216 1.1872402 1.1636435 1.0858818 1.1639975
1.1970202 1.0586898 1.0836406 1.1641084 1.0754972 1.2367799 1.1348639 1.1189114
1.1179385 1.1712343 1.0841922 1.1768337 1.1634687 1.1109977 1.0867387 1.1442916
1.127932 1.14668 1.1882218 1.1054175 1.1697898 1.0624568 1.1199082 1.0723372
1.1669433 1.1745178 1.1139162 1.1513613 1.0820234 1.1430063 1.0965828 1.1219925
1.141118 1.1776155 1.1589475 1.0876597 1.1496663 1.2042303 1.0851862 1.1438364
1.1926558 1.1900594 1.1358031 1.0542688 1.1571523 1.0733281 1.1584909 1.1611199
1.2282618 1.1554706 1.1414545 1.1625581 1.0906011 1.149088 1.1175888 1.0726665
1.121322 1.133625 1.1316476 1.1346487 1.218623 1.1035755 1.0970032 1.1671929
1.0897646 1.0850263 1.1385247 1.1083572 1.1489775 1.0831857 1.1233474 1.0768929
00000000: 1728 963f ed60 913f b2c6 893f be56 933f
00000010: ec73 8c3f 1185 913f a341 8f3f 03db 943f
00000020: e987 8d3f 17c0 8a3f cb11 953f 586b 883f
00000030: e26f 8b3f 00e4 903f e644 893f 9e4b 8d3f
00000040: f052 943f a1dc 8f3f cee9 9c3f 78e2 913f
00000050: a665 8d3f e5f0 903f a95e 8c3f afba 8f3f
00000060: 6074 8f3f 36c7 8b3f 34ad 903f b1b7 933f
00000070: 1281 943f 426c 8e3f 9378 903f 1430 8c3f
00000080: 840f 8d3f 1051 913f d9a6 8c3f c77d 933f
00000090: 0c97 8f3f e2a9 933f 2fe9 8b3f 6e68 963f
000000a0: eb79 873f 89fe 8a3f 0726 893f a05e 8f3f
000000b0: b677 8a3f f075 8a3f 0a58 953f 5741 923f
000000c0: c725 953f 9622 883f 9f74 933f a4ca 933f
000000d0: 7df7 973f 45f2 943f 2dfe 8a3f dffd 943f
000000e0: f537 993f 2683 873f bcb4 8a3f 8101 953f
000000f0: e4a9 893f ce4e 9e3f 3843 913f 7d38 8f3f
00000100: 9c18 8f3f 01eb 953f cfc6 8a3f 7da2 963f
00000110: 8bec 943f 2c35 8e3f 411a 8b3f 2678 923f
00000120: 1360 903f 69c6 923f a717 983f 527e 8d3f
00000130: acbb 953f 96fe 873f 2759 8f3f 5842 893f
00000140: 665e 953f 9956 963f ce94 8e3f cf5f 933f
00000150: be7f 8a3f 084e 923f d35c 8c3f 739d 8f3f
00000160: 2810 923f 1bbc 963f 6458 943f 6f38 8b3f
00000170: 4428 933f 3824 9a3f 62e7 8a3f 3b69 923f
00000180: f2a8 983f de53 983f ff61 913f 48f2 863f
00000190: 911d 943f d162 893f 6e49 943f 949f 943f
000001a0: af37 9d3f 76e6 933f 2e1b 923f b4ce 943f
000001b0: d198 8b3f 5115 933f 260d 8f3f 234d 893f
000001c0: 7b87 8f3f a01a 913f d4d9 903f 2b3c 913f
000001d0: d7fb 9b3f f641 8d3f 9a6a 8c3f 9466 953f
000001e0: 687d 8b3f 24e2 8a3f 2dbb 913f a6de 8d3f
000001f0: b211 933f d4a5 8a3f d9c9 8f3f a0d7 893f

bn3.bias f4 [128]
0.08353443 0.02605645 0.01861187 0.10995439 0.0606792 0.073769614 0.04556297 0.06146997
0.07436514 0.027483502 0.107754886 0.049255073 0.049104318 0.051029958 0.01338979 0.04977918
0.0712426 0.09530623 0.08823786 0.09521601 0.07166242 0.09472347 0.07173648 0.089123055
0.0893471 0.056473237 0.08427249 0.08732402 0.10968325 0.090397105 0.093391515 0.027515192
0.058659907 0.09316669 0.015942061 0.10492049 0.06201899 0.12190368 0.08909616 0.09277031
0.05625669 0.06698774 0.03584949 0.082131125 0.036903862 0.017875042 0.028831972 0.054409068
0.08786412 0.017527677 0.063681185 0.10625186 0.10979538 0.09263349 0.06281446 0.10986801
0.106982164 0.05532082 0.0545462 0.08460207 0.069606036 0.13983159 0.08833841 0.045323722
0.063636035 0.11115515 0.055051576 0.09795709 0.12117893 0.051605396 0.011942651 0.08635468
0.06610576 0.031716928 0.08798472 0.039951462 0.10904248 0.014876194 0.03287142 0.063468516
0.07537403 0.10039516 0.087268256 0.07459489 0.032676164 0.09015497 0.039716918 0.08434893
0.06807525 0.08108897 0.10420958 -0.023211945 0.108925395 0.07523112 0.043504417 0.11681406
0.08511814 0.104633145 0.09375161 0.017784072 0.09132936 0.022390561 0.11295142 0.11945095
0.1074076 0.0593971 0.085099444 0.081636496 0.04961514 0.06674614 0.08757077 -0.011703446
0.08903686 0.09806089 0.0967042 0.080249846 0.11751174 0.090587094 0.079911545 0.09102815
0.03975787 0.09015905 0.109986044 0.0684423 0.11943957 0.044510406 0.08371745 0.02062614
00000000: 1914 ab3d 5674 d53c ec77 983c c42f e13d
00000010: c18a 783d 8614 973d 3da0 3a3d efc7 7b3d
00000020: c04c 983d 1525 e13c 98ae dc3d b0bf 493d
00000030: 9c21 493d ca04 513d da60 5b3c 41e5 4b3d
00000040: a4e7 913d ea2f c33d 0db6 b43d 9d00 c33d
00000050: bfc3 923d 61fe c13d 93ea 923d 2686 b63d
00000060: 9dfb b63d 7b50 673d 0e97 ac3d f0d6 b23d
00000070: 9da1 e03d 1e22 b93d 0d44 bf3d 8a67 e13c
00000080: 5f45 703d 2dce be3d ed98 823c 8ee0 d63d
00000090: a007 7e3d a3a8 f93d 0c78 b63d 5cfe bd3d
000000a0: 6a6d 663d de30 893d ead6 123d 5d34 a83d
000000b0: 8128 173d ae6e 923c 0731 ec3c 0bdc 5e3d
000000c0: 1bf2 b33d 3496 8f3c 486b 823d 939a d93d
000000d0: 66dc e03d a1b6 bd3d dea4 803d 7b02 e13d
000000e0: 7719 db3d 1698 623d d66b 5f3d da43 ad3d
000000f0: 9c8d 8e3d 0330 0f3e c5ea b43d 5ea5 393d
00000100: 9c53 823d 50a5 e33d c37d 613d ba9d c83d
00000110: a92c f83d 2e60 533d 1cab 433c b9da b03d
00000120: 7562 873d 9ce9 013d 5531 b43d 25a4 233d
00000130: aa51 df3d 48bb 733c 2fa4 063d c8fb 813d
00000140: b35d 9a3d fa9b cd3d b3b9 b23d 35c5 983d
00000150: 71d7 053d 2ba3 b83d 35ae 223d 22bf ac3d
00000160: 096b 8b3d f911 a63d d56b d53d fa26 bebc
00000170: 4714 df3d c612 9a3d b031 323d 363c ef3d
00000180: 6b52 ae3d e749 d63d d800 c03d e7af 913c
00000190: e30a bb3d 696c b73c 1353 e73d b3a2 f43d
000001a0: 84f8 db3d 604a 733d 9e48 ae3d 0931 a73d
000001b0: 3f39 4b3d 33b2 883d 4e58 b33d cfbf 3fbc
000001c0: f558 b63d 26d4 c83d da0c c63d 085a a43d
000001d0: ffa9 f03d ba85 b93d aaa8 a33d f76c ba3d
000001e0: 26d9 223d 4fa5 b83d 5d40 e13d 7a2b 8c3d
000001f0: bc9c f43d 8b50 363d 0e74 ab3d 27f8 a83c

bn3.running_mean f4 [128]
-0.7884823 -0.9213967 0.2523337 -0.25218314 -1.2027665 -0.13001181 -0.4692514 -0.2828072
0.43316922 0.36992455 0.01662274 0.069575265 0.40556565 -0.9592748 0.41290155 -0.8085724
-0.7961337 -0.43287122 -0.27492926 -0.8258564 -0.92733467 0.39746928 0.08336199 0.4872608
-1.2731459 -0.5633201 -0.36996824 0.3723472 0.09465969 -0.44161224 0.3090438 0.62777007
-0.016476048 -0.39677373 0.068990126 0.22630455 -0.96720845 0.46419656 -0.13584855 -1.0289665
0.2911918 -0.46400633 0.2687113 -0.42765862 -0.9940625 0.66256374 -0.60437214 0.40284583
-0.9580693 -0.081373475 -0.8092239 0.25875786 -0.1648845 -1.2299151 -0.28875163 0.18699089
-0.030225277 0.5023534 -0.14334494 -0.5780726 -0.63926727 0.067990854 0.29010954 -1.0051434
0.18899529 -0.14872222 -0.4723429 -0.8643515 0.2980642 0.12076424 0.92802733 -1.0114584
-0.23495544 -0.31964415 -0.95321697 -0.4219531 0.034885444 0.59119266 -0.38721162 0.083889864
-0.84060395 -1.1068519 0.3371265 -0.09645658 0.56399506 0.14120363 -0.11371969 -0.25561577
-0.35201064 0.083884954 0.07751148 0.7379008 0.0029191754 -0.8505912 0.05350049 0.43161374
-0.044669274 -0.05288224 0.158911 -0.22372195 0.11476156 0.23644736 0.47096226 -0.24411237
-0.0871875 -0.76835185 -0.6250763 -0.1407259 -0.514414 0.32565314 -0.48656604 -0.16652423
-0.30624634 0.5984657 -0.2096218 -0.81560254 -0.25240567 0.5511539 0.7533287 -0.69089425
-0.140048 0.39368778 -0.21438675 -0.5476494 0.30615398 -0.532829 0.4851275 1.0252112
00000000: fad9 49bf a7e0 6bbf e231 813e 261e 81be
00000010: 41f4 99bf d121 05be b841 f0be 1bcc 90be
00000020: 5bc8 dd3e c066 bd3e 6a2c 883c 7a7d 8e3d
00000030: 4da6 cf3e 0993 75bf d567 d33e 9afe 4ebf
00000040: 6bcf 4bbf 4ca1 ddbe 87c3 8cbe 536b 53bf
00000050: ce65 6dbf 1881 cb3e b1b9 aa3d 3f7a f93e
00000060: 72f6 a2bf bf35 10bf 7a6c bdbe 4ba4 be3e
00000070: f1dc c13d 001b e2be fd3a 9e3e 8ab5 203f
00000080: c7f8 86bc ed25 cbbe b24a 8d3d 61bc 673e
00000090: f99a 77bf 2cab ed3e e21b 0bbe 2db5 83bf
000000a0: 1717 953e 3d92 edbe 8794 893e 12f6 dabe
000000b0: e17a 7ebf c79d 293f 22b8 1abf cf41 ce3e
000000c0: 0844 75bf 23a7 a6bd 4c29 4fbf e97b 843e
000000d0: 7bd7 28be dc6d 9dbf 41d7 93be 8a7a 3f3e
000000e0: 009b f7bc 3c9a 003f 04c9 12be 91fc 13bf
000000f0: 05a7 23bf ca3e 8b3d 3d89 943e 8aa8 80bf
00000100: fb87 413e a34a 18be eed6 f1be 2446 5dbf
00000110: df9b 983e 3e53 f73d 3393 6d3f 7877 81bf
00000120: 2998 70be 66a8 a3be 0706 74bf 3d0a d8be
00000130: 0ae4 0e3d 6758 173f 9a40 c6be 73ce ab3d
00000140: d231 57bf 53ad 8dbf d89b ac3e 078b c5bd
00000150: fb61 103f af97 103e dee5 e8bd 12e0 82be
00000160: bd3a b4be e0cb ab3d 57be 9e3d 11e7 3c3f
00000170: a34f 3f3b 58c0 59bf 5423 5b3d 7afc dc3e
00000180: 21f7 36bd 0c9b 58bd 91b9 223e 5e17 65be
00000190: 1c08 eb3d 421f 723e f721 f13e 98f8 79be
000001a0: 5c8f b2bd b5b2 44bf 0005 20bf 731a 10be
000001b0: a3b0 03bf 02bc a63e 2f1f f9be 5485 2abe
000001c0: 52cc 9cbe 0c35 193f 19a7 56be 54cb 50bf
000001d0: 513b 81be 6c18 0d3f 26da 403f 72de 30bf
000001e0: be68 0fbe 7291 c93e 3388 5bbe c032 0cbf
000001f0: 37c0 9c3e 7b67 08bf a262 f83e 1f3a 833f

bn3.running_var f4 [128]
0.114883654 0.10360853 0.12855442 0.12501079 0.16269399 0.14349195 0.11151687 0.14196926
0.21334858 0.14916463 0.14512761 0.18926047 0.23483565 0.10977113 0.13518077 0.11437817
0.11478595 0.20871402 0.14294921 0.113472894 0.084852606 0.13874722 0.161591 0.13678172
0.12715222 0.12554438 0.12086387 0.30305865 0.11226381 0.21659409 0.11950421 0.12250646
0.1421522 0.12256514 0.16619495 0.16542292 0.09981067 0.14512709 0.18061887 0.106815614
0.19911249 0.19944502 0.15929638 0.20398284 0.11496599 0.15236022 0.1256003 0.13602097
0.07973991 0.1343864 0.11663856 0.1367363 0.119654834 0.1255872 0.09227623 0.121230386
0.15439741 0.18406095 0.094187416 0.13894053 0.14419171 0.14047186 0.11436205 0.106020704
0.2633278 0.12792948 0.12371884 0.09407044 0.13004482 0.12778439 0.220755 0.11590507
0.120670006 0.13489848 0.10592067 0.11540565 0.1313541 0.1441433 0.16498263 0.25628662
0.13761748 0.0976709 0.20023097 0.1478674 0.1494822 0.11739661 0.14317915 0.10913594
0.145239 0.109450385 0.12390995 0.2107222 0.14991924 0.104896426 0.15703021 0.11197721
0.16315834 0.15890567 0.13370977 0.16212521 0.25529224 0.18370539 0.10423978 0.12298113
0.14087234 0.105057225 0.10244893 0.15520601 0.12153516 0.12269737 0.14811336 0.18737948
0.17008924 0.18745308 0.110369705 0.13328779 0.1691731 0.18030156 0.28454554 0.12322681
0.0994108 0.26750258 0.12986723 0.12205497 0.1742493 0.13110992 0.09209475 0.1544437
00000000: 1f48 eb3d b530 d43d c5a3 033e d402 003e
00000010: 4199 263e 8eef 123e f562 e43d 6460 113e
00000020: 0d78 5a3e 9dbe 183e 559c 143e 7fcd 413e
00000030: c278 703e b0cf e03d d46c 0a3e 1a3f ea3d
00000040: e514 eb3d 21b9 553e 4761 123e 7a64 e83d
00000050: 34c7 ad3d c013 0e3e 1c78 253e 8210 0c3e
00000060: 3134 023e b58e 003e 7a87 f73d 812a 9b3e
00000070: 92ea e53d d7ca 5d3e a0be f43d abe4 fa3d
00000080: 5990 113e 6f03 fb3d 022f 2a3e a064 293e
00000090: 8969 cc3d 329c 143e 27f4 383e 25c2 da3d
000000a0: 25e4 4b3e 513b 4c3e 971e 233e e1e0 503e
000000b0: 4a73 eb3d 5104 1c3e 5d9d 003e 1549 0b3e
000000c0: ae4e a33d 979c 093e 33e0 ee3d 9a04 0c3e
000000d0: 980d f53d ee99 003e 52fb bc3d a347 f83d
000000e0: 5b1a 1e3e 797a 3c3e 55e5 c03d 6d46 0e3e
000000f0: fea6 133e dbd7 0f3e a736 ea3d 6221 d93d
00000100: e7d2 863e f2ff 023e 4e60 fd3d 01a8 c03d
00000110: 782a 053e e9d9 023e 990d 623e a35f ed3d
00000120: d621 f73d d422 0a3e f0ec d83d cc59 ec3d
00000130: b081 063e 4d9a 133e 35f1 283e 0038 833e
00000140: 99eb 0c3e ae07 c83d 5909 4d3e 8d6a 173e
00000150: dd11 193e a26d f03d 8e9d 123e aa82 df3d
00000160: 88b9 143e 8627 e03d 80c4 fd3d 8fc7 573e
00000170: 6e84 193e f0d3 d63d 87cc 203e 4f54 e53d
00000180: fb12 273e 2bb8 223e 37eb 083e 2704 263e
00000190: aab5 823e 441d 3c3e aa7b d53d 88dd fb3d
000001a0: d740 103e 3e28 d73d bfd0 d13d 53ee 1e3e
000001b0: 6de7 f83d c248 fb3d 07ab 173e 68e0 3f3e
000001c0: e02b 2e3e b3f3 3f3e 8309 e23d 987c 083e
000001d0: b73b 2d3e f9a0 383e f4af 913e 565e fc3d
000001e0: e497 cb3d 19f6 883e eafb 043e f5f7 f93d
000001f0: 696e 323e ae41 063e 2c9c bc3d 7d26 1e3e

fc1.weight f4 [64, 128]
0.07548441 -0.071992524 0.13017373 -0.073476516 0.055232648 0.037646245 -0.019673126 -0.019710453
0.059167545 -0.09418648 0.15838975 0.092123516 -0.05784243 -0.17572786 -0.080445446 -0.032009225
-0.08996732 0.14837661 0.12798469 0.0025452825 -0.07856088 0.13151142 -0.008950686 0.07974597
0.04066071 -0.10923575 0.03744156 0.058901086 0.16151169 0.08961616 0.12683085 -0.037657123
-0.12535498 0.04962195 -0.04687971 0.06721807 -0.048459623 0.09451947 0.041943844 -0.012866096
0.01794818 0.042750575 0.057393894 -0.046273477 -0.09454539 0.0055784755 0.042295914 0.11928017
-0.045284793 -0.06353251 0.040251896 -0.013236997 0.12559208 -0.08726687 -0.11660975 0.12700123
0.08141765 -0.009155149 -0.086987495 -0.1281977 0.08785261 0.12146628 0.06646194 0.0026565387
0.07326603 0.1739998 -0.06259275 -0.056601148 0.15018696 0.015407617 -0.059216667 -0.03288619
0.08947841 0.0036627527 -0.0967882 -0.022522075 0.20895475 -0.03226023 -0.04570736 -0.044750758
-0.019899253 -0.12834431 0.113669865 0.030996094 0.05334467 0.109804034 0.049500033 0.042590074
-0.09275253 0.19626443 -0.051392484 0.036493633 0.20418838 -0.119379655 0.014853422 0.13689682
0.044632334 0.11876778 0.020391822 0.01590483 0.10596704 0.02178708 0.085260905 0.1786139
0.12808633 -0.1846817 -0.069893114 0.13453476 -0.034725394 0.01960942 0.12867649 0.03898403
0.1135418 0.16996594 0.13747051 -0.016374703 0.053765494 0.08599246 0.13353264 0.15947834
-0.14579499 0.10770955 0.12698472 -0.10466359 0.042235956 0.12341249 0.207452 -0.0117253885
0.20708352 0.15226705 0.081627905 -0.01068829 0.022349456 0.08025168 -0.0076436354 -0.057693604
0.09079065 -0.017013637 0.08013248 -0.04139883 -0.020534968 0.028395675 0.012768727 0.04824674
0.14540052 -0.014891552 0.21524504 0.15046155 0.020970318 0.1097095 0.03627877 0.05233826
0.027379371 0.025741242 -0.073130354 -0.033710524 -0.0010064888 -0.012232643 0.002568265 -0.07777067
-0.009458061 0.115275376 0.11396902 -0.076917075 0.11772134 0.09493688 -0.015297949 0.08179061
0.03370206 0.047831465 -0.040119685 -0.04775383 0.11987489 -0.04850879 0.061871428 0.10673719
0.03966894 -0.00061699026 0.15964872 -0.021814244 0.14814141 0.0073023434 0.064796805 0.054438204
0.20464152 -0.06974552 0.04634841 -0.060728222 0.09641214 0.1405985 -0.09152799 0.098527335
-0.055902142 -0.03826663 -0.035683386 0.08882371 -0.062710404 -0.048090573 -0.044509567 0.08423836
0.1037866 -0.010751404 0.114104174 0.12793918 0.11959092 -0.08290034 -0.038333483 -0.04471267
-0.08395583 0.12515326 -0.035813224 -0.15275912 -0.09039171 0.08364106 0.1566588 0.18364727
-0.14650816 -0.089706756 0.05614695 -0.035242014 -0.092044115 0.13463975 -0.02875431 -0.024889085
-0.07343907 0.021171277 -0.042288642 -0.016483644 -0.114810556 -0.05006166 -0.023552112 0.06286619
-0.092128515 -0.014419379 0.017395033 -0.007865789 0.11235727 0.11147503 0.1510739 0.0753213
0.110869415 0.07376924 0.14615524 -0.06522903 0.031629037 0.057348702 -0.013125699 0.21252865
0.0033982785 0.0030825357 0.0854581 0.059982274 -0.049062252 0.047904868 -0.022151226 -0.09785593
00000000: 9297 9a3d d170 93bd 434c 053e db7a 96bd
00000010: a13b 623d f332 1a3d 8929 a1bc d177 a1bc
00000020: ab59 723d d7e4 c0bd ec30 223e 41ab bc3d
00000030: 2fec 6cbd 01f2 33be 95c0 a4bd 1b1c 03bd
00000040: c940 b8bd 0af0 173e 6b0e 033e c1ce 263b
00000050: 87e4 a0bd eeaa 063e e6a5 12bc db51 a33d
00000060: d88b 263d feb6 dfbd 525c 193d 4442 713d
00000070: 5263 253e ad88 b73d f2df 013e 5b3e 1abd
00000080: 0e5d 00be 6340 4b3d f004 40bd a1a9 893d
00000090: 997d 46bd 6d93 c13d 4fcd 2b3d 51cc 52bc
000000a0: 1008 933c 3a1b 2f3d dc15 6b3d 4289 3dbd
000000b0: 03a1 c1bd a5cb b63b 7b3e 2d3d 2949 f43d
000000c0: 8c7c 39bd 551d 82bd 2cdf 243d fddf 58bc
000000d0: 369b 003e f9b8 b2bd 18d1 eebd 9c0c 023e
000000e0: 4cbe a63d 7aff 15bc 8026 b2bd 4246 03be
000000f0: 12ec b33d 50c3 f83d 331d 883d 5319 2e3b
00000100: 800c 963d 012d 323e a130 80bd 9bd6 67bd
00000110: 9cca 193e 3b70 7c3c 2d8d 72bd abb3 06bd
00000120: 7540 b73d cb0a 703b e438 c6bd 3780 b8bc
00000130: 3cf8 553e 4e23 04bd a437 3bbd 924c 37bd
00000140: c203 a3bc b16c 03be bfcb e83d 85eb fd3c
00000150: f17f 5a3d f0e0 e03d 8cc0 4a3d ee72 2e3d
00000160: 0af5 bdbd 8bf9 483e ed80 52bd 597a 153d
00000170: c216 513e 527d f4bd c45b 733c ae2e 0c3e
00000180: 65d0 363d 863c f33d c00c a73c d94a 823c
00000190: 3f05 d93d d27a b23c 459d ae3d 90e6 363e
000001a0: 1029 033e 331d 3dbe 1f24 8fbd 7bc3 093e
000001b0: 373c 0ebd efa3 a03c c5c3 033e b8ad 1f3d
000001c0: 9a88 e83d 8d0b 2e3e 12c5 0c3e 3e24 86bc
000001d0: 3539 5c3d d11c b03d c8bc 083e 4a4e 233e
000001e0: 484b 15be d396 dc3d 4808 023e dd59 d6bd
000001f0: 9cff 2c3d b0bf fc3d 4c6e 543e d81b 40bc
00000200: b40d 543e e5eb 1b3e 882c a73d f01d 2fbc
00000210: 3516 b73c fe5a a43d 7677 fabb 2150 6cbd
00000220: 73f0 b93d 2f60 8bbc 7f1c a43d d291 29bd
00000230: f338 a8bc 0c9e e83c ec33 513c 609e 453d
00000240: e0e3 143e b2fb 73bc 3269 5c3e 9812 1a3e
00000250: f2c9 ab3c 60af e03d 0c99 143d a560 563d
00000260: b44a e03c 4cdf d23c 5ec5 95bd 0c14 0abd
00000270: 29ec 83ba 6c6b 48bc 5650 283b 3b46 9fbd
00000280: fcf5 1abc 7f15 ec3d 9768 e93d b386 9dbd
00000290: e317 f13d 446e c23d 40a4 7abc d681 a73d
000002a0: 2c0b 0a3d edea 433d 8a54 24bd 8599 43bd
000002b0: f780 f53d 27b1 46bd e56c 7d3d 0799 da3d
000002c0: e67b 223d 84bd 21ba f47a 233e c9b3 b2bc
000002d0: 62b2 173e 7f48 ef3b 30b4 843d 98fa 5e3d
000002e0: 8c8d 513e bdd6 8ebd d5d7 3d3d 28be 78bd
000002f0: ba73 c53d 0ef9 0f3e 0773 bbbd b3c8 c93d
00000300: a5f9 64bd 78bd 1cbd be28 12bd 35e9 b53d
00000310: 506e 80bd 9ffa 44bd aa4f 36bd 2985 ac3d
00000320: 128e d43d a826 30bc 73af e93d 7d02 033e
00000330: 16ec f43d a7c7 a9bd 9203 1dbd a224 37bd
00000340: 09f1 abbd 2d28 003e e3b0 12bd e36c 1cbe
00000350: 4a1f b9bd 014c ab3d 2a6b 203e 080e 3c3e
00000360: 3c06 16be 2db8 b7bd 58fa 653d ee59 10bd
00000370: a081 bcbd 01df 093e 298e ebbc 32e4 cbbc
00000380: 3967 96bd 636f ad3c db36 2dbd b508 87bc
00000390: cc21 ebbd 750d 4dbd 5cf0 c0bc fdbf 803d
000003a0: e0ad bcbd 423f 6cbc 0780 8e3c 83df 00bc
000003b0: 921b e63d 054d e43d 1eb3 1a3e 0e42 9a3d
000003c0: 810f e33d 5414 973d b8a9 153e cc96 85bd
000003d0: 738d 013d 79e6 6a3d 2c0d 57bc 1ca1 593e
000003e0: a7b5 5e3b 5e04 4a3b a804 af3d f9af 753d
000003f0: 80f5 48bd e537 443d 7d76 b5bc b168 c8bd
