runs/20260226_205508/last.pt (torch, 584195 bytes, 42 tensors)

conv1.weight f4 [32, 3, 7]
0.15534306 0.18319963 -0.02090625 0.1713529 -0.04188654 0.03027382 -0.10642508 0.1991762
0.19236805 -0.051050216 0.19043715 0.16878693 0.24116732 0.12534757 0.063937336 -0.07209956
0.156592 0.052148167 -0.085763715 0.07604238 -0.083718695 0.0152251525 -0.024510855 0.2304517
-0.14812742 -0.039276704 0.008392499 -0.06603889 0.021350568 -0.23786135 0.22500566 -0.18929408
0.16135375 0.039844796 -0.052391645 0.09331011 0.051644113 0.20388822 0.016511608 -0.07603656
-0.012975876 -0.04884932 0.106519565 0.22203098 0.1556743 -0.047879823 0.1646428 0.12041562
0.15592037 -0.12221693 -0.18593097 -0.057257444 -0.13169761 0.21282527 0.100287214 0.12208246
0.054580666 -0.0043860734 0.16988426 -0.14664403 0.0071615037 -0.13205816 0.05940755 -0.03431883
0.08557746 -0.026812566 0.18974157 -0.084680095 -0.07290513 -0.11650599 0.23927826 0.18414287
0.24076018 -0.15805006 -0.2029231 -0.14951012 -0.15540226 0.047757573 0.089530066 0.14773814
-0.119863376 -0.14501017 0.072759636 -0.107973084 0.14662242 -0.058290638 0.13040459 -0.15494846
-0.10876161 0.06986466 0.050618432 -0.02516364 0.19313838 0.2047717 -0.19111434 -0.13057435
0.24078359 -0.07268027 -0.08379949 -0.16104889 -0.03384544 0.089831084 -0.020857524 -0.115035236
0.018817602 -0.12664649 -0.1709228 -0.08752254 -0.15733023 -0.14701328 0.22881849 0.06375505
0.12011949 -0.2019965 -0.11101519 0.014461433 0.11799206 -0.11021972 -0.02086195 -0.056056987
-0.017872218 -0.10849622 -0.15251659 -0.2364285 -0.22913344 -0.135531 -0.067587644 -0.15739606
0.18386781 -0.046229552 0.19118167 0.08467975 -0.14324704 0.21353063 -0.014575774 -0.06467486
-0.18905331 -0.18950284 0.06975854 -0.054562077 0.03683254 -0.17829233 0.1748767 -0.11994369
0.036515057 0.11934351 0.21634276 0.1540432 0.18867348 -0.13662323 0.07213468 -0.100295834
-0.010508183 -0.17090952 0.1848236 -0.21940824 0.06541458 0.09006474 0.017470064 -0.2402574
0.1605925 0.016106054 -0.0034219925 -0.155635 0.112620436 0.01764577 -0.002942974 0.23002003
0.085640855 -0.091614835 -0.08598374 0.017568795 0.1710884 -0.0024451062 -0.08612639 -0.09329676
-0.21854395 0.082814254 0.1879022 -0.2234303 0.1390996 0.08667534 0.015444602 -0.044508833
0.12079001 0.121426836 0.057236865 -0.05194471 -0.10339817 -0.018322991 -0.041446846 -0.0640937
0.12241854 0.16735789 -0.049680237 -0.08563312 0.045807067 0.07960762 0.08944993 0.051255874
-0.15656541 -0.043540657 0.18888113 0.09230159 0.025381522 -0.06330162 -0.23365967 -0.2393646
-0.099942446 0.019207466 0.12023639 0.112451315 -0.19317897 -0.14537117 -0.052471165 0.18952334
0.022179682 -0.028340137 0.119435914 -0.050588064 -0.14517683 0.19062565 -0.024603862 0.077865876
-0.120963365 0.23947972 0.23811896 0.12905869 -0.12441271 -0.18547998 -0.16197996 0.13514945
0.1043439 0.18915872 0.1273852 0.042106844 -0.04834529 -0.2166541 -0.08543862 -0.13572113
-0.015433565 -0.06569894 -0.0070743193 -0.09589577 -0.009847403 -0.23600067 -0.23342474 0.051708143
-0.086201854 0.12243075 -0.033859365 -0.15061253 -0.019739596 -0.06099089 -0.05382801 -0.1729789
00000000: 4012 1f3e af98 3b3e 9643 abbc 2277 2f3e
00000010: 3891 2bbd cd00 f83c 64f5 d9bd d9f4 4b3e
00000020: 21fc 443e 081a 51bd f501 433e 7bd6 2c3e
00000030: 91f4 763e 1d5b 003e 94f1 823d efa8 93bd
00000040: a759 203e 5199 553d e3a4 afbd 1bbc 9b3d
00000050: b574 abbd eb72 793c fdca c8bc 88fb 6b3e
00000060: b7ae 17be 9ce0 20bd b180 093c 663f 87bd
00000070: 63e7 ae3c ed91 73be e267 663e 4fd6 41be
00000080: eb39 253e 4c34 233d 9f98 56bd 5f19 bf3d
00000090: c788 533d 13c8 503e 5a43 873c 0eb9 9bbd
000000a0: c598 54bc 3916 48bd ee26 da3d 175c 633e
000000b0: 1569 1f3e a21d 44bd 1f98 283e 779c f63d
000000c0: 97a9 1f3e df4c fabd b064 3ebe c886 6abd
000000d0: bddb 06be deee 593e 6263 cd3d 5e06 fa3d
000000e0: fa8f 5f3d 0db9 8fbb 24f6 2d3e da29 16be
000000f0: 0cab ea3b 413a 07be 5555 733d e791 0cbd
00000100: 3c43 af3d 07a6 dbbc 9d4b 423e c26c adbd
00000110: 494f 95bd b19a eebd 5c05 753e f38f 3c3e
00000120: d689 763e e0d7 21be 13cb 4fbe 2e19 19be
00000130: c521 1fbe 729d 433d 8a5b b73d ab48 173e
00000140: ee7a f5bd 8c7d 14be 0103 953d fe20 ddbd
00000150: 3024 163e 2ac2 6ebd c888 053e cfaa 1ebe
00000160: 68be debd 3415 8f3d 4655 4f3d fa23 cebc
00000170: 11c6 453e acaf 513e 7ab3 43be 48b5 05be
00000180: f98f 763e 65d9 94bd 119f abbd 00ea 24be
00000190: 84a1 0abd 5cf9 b73d 66dd aabc 9897 ebbd
000001a0: 5f27 9a3c 9eaf 01be 6306 2fbe 043f b3bd
000001b0: 2d1b 21be a68a 16be 654f 6a3e 0292 823d
000001c0: 3501 f63d 2cd8 4ebe ef5b e3bd a5ef 6c3c
000001d0: d2a5 f13d e0ba e1bd aee6 aabc 039c 65bd
000001e0: c268 92bc 4433 debd 4f2d 1cbe 501a 72be
000001f0: f5a1 6abe a3c8 0abe 646b 8abd 6f2c 21be
00000200: d847 3c3e 335b 3dbd 21c5 433e 946c ad3d
00000210: 5aaf 12be c6a7 5a3e 3acf 6ebc 4174 84bd
00000220: 3197 41be 080d 42be 91dd 8e3d 7c7c 5fbd
00000230: b8dd 163d 4492 36be e112 333e 0aa5 f5bd
00000240: d090 153d 5f6a f43d f588 5d3e 80bd 1d3e
00000250: 9f33 413e f6e6 0bbe 59bb 933d e767 cdbd
00000260: 842a 2cbc e802 2fbe 6642 3d3e 8eac 60be
00000270: 14f8 853d dd73 b83d 611d 8f3c 0906 76be
00000280: 5c72 243e d8f0 833c 8243 60bb c85e 1fbe
00000290: 8ba5 e63d dd8d 903c e9de 40bb 5f8a 6b3e
000002a0: 7964 af3d 8fa0 bbbd 3e18 b0bd 6fec 8f3c
000002b0: cc31 2f3e 133e 20bb 0863 b0bd 5f12 bfbd
000002c0: fcc9 5fbe 859a a93d 6f69 403e eaca 64be
000002d0: 2070 0e3e d782 b13d 5b0b 7d3c e54e 36bd
000002e0: c160 f73d a2ae f83d 3471 6a3d fac3 54bd
000002f0: 6bc2 d3bd 191a 96bc 2bc4 29bd 8f43 83bd
00000300: 92b6 fa3d de5f 2b3e 817d 4bbd 6b60 afbd
00000310: 31a0 3b3d 5209 a33d 8631 b73d aef1 513d
00000320: af52 20be b057 32bd 0e6a 413e 9e08 bd3d
00000330: e9ec cf3c 48a4 81bd 7b44 6fbe fe1b 75be
00000340: a0ae ccbd fa58 9d3c 7f3e f63d e04c e63d
00000350: b5d0 45be 2edc 14be 01ec 56bd 6812 423e
00000360: 2ab2 b53c 9329 e8bc d19a f43d 6e35 4fbd
00000370: 3ca9 14be 5f33 433e 0a8e c9bc 2578 9f3d
00000380: a4bb f7bd 2c3a 753e 75d5 733e f627 043e
00000390: 17cc febd 77ee 3dbe 13de 25be 9e64 0a3e
000003a0: 41b2 d53d d3b2 413e 4471 023e 3a78 2c3d
000003b0: b605 46bd 93da 5dbe 71fa aebd 7bfa 0abe
000003c0: 10dd 7cbc 2a8d 86bd b1cf e7bb 0065 c4bd
000003d0: 0057 21bc 29aa 71be e506 6fbe ebcb 533d
000003e0: 998a b0bd f9bc fa3d 1eb0 0abd 2c3a 1abe
000003f0: efb4 a1bc 95d1 79bd c27a 5cbd 6121 31be

bn1.weight f4 [32]
1.0978234 0.9979228 0.9865589 1.0770243 0.9770592 0.964218 1.0241618 1.0362555
0.9945129 0.97400224 1.0495211 0.99975735 1.0024375 0.9720081 0.96369106 1.0047041
0.98129797 0.9643636 0.9743686 1.12001 1.0047511 0.98473155 1.0872185 1.0491095
1.0196321 1.0679294 1.0323358 0.9642539 1.0242362 0.8820929 1.0274938 1.0233996
00000000: 7a85 8c3f de77 7f3f 208f 7c3f efdb 893f
00000010: 8d20 7a3f fed6 763f bc17 833f 05a4 843f
00000020: 6698 7e3f 3658 793f b556 863f 19f0 7f3f
00000030: df4f 803f 86d5 783f 75b4 763f 259a 803f
00000040: 5836 7b3f 88e0 763f 3870 793f 7d5c 8f3f
00000050: af9b 803f 5e17 7c3f fa29 8b3f 3849 863f
00000060: 4e83 823f e9b1 883f 9423 843f 58d9 763f
00000070: 2c1a 833f d7d0 613f eb84 833f c2fe 823f

bn1.bias f4 [32]
-0.008870508 -0.005808067 -0.038173053 0.0030424024 -0.0029598775 0.003114224 -0.009456048 -0.04085342
-0.110999174 -0.080804855 0.012687497 -0.08858084 -0.0049712183 -0.0015367094 -0.06032166 0.018695924
-0.031290054 -0.036072575 -0.038292404 0.0008436166 -0.03778722 0.028605446 -0.03647113 0.07964922
0.040612474 0.027798936 0.05625237 -0.05021892 0.008218754 -0.052917514 0.025665848 -0.03708146
00000000: 9b55 11bc 9951 bebb 595b 1cbd 0b63 473b
00000010: 81fa 41bb 0218 4c3b 8aed 1abc ea55 27bd
00000020: 8953 e3bd 047d a5bd 38df 4f3c df69 b5bd
00000030: 9ae5 a2bb 696b c9ba d813 77bd 3228 993c
00000040: 002a 00bd d6c0 13bd 7fd8 1cbd 2726 5d3a
00000050: c6c6 1abd f855 ea3c c062 15bd 211f a33d
00000060: 4459 263d 98ba e33c e368 663d 5bb2 4dbd
00000070: f4a7 063c 09c0 58bd 2f41 d23c bbe2 17bd

bn1.running_mean f4 [32]
-0.005141281 0.00043159083 0.00071033795 0.00046160273 -0.0010906387 0.00044920747 0.001020081 3.1207894e-06
0.00026716874 -0.0008935812 -0.00061541673 0.0013215737 -0.0039186515 0.0010436836 0.00058717385 0.001459159
0.0020616157 -0.0005923028 0.00055702496 0.00014125674 6.2570536e-05 0.0004513777 -0.0028800708 0.00023625593
0.003389404 5.0228766e-05 -0.0030085791 -0.00091546087 -0.00050755544 0.00015050097 -0.0004183939 0.00010279654
00000000: 3178 a8bb 2447 e239 f935 3a3a 4503 f239
00000010: c3f3 8eba 9b83 eb39 3db4 853a c16e 5136
00000020: c812 8c39 383f 6aba eb53 21ba a838 ad3a
00000030: 0868 80bb 36cc 883a 92ec 193a 4041 bf3a
00000040: 2c1c 073b c544 1bba 5005 123a 511e 1439
00000050: 4d38 8338 e4a6 ec39 92bf 3cbb 78bb 7739
00000060: c320 5e3b baac 5238 952b 45bb 8afb 6fba
00000070: 780d 05ba cccf 1d39 e15b dbb9 7994 d738

bn1.running_var f4 [32]
0.6337888 0.19545896 0.64239085 0.48034942 0.23341127 0.57040703 0.35232398 0.22152324
0.21163723 0.31074646 0.35526803 0.46041754 0.4561048 0.40867576 0.35029775 0.4717067
0.46500975 0.35288608 0.23184074 0.2213726 0.21155047 0.33575323 0.5200867 0.30161804
0.5422654 0.2738441 0.5621551 0.5241724 0.28661093 0.21571891 0.39468607 0.1646965
00000000: fc3f 223f 6526 483e ba73 243f 5cf0 f53e
00000010: 5d03 6f3e 3206 123f cf63 b43e fdd6 623e
00000020: 6eb7 583e 291a 9f3e b1e5 b53e d9bb eb3e
00000030: 9186 e93e f33d d13e 3a5a b33e 8a83 f13e
00000040: c215 ee3e 7cad b43e a967 6d3e 80af 623e
00000050: b0a0 583e d9e7 ab3e 6724 053f ae6d 9a3e
00000060: e8d1 0a3f 4b35 8c3e 66e9 0f3f 2a30 063f
00000070: abbe 923e 6be5 5c3e 4b14 ca3e 33a6 283e

conv2.weight f4 [64, 32, 5]
0.06651236 -0.01015899 -0.043734975 0.0588549 -0.06446129 0.0064536612 -0.051520772 0.008199513
0.07020417 0.004905398 -0.027860602 0.032649256 -0.011948431 0.11620537 -0.023590047 -0.039636016
-0.09930776 -0.036904994 0.06414029 0.11009582 0.026642153 0.12361222 -0.026423758 0.045403335
0.057237465 0.08072132 -0.019242596 0.08271123 0.021636266 -0.04620916 0.0051879087 -0.05162901
0.044722 -0.08103739 -0.06848733 -0.027580986 -0.019531608 -0.03669718 0.061695766 0.08797602
0.059974805 -0.112271175 0.11170189 0.10161341 0.025357861 -0.023234209 0.009922525 0.028661897
-0.050305508 0.003042005 -0.002084846 0.05399198 -0.03375599 0.010055783 0.032951653 -0.12674087
-0.12477354 -0.096039616 0.068642505 -0.08205522 -0.11000439 0.0033811505 0.06787683 0.07780365
-0.08294215 -0.011706746 0.007897797 0.022730809 0.03354028 0.009166164 0.03608905 0.08054388
-0.109334014 -0.03418768 0.034515254 -0.06258449 -0.0666027 0.030212961 0.008618591 0.03561758
-0.051290248 0.014772431 0.06472978 -0.06380813 -0.006402717 -0.058416676 -0.101312354 0.04531568
0.0011853053 -0.07192302 0.05324161 -0.039217036 -0.0709961 0.0070202993 0.049358197 -0.061781287
-0.055847336 0.06972082 -0.00019983073 0.051190462 -0.12557243 -0.063338496 -0.02223039 -0.046644133
-0.05315979 0.0046881884 -0.01099936 -0.010217637 0.007775935 -0.024416424 0.019270588 -0.011696336
-0.0648464 -0.095405854 0.041205905 0.04163218 -0.07473587 0.043612555 -0.05390195 0.024212373
0.04243115 -0.07747927 0.042434573 -0.1193788 -0.036443584 0.02897015 -0.10479972 0.068605006
-0.019703144 0.0025813144 -0.008532886 0.026792847 -0.0290544 -0.06124834 0.013721662 0.04163219
0.04873517 -0.06998375 -0.078008056 -0.011358869 -0.01453076 0.013105572 0.038701516 -0.044638656
0.023471357 0.0039939675 -0.038465064 0.042500056 0.01116204 0.055090174 -0.06855674 -0.09086096
-0.024222028 -0.009415839 0.03721203 -0.017041415 0.09315872 0.022341378 0.054361492 0.020804975
-0.12597495 -0.117194556 -0.12544888 -0.06671369 -0.12426188 0.032676745 -0.0058781817 -0.048198543
2.8969798e-05 -0.08301267 -0.06606959 -0.06552144 -0.00066502584 -0.043167777 0.028480912 -0.047512658
-0.017340496 0.061089482 -0.001962217 -0.10873961 -0.041864887 0.07977198 -0.04989655 0.051220186
0.057130445 0.02156688 0.059657317 0.057115432 -0.013252112 -0.1017058 0.050114617 -0.049694944
-0.06701099 0.06365267 0.050409324 0.0060907854 -0.10096583 -0.03572236 -0.0056073675 0.09533044
0.065881774 -0.002587562 -0.04466796 0.0064408635 0.044101384 -0.008338887 0.00976305 -0.032892197
-0.020873468 -0.0010078432 -0.024835767 0.05285985 0.03269491 0.0340613 0.030161818 -0.04640522
-0.10397026 -0.0112465285 0.005839449 0.009827224 -0.019005274 0.018886026 0.08455494 0.07224621
-0.014793801 -0.03315897 -0.02508652 -0.05257654 0.049639486 0.03064129 0.04655686 -0.041547123
-0.009982757 0.007363337 -0.09745804 -0.014295955 -0.00663286 -0.06627513 -0.084370635 0.025747126
0.069665425 0.0049302536 0.033472363 -0.051702194 -0.05286164 0.056994997 -0.03532288 -0.006480787
-0.056476198 0.037620343 -0.05409569 -0.032512527 0.09932396 -0.0055587133 0.008586893 0.075237766
00000000: a237 883d e471 26bc 7223 33bd d611 713d
00000010: 4804 84bd 3c79 d33b 7207 53bd 4057 063c
00000020: 34c7 8f3d 76bd a03b eb3b e4bc 3abb 053d
00000030: 5ac3 43bc 15fd ed3d ea3f c1bc 6059 22bd
00000040: de61 cbbd b129 17bd fc5b 833d eb79 e13d
00000050: a540 da3c 6728 fd3d a376 d8bc d9f8 393d
00000060: d571 6a3d 3851 a53d a6a2 9dbc 8164 a93d
00000070: 8a3e b13c d145 3dbd 55ff a93b f178 53bd
00000080: 6a2e 373d eef6 a5bd 1643 8cbd 85f1 e1bc
00000090: c000 a0bc c84f 16bd b3b4 7c3d c62c b43d
000000a0: 24a8 753d 6eee e5bd f6c3 e43d b11a d03d
000000b0: 4abb cf3c ab55 bebc 1692 223c 5bcc ea3c
000000c0: 260d 4ebd 605c 473b e9a1 08bb b226 5d3d
000000d0: b943 0abd 03c1 243c 50f8 063d 5cc8 01be
000000e0: 4589 ffbd 6bb0 c4bd 7194 8c3d 910c a8bd
000000f0: fb49 e1bd 4b96 5d3b 0203 8b3d 8557 9f3d
00000100: 93dd a9bd a7cd 3fbc c365 013c f635 ba3c
00000110: 8861 093d ae2d 163c 1dd2 133d 31f4 a43d
00000120: 83ea dfbd 6108 0cbd de5f 0d3d 4c2c 80bd
00000130: ff66 88bd 2c81 f73c fe34 0d3c bde3 113d
00000140: b915 52bd 1108 723c 0c91 843d d6ad 82bd
00000150: e2cd d1bb 5346 6fbd da7c cfbd ef9c 393d
00000160: 3f5c 9b3a 604c 93bd e013 5a3d 0ba2 20bd
00000170: 6766 91bd 8a0a e63b d22b 4a3d 600e 7dbd
00000180: 2dc0 64bd cac9 8e3d a789 51b9 17ad 513d
00000190: 0f96 00be 9db7 81bd 821c b6bc eb0d 3fbd
000001a0: 14be 59bd 609f 993b a936 34bc e067 27bc
000001b0: 45cd fe3b f404 c8bc 5add 9d3c fda1 3fbc
000001c0: 30ce 84bd 2564 c3bd 86c7 283d 8186 2a3d
000001d0: 1f0f 99bd 14a3 323d 4bc8 5cbd 0759 c63c
000001e0: 49cc 2d3d 74ad 9ebd e0cf 2d3d df7c f4bd
000001f0: de45 15bd cf52 ed3c 3ca1 d6bd c880 8c3d
00000200: 7d68 a1bc 452b 293b 85cd 0bbc ac7c db3c
00000210: 7e03 eebc 8adf 7abd d2d0 603c 8486 2a3d
00000220: 889e 473d a453 8fbd b0c2 9fbd 8d1a 3abc
00000230: 6d12 6ebc c1b8 563c 7b85 1e3d 06d7 36bd
00000240: 0147 c03c d4df 823b 8b8d 1dbd 8a14 2e3d
00000250: fde0 363c 3ca6 613d 7a67 8cbd 5015 babd
00000260: 466d c6bc e444 1abc a46b 183d 709a 8bbc
00000270: 00ca be3d 4405 b73c 28aa 5e3d 326f aa3c
00000280: 94ff 00be b303 f0bd ac75 00be 30a1 88bd
00000290: 037d febd 0dd8 053d c39d c0bb d66b 45bd
000002a0: 2b04 f337 8c02 aabd 7e4f 87bd 1b30 86bd
000002b0: 2155 2eba b2d0 30bd cd50 e93c a29c 42bd
000002c0: a80d 8ebc f738 7a3d 8a98 00bb dfb2 debd
000002d0: 847a 2bbd 7e5f a33d 5360 4cbd 42cc 513d
000002e0: 9d01 6a3d 07ad b03c 3b5b 743d dff1 693d
000002f0: 631f 59bc 214b d0bd fc44 4d3d ed8c 4bbd
00000300: 0f3d 89bd 555c 823d 027a 4e3d 3695 c73b
00000310: 2cc7 cebd 9c51 12bd 02be b7bb 9b3c c33d
00000320: 06ed 863d 1694 29bb c0f5 36bd e10d d33b
00000330: a7a3 343d d49f 08bc 33f5 1f3c f8b9 06bd
00000340: d6fe aabc 9b19 84ba 6174 cbbc 9283 583d
00000350: 19eb 053d dd83 0b3d eb15 f73c 6613 3ebd
00000360: 5cee d4bd 5c43 38bc d958 bf3b 5d02 213c
00000370: f3b0 9bbc deb6 9a3c 242b ad3d d2f5 933d
00000380: b361 72bc b3d1 07bd 3f82 cdbc 7f5a 57bd
00000390: c652 4b3d 7103 fb3c 68b2 3e3d 512d 2abd
000003a0: b88e 23bc 2648 f13b 1598 c7bd 9539 6abc
000003b0: 7658 d9bb 41bb 87bd 83ca acbd a3eb d23c
000003c0: bfac 8e3d f78d a13b 511a 093d aec5 53bd
000003d0: 7285 58bd 9673 693d b9ae 10bd c85c d4bb
000003e0: 9653 67bd ca17 1a3d 7193 5dbd db2b 05bd
000003f0: 5c6a cb3d de25 b6bb 0ab0 0c3c 4216 9a3d

bn2.weight f4 [64]
0.93219006 0.9866482 0.95226264 0.9376011 1.0184907 0.9525367 0.9657899 1.0003645
0.93416756 0.9532814 1.0486709 1.0912651 0.98518085 0.9995519 0.9440539 0.9853871
1.0269936 0.97366995 0.99818623 1.000933 0.9547691 0.99849653 1.008554 1.0001608
1.0474453 1.0220612 1.0546502 0.91978925 0.97986966 0.9984748 1.0342548 0.9559507
0.9382263 1.002857 0.99691445 0.9888284 0.9963216 0.95636505 0.9712332 1.0217919
1.0042039 1.0060192 0.99678826 1.0270348 1.0215828 0.97883314 0.9384611 0.9909092
0.9624819 1.0110162 1.0172688 0.9981198 1.0010483 1.0034014 1.0560971 0.99556416
1.0558622 1.0002496 1.0421615 0.967776 1.0457119 0.97515184 0.99478537 1.0501432
00000000: 02a4 6e3f fa94 7c3f 7cc7 733f a006 703f
00000010: e75d 823f 72d9 733f 023e 773f f20b 803f
00000020: 9b25 6f3f 400a 743f d93a 863f 93ae 8b3f
00000030: d034 7c3f a2e2 7f3f 84ad 713f 5442 7c3f
00000040: 8774 833f 6f42 793f 2289 7f3f 931e 803f
00000050: bf6b 743f 789d 7f3f 4c18 813f 4505 803f
00000060: b012 863f e7d2 823f c7fe 863f 4f77 6b3f
00000070: bdd8 7a3f 0b9c 7f3f 7662 843f 2fb9 743f
00000080: 992f 703f 9e5d 803f c935 7f3f dc23 7d3f
00000090: ef0e 7f3f 57d4 743f bda2 783f 14ca 823f
000000a0: c189 803f 3dc5 803f 842d 7f3f e075 833f
000000b0: 3ac3 823f cf94 7a3f fd3e 703f 3aac 7d3f
000000c0: 3765 763f fb68 813f dd35 823f c784 7f3f
000000d0: 5a22 803f 756f 803f 312e 873f 4bdd 7e3f
000000e0: 7e26 873f 2e08 803f 8c65 853f 2bc0 773f
000000f0: e3d9 853f 8da3 793f 41aa 7e3f 186b 863f

bn2.bias f4 [64]
-0.08221355 -0.13479644 -0.14704679 -0.08573689 -0.14773694 -0.033341724 -0.07978141 -0.11671489
-0.090718016 -0.1186574 -0.08472824 -0.09279588 -0.05851805 -0.13255866 -0.060216133 -0.08250445
-0.08727245 -0.08610349 -0.08081469 -0.09424619 -0.08670561 -0.09161572 -0.01918599 -0.11522552
-0.18086343 -0.06575446 -0.042532124 -0.030699128 -0.06211007 -0.039586566 -0.034475654 -0.041861124
-0.11413662 -0.086936116 -0.10265596 -0.11433154 0.024965767 -0.07030712 -0.11093157 -0.11671229
-0.11338533 -0.013002697 -0.06749669 -0.1198854 -0.12257961 -0.058844108 -0.054097563 -0.03370135
-0.083698444 -0.15560193 -0.07291472 -0.082223825 -0.09362099 -0.043345388 -0.14127386 -0.054173034
-0.08420318 -0.0892713 -0.18898332 -0.14218141 -0.036554225 -0.068965554 -0.026656982 -0.11635156
00000000: 945f a8bd 1408 0abe 6f93 16be d396 afbd
00000010: 5a48 17be 5591 08bd 7064 a3bd 3708 efbd
00000020: 5eca b9bd a702 f3bd 0086 adbd c40b bebd
00000030: 9fb0 6fbd 75bd 07be 31a5 76bd 18f8 a8bd
00000040: e6bb b2bd 0757 b0bd 2c82 a5bd 2504 c1bd
00000050: b692 b1bd 06a1 bbbd f02b 9dbc 5cfb ebbd
00000060: 4334 39be 46aa 86bd 2a36 2ebd bd7c fbbc
00000070: 2167 7ebd 8625 22bd 5836 0dbd 9276 2bbd
00000080: 76c0 e9bd 900b b2bd 4a3d d2bd a826 eabd
00000090: 0285 cc3c 2efd 8fbd 1730 e3bd da06 efbd
000000a0: 9136 e8bd 4409 55bc b43b 8abd 7a86 f5bd
000000b0: 050b fbbd 8506 71bd 6895 5dbd 6d0a 0abd
000000c0: 176a abbd 1d56 1fbe 5054 95bd f764 a8bd
000000d0: 5dbc bfbd ef8a 31bd 18aa 10be 8be4 5dbd
000000e0: b872 acbd dfd3 b6bd d884 41be 0198 11be
000000f0: e2b9 15bd d03d 8dbd be5f dabc ba49 eebd

bn2.running_mean f4 [64]
-0.27574372 -0.49897447 -0.24546106 0.5863063 -0.67644536 0.35958478 -0.5473317 -0.2527693
-0.10272046 -0.35182148 -0.15349847 -0.46723366 0.30572718 -0.6243205 0.22898668 -0.55856186
-0.9990012 -0.5735999 -0.9952349 -0.18484427 -0.20339157 -0.47465268 0.50579447 -0.74483895
-0.035833932 -0.5410558 -0.2146826 0.5773822 -0.7042628 -0.33953187 -0.22983214 0.47474322
-0.5761484 -0.38242933 -0.5920895 -0.069847785 0.88777405 -0.63563013 -0.58723444 -0.3879033
-0.7832784 -0.2360344 -0.87063354 -0.73254925 -0.69589484 -0.49306732 0.051427662 0.20081455
-0.4192161 -0.6358524 0.48006698 -0.4573177 -0.7593098 -0.036802 -0.6767239 0.31553692
-0.45269668 -0.8995883 -0.50409025 0.41162297 -0.5174075 -0.14621218 -0.25039524 -0.5268048
00000000: 482e 8dbe 9579 ffbe 255a 7bbe 2b18 163f
00000010: 862b 2dbf 7f1b b83e ee1d 0cbf fa6a 81be
00000020: 1b5f d2bd f221 b4be b42e 1dbe 4039 efbe
00000030: 4688 9c3e 78d3 1fbf 7c7b 6a3e e9fd 0ebf
00000040: 8bbe 7fbf 71d7 12bf b7c7 7ebf d147 3dbe
00000050: e145 50be ad05 f3be bf7b 013f c4ad 3ebf
00000060: 9ac6 12bd a282 0abf c1d5 5bbe 52cf 133f
00000070: 914a 34bf 1fd7 adbe 1e59 6bbe 8b11 f33e
00000080: 767e 13bf c7cd c3be 2d93 17bf 5b0c 8fbd
00000090: 2945 633f a8b8 22bf ff54 16bf 439b c6be
000000a0: ef84 48bf 00b3 71be d7e1 5ebf 5988 3bbf
000000b0: 2a26 32bf 5273 fcbe d0a5 523d 54a2 4d3e
000000c0: 7ea3 d6be 39c7 22bf 57cb f53e 8c25 eabe
000000d0: 2162 42bf b2bd 16bd c73d 2dbf 0e8e a13e
000000e0: dcc7 e7be 6b4b 66bf 0f0c 01bf 3fc0 d23e
000000f0: d174 04bf a5b8 15be ce33 80be aedc 06bf

bn2.running_var f4 [64]
0.19703647 0.15940851 0.19350229 0.21408522 0.23998944 0.24646097 0.27909485 0.26053745
0.27946147 0.25794673 0.49547657 0.31156185 0.2710968 0.31880233 0.23127994 0.3273286
0.5227793 0.40764555 0.2932627 0.20800163 0.33202726 0.27853525 0.23471104 0.508665
0.20599611 0.38915583 0.33957964 0.28833094 0.52265286 0.30421433 0.29962885 0.34415364
0.27268556 0.2538783 0.33540604 0.30458748 0.38344887 0.47717872 0.34786674 0.36095163
0.35927856 0.62811273 0.4306378 0.30430204 0.39376074 0.24295585 0.49622568 0.24836457
0.2624619 0.2262849 0.18556316 0.34901106 0.46082726 0.47224236 0.43089345 0.2561394
0.33783478 0.32600302 0.21279031 0.31045184 0.4031463 0.2667294 0.2750985 0.26013878
00000000: eec3 493e fc3b 233e 7725 463e 2839 5b3e
00000010: cbbf 753e 4460 7c3e 85e5 8e3e 2a65 853e
00000020: 9315 8f3e 9811 843e 1baf fd3e 0985 9f3e
00000030: 33cd 8a3e 0f3a a33e a6d4 6c3e 9d97 a73e
00000040: ddd4 053f ebb6 d03e 8726 963e 61fe 543e
00000050: 7aff a93e 2c9c 8e3e 1758 703e df37 023f
00000060: a5f0 523e 6f3f c73e 62dd ad3e 1da0 933e
00000070: 94cc 053f fbc1 9b3e f468 993e e834 b03e
00000080: 719d 8b3e 56fc 813e 57ba ab3e e4f2 9b3e
00000090: 6953 c43e c550 f43e 971b b23e a7ce b83e
000000a0: 5cf3 b73e ffcb 203f 8f7c dc3e 7acd 9b3e
000000b0: 029b c93e 6bc9 783e 4b11 fe3e 4853 7e3e
000000c0: 6861 863e 3bb7 673e 4504 3e3e 94b1 b23e
000000d0: 8df1 eb3e c0c9 f13e 119e dc3e b424 833e
000000e0: aef8 ac3e dee9 a63e b4e5 593e 8bf3 9e3e
000000f0: 3169 ce3e c290 883e b6d9 8c3e e930 853e

conv3.weight f4 [128, 64, 3]
0.0032871787 0.057656135 -0.051146712 0.05057941 0.06398968 0.00094049535 -0.023462476 -0.0631007
-0.06026973 0.023344416 -0.00018335183 -0.012014994 -0.090662494 -0.026743155 -0.09409408 -0.06374244
-0.084678836 -0.044580303 0.011341914 0.035200074 -0.06297713 0.09181662 0.09566691 0.10545893
-0.05428553 -0.07914945 -0.048591316 0.085132666 0.08578649 0.050122645 -0.1094959 -0.06572929
-0.11649454 -0.008907021 -0.11195286 -0.05179647 -0.009990672 0.0013182908 0.0069039147 0.027096119
-0.055483904 -0.064139776 -0.057278387 0.015055989 -0.097794496 0.05339011 0.059884336 0.010963048
-0.034353353 -0.030885113 -0.11667281 0.04502075 -0.008871705 0.06938987 -0.03262808 0.02796366
-0.045348134 -0.016727336 0.07676765 0.030423667 0.019371366 0.030892903 0.025007548 0.026260879
-0.052785218 -0.02467454 -0.10647664 -0.09078753 -0.11361546 0.029160824 0.0059916736 -0.009326113
-0.045596574 -0.009277314 -0.055004865 -0.058999695 -0.04432361 -0.05544419 0.051141497 -0.03223067
0.04535864 -0.04837814 -0.032836422 -0.044617344 0.043133225 -0.026797634 0.017841771 -0.0010047962
0.015622389 -0.015510663 0.0034373344 0.10207541 0.06835097 -0.028735526 0.059093878 0.057453096
-0.06943479 -0.026193418 -0.08451004 0.0925957 0.0057720253 -0.0045646518 -0.00788595 -0.025471063
-0.043614745 -0.031598058 0.014340702 0.011485668 -0.12097227 -0.0640841 -0.062318932 -0.004758834
-0.03676799 0.024940176 -0.05642733 0.006428036 -0.031300686 -0.095245466 -0.018449876 -0.046734788
0.010878033 -0.046988055 -0.023782358 -0.0075197457 -0.084098734 -0.061873626 0.013059828 0.0010885845
-0.026023863 0.04408042 0.018999679 0.0013999742 -0.018631242 0.09064181 -0.040085305 -0.07776132
-0.09679275 -0.06967953 -0.019090278 0.0009615022 -0.01652431 0.026151739 0.042460334 0.00096592767
-0.023322018 0.011406725 0.06761651 0.06107803 0.016856086 0.06728599 0.027227908 0.040186636
0.0072782994 0.03573586 0.007792772 -0.03133288 0.054988082 0.030037686 0.026570825 -0.038186572
-0.06410323 -0.10788857 0.0027204442 -0.05683751 -0.023056187 0.023629138 0.041547053 0.025259234
-0.060353152 -0.093433894 -0.06901526 -0.083597496 -0.07610676 -0.107616 -0.04054828 -0.054269284
-0.042293638 0.07428717 0.040400386 0.09148826 0.050707754 -0.071922466 0.029770277 -0.019159548
0.04878003 0.05732567 0.009686132 0.0004970398 0.052080754 -0.0634619 -0.023190986 0.045684833
-0.037149668 -0.0025682517 -0.0624339 0.013073062 0.02376521 -0.017594596 0.0077369222 -0.028015416
-0.006142667 -0.016281389 -0.031515278 -0.02366335 -0.046892624 0.0011644458 -0.053054065 -0.03545046
-0.052285947 0.01659614 -0.0031629398 0.040877234 2.3485294e-05 0.013133718 0.05864557 0.047818817
-0.05423576 -0.064770095 -0.03312732 -0.003448923 -0.0116309235 -0.030974744 -0.08669742 -0.101825066
-0.106071785 -0.04253321 -0.10965118 -0.09078949 -0.019910622 0.01738493 -0.008311556 -0.007256114
-0.078996025 -0.035067152 -0.05775745 -0.07094955 -0.03680117 -0.0022733996 0.029635072 -0.04619185
-0.044034854 -0.03971961 -0.06748356 0.00856561 -0.03937819 0.025324294 0.0122697 -0.009124372
-0.061516114 0.0015471203 0.071889795 0.031952355 0.04333996 0.019910567 0.046505287 0.0074475366
00000000: b56d 573b d728 6c3d 377f 51bd 5b2c 4f3d
00000010: 050d 833d 938b 763a 6134 c0bc f13a 81bd
00000020: 64dd 76bd ca3c bf3c 2242 40b9 8ada 44bc
00000030: 42ad b9bd 7614 dbbc 66b4 c0bd 658b 82bd
00000040: 196c adbd d699 36bd 6fd3 393c f42d 103d
00000050: 27fa 80bd 5a0a bc3d 03ed c33d dafa d73d
00000060: 815a 5ebd 1b19 a2bd b007 47bd 095a ae3d
00000070: d4b0 af3d 674d 4d3d 633f e0bd 149d 86bd
00000080: b094 eebd c1ee 11bc 8b47 e5bd 8928 54bd
00000090: eaaf 23bc 80ca ac3a 3c3a e23b aef8 dd3c
000000a0: 1743 63bd b75b 83bd be9c 6abd 65ad 763c
000000b0: 7b48 c8bd 97af 5a3d 4749 753d 5b9e 333c
000000c0: 1ab6 0cbd c702 fdbc 27f2 eebd ae67 383d
000000d0: a15a 11bc 471c 8e3d 06a5 05bd 0c14 e53c
000000e0: f7be 39bd c407 89bc 5c38 9d3d 0e3b f93c
000000f0: b3b0 9e3c 1d13 fd3c a1dc cc3c 0e21 d73c
00000100: 5035 58bd 4322 cabc 6d10 dabd d0ee b9bd
00000110: 39af e8bd aee2 ee3c cd55 c43b 8ecc 18bc
00000120: 79c3 3abd e0ff 17bc c84c 61bd aaa9 71bd
00000130: ac8c 35bd 7219 63bd bf79 513d 4f04 04bd
00000140: fbc9 393d 2828 46bd 7c7f 06bd adc0 36bd
00000150: 77ac 303d b686 dbbc e828 923c 5eb3 83ba
00000160: 0cf5 7f3c 7020 7ebc e744 613b ea0c d13d
00000170: 98fb 8b3d c466 ebbc 6c0c 723d f053 6b3d
00000180: d433 8ebd 9493 d6bc 9a13 adbd d0a2 bd3d
00000190: 4223 bd3b 1393 95bb 1234 01bc b1a8 d0bc
000001a0: 60a5 32bd f76c 01bd 44f5 6a3c 622e 3c3c
000001b0: 4fc0 f7bd 863e 83bd 2342 7fbd feef 9bbb
000001c0: 089a 16bd 574f cc3c 5820 67bd 46a2 d23b
000001d0: 2635 00bd 0e10 c3bd 3224 97bc fa6c 3fbd
000001e0: c739 323c 8c76 40bd 38d3 c2bc 3368 f6bb
000001f0: f53b acbd 336f 7dbd e4f8 553c d6ae 8e3a
00000200: ff2f d5bc ac8d 343d 37a5 9b3c 577f b73a
00000210: 8ca0 98bc 6aa2 b93d 7d30 24bd 5441 9fbd
00000220: 473b c6bd 24b4 8ebd 3763 9cbc 520d 7c3a
00000230: fd5d 87bc 2c3c d63c e3ea 2d3d 4f36 7d3a
00000240: d10d bfbc 46e3 3a3c 867a 8a3d f52c 7a3d
00000250: c615 8a3c 3dcd 893d 100d df3c be9a 243d
00000260: cd7e ee3b c45f 123d 825a ff3b e856 00bd
00000270: 2f3b 613d 9811 f63c 0fab d93c 8669 1cbd
00000280: 8e48 83bd aff4 dcbd 7b49 323b 73ce 68bd
00000290: 54e0 bcbc e591 c13c 3e2d 2a3d 74ec ce3c
000002a0: de34 77bd 455a bfbd df57 8dbd 2a35 abbd
000002b0: dcdd 9bbd c765 dcbd f415 26bd 7849 5ebd
000002c0: 183c 2dbd df23 983d e07a 253d 325e bb3d
000002d0: efb2 4f3d 164c 93bd cce0 f33c 7cf4 9cbc
000002e0: 92cd 473d 52ce 6a3d 95b2 1e3c c74b 023a
000002f0: a152 553d 50f8 81bd 06fb bdbc 0520 3b3d
00000300: 402a 18bd 1d50 28bb b0ba 7fbd 6530 563c
00000310: 42af c23c 8b22 90bc 0286 fd3b 9680 e5bc
00000320: 6d48 c9bb 8c60 85bc 2a16 01bd a4d9 c1bc
00000330: 7b12 40bd 51a0 983a 384f 59bd 8034 11bd
00000340: ca29 56bd a1f4 873c 5349 4fbb e36e 273d
00000350: 4902 c537 ce2e 573c 5636 703d aadd 433d
00000360: 5126 5ebd 2fa6 84bd 83b0 07bd 5307 62bb
00000370: a18f 3ebc bfbe fdbc 6b8e b1bd a989 d0bd
00000380: 2a3c d9bd 4e37 2ebd cc90 e0bd d7ef b9bd
00000390: 9a1b a3bc d76a 8e3c 312d 08bc b2c4 edbb
000003a0: abc8 a1bd 93a2 0fbd 1393 6cbd ff4d 91bd
000003b0: d3bc 16bd 51fd 14bb 40c5 f23c aa33 3dbd
000003c0: e45d 34bd 08b1 22bd d234 8abd c656 0c3c
000003d0: 064b 21bd e574 cf3c da06 493c 647e 15bc
000003e0: 52f8 7bbd bec8 ca3a f53a 933d 79e0 023d
000003f0: 3e85 313d 7c1b a33c 547c 3e3d 770a f43b

bn3.weight f4 [128]
1.2028233 1.161862 1.0943881 1.1828709 1.1201537 1.161776 1.1456147 1.1927094
1.1372014 1.0916338 1.1911694 1.0765215 1.102471 1.1573764 1.0766389 1.134288
1.1788898 1.1431946 1.2835687 1.1733003 1.1183025 1.1708283 1.1075003 1.1554743
1.1382627 1.1152182 1.1468062 1.1852845 1.1883575 1.1442006 1.1596671 1.1098608
1.1145585 1.1817529 1.1070446 1.1946552 1.1367329 1.1991572 1.107296 1.2014093
1.0657883 1.1019087 1.0829614 1.131424 1.0938138 1.0932724 1.1901147 1.1870165
1.1892747 1.0710202 1.1719217 1.1985011 1.2261151 1.1839811 1.0935054 1.1964633
1.2363638 1.0684857 1.0894663 1.1809258 1.097775 1.2769156 1.1695081 1.1370972
1.1376114 1.2016932 1.094633 1.2006763 1.2023922 1.1176907 1.0935234 1.1594747
1.1428964 1.1613184 1.2082449 1.1138532 1.1962967 1.0658205 1.135075 1.0760875
1.1867663 1.1975625 1.1496032 1.1761477 1.092865 1.1667993 1.1083056 1.1550567
1.1632171 1.2140775 1.1912578 1.096603 1.1815377 1.2235456 1.096433 1.1733279
1.227447 1.2255452 1.1707726 1.059137 1.1969746 1.081098 1.1998385 1.1978667
1.267509 1.1785661 1.1647019 1.1909542 1.0970238 1.1740485 1.1395707 1.0887191
1.1398696 1.1692392 1.1523658 1.1558651 1.2633519 1.1303028 1.121397 1.2004354
1.0999641 1.0981232 1.1831733 1.1178169 1.1844538 1.1050549 1.1425431 1.0877057
00000000: 1df6 993f e5b7 943f e914 8c3f 5068 973f
00000010: 3261 8f3f 13b5 943f 81a3 923f b4aa 983f
00000020: d18f 913f a8ba 8b3f 3d78 983f 75cb 893f
00000030: c51d 8d3f e924 943f 4ecf 893f 5930 913f
00000040: dce5 963f 3354 923f fb4b a43f b42e 963f
00000050: 8924 8f3f b4dd 953f 92c2 8d3f 95e6 933f
00000060: 98b2 913f 78bf 8e3f 8cca 923f 67b7 973f
00000070: 191c 983f 2a75 923f f96f 943f eb0f 8e3f
00000080: daa9 8e3f ae43 973f a3b3 8d3f 76ea 983f
00000090: 7780 913f fc7d 993f e0bb 8d3f c8c7 993f
000000a0: c06b 883f 580b 8d3f 7b9e 8a3f 80d2 903f
000000b0: 1702 8c3f 5af0 8b3f ae55 983f 28f0 973f
000000c0: 273a 983f 3117 893f 8801 963f 7c68 993f
000000d0: 57f1 9c3f b18c 973f fcf7 8b3f b625 993f
000000e0: 2b41 9e3f 24c4 883f a273 8b3f 9428 973f
000000f0: e483 8c3f f871 a33f 71b2 953f 678c 913f
00000100: 409d 913f 15d1 993f ef1c 8c3f c3af 993f
00000110: fde7 993f 7d10 8f3f 93f8 8b3f ab69 943f
00000120: 6e4a 923f 15a6 943f c5a7 9a3f be92 8e3f
00000130: 4020 993f ce6c 883f 234a 913f 3cbd 893f
00000140: f5e7 973f ba49 993f 3326 933f 028c 963f
00000150: 00e3 8b3f ae59 953f f5dc 8d3f e6d8 933f
00000160: 4ce4 943f e466 9b3f 237b 983f 7d5d 8c3f
00000170: a13c 973f 249d 9c3f eb57 8c3f 9c2f 963f
00000180: fc1c 9d3f aade 9c3f e0db 953f cd91 873f
00000190: 7736 993f 6b61 8a3f 4f94 993f b253 993f
000001a0: bc3d a23f 41db 963f f414 953f 3071 983f
000001b0: 476b 8c3f 3947 963f 74dd 913f 265b 8b3f
000001c0: 3fe7 913f a1a9 953f b980 933f 63f3 933f
000001d0: 84b5 a13f c3ad 903f f089 8f3f dea7 993f
000001e0: a0cb 8c3f 4d8f 8c3f 3972 973f a014 8f3f
000001f0: 2f9c 973f 7072 8d3f da3e 923f f139 8b3f

bn3.bias f4 [128]
0.079114184 0.023508731 0.0171187 0.11075734 0.062352102 0.07513527 0.043518636 0.059370037
0.077523865 0.023726378 0.109859474 0.051318157 0.059039995 0.049260817 0.009051001 0.04878415
0.066136174 0.098195516 0.09107534 0.09510739 0.06764531 0.09943047 0.07577729 0.08810444
0.08741202 0.059215967 0.08351808 0.08697992 0.11567217 0.094024025 0.09654143 0.02891124
0.054780994 0.107200325 0.012400161 0.114344284 0.05729529 0.13118522 0.09293834 0.09535293
0.060683277 0.07265884 0.03294158 0.08520018 0.034550212 0.018595578 0.022272337 0.056175284
0.0883189 0.009492465 0.059702672 0.1096141 0.11387363 0.09050834 0.06460091 0.11750933
0.11585418 0.05914793 0.05524319 0.08127135 0.07518167 0.14694753 0.09214495 0.04018483
0.07104933 0.112539485 0.057477344 0.09441114 0.12737592 0.054144647 0.016507443 0.08513165
0.061093997 0.03164252 0.08557791 0.037499532 0.110865206 0.011500745 0.029848266 0.06603756
0.07468084 0.10091906 0.10124725 0.07450689 0.031401552 0.09192642 0.03680015 0.0891309
0.06280667 0.0830875 0.10428631 -0.028280227 0.110283576 0.0683041 0.03847591 0.1235621
0.08469196 0.10673133 0.099930115 0.01139136 0.09406171 0.019972086 0.12004659 0.12657146
0.11183934 0.058168598 0.08511272 0.08362143 0.044073693 0.06689466 0.092361115 -0.009390561
0.092630796 0.10347563 0.10185906 0.07607303 0.12342693 0.09292542 0.0877252 0.090708256
0.036506217 0.0993088 0.11827783 0.06819026 0.124431014 0.047421962 0.085359685 0.021984624
00000000: 9e06 a23d 6295 c03c 843c 8c3c bfd4 e23d
00000010: eb64 7f3d 85e0 993d 9940 323d ff2d 733d
00000020: d5c4 9e3d d25d c23c 01fe e03d fd32 523d
00000030: ecd3 713d b6c5 493d a64a 143c e4d1 473d
00000040: 6772 873d bb1a c93d b585 ba3d aac7 c23d
00000050: a089 8a3d 34a2 cb3d 2031 9b3d 1a70 b43d
00000060: 1305 b33d 718c 723d 870b ab3d 8722 b23d
00000070: 88e5 ec3d ab8f c03d 83b7 c53d 44d7 ec3c
00000080: 0962 603d d88b db3d 0b2a 4b3c 562d ea3d
00000090: 77ae 6a3d 6b55 063e 7556 be3d 6648 c33d
000000a0: 078f 783d 28ce 943d c0ed 063d 6f7d ae3d
000000b0: 8684 0d3d c155 983c 7a74 b63c 0e18 663d
000000c0: 8ae0 b43d 4986 1b3c ca8a 743d 5b7d e03d
000000d0: 9436 e93d 705c b93d 7b4d 843d bba8 f03d
000000e0: f544 ed3d 1a45 723d af46 623d 9871 a63d
000000f0: d9f8 993d 6a79 163e 7eb6 bc3d d998 243d
00000100: 5082 913d 1a7b e63d 5d6d 6b3d a15a c13d
00000110: d56e 023e c7c6 5d3d 9e3a 873c 8159 ae3d
00000120: b33d 7a3d 969b 013d 7943 af3d 1c99 193d
00000130: 4c0d e33d 9f6d 3c3c 5a84 f43c b33e 873d
00000140: 45f2 983d a7ae ce3d b85a cf3d 1197 983d
00000150: ea9e 003d eb43 bc3d c1bb 163d 438a b63d
00000160: c9a0 803d c729 aa3d 1094 d53d efab e7bc
00000170: 5bdc e13d 05e3 8b3d ea98 1d3d 200e fd3d
00000180: fa72 ad3d f595 da3d 29a8 cc3d d4a2 3a3c
00000190: 6da3 c03d 809c a33c fdda f53d f39b 013e
000001a0: 060c e53d 3242 6e3d 944f ae3d b641 ab3d
000001b0: 9e86 343d 1100 893d d327 bd3d deda 19bc
000001c0: 37b5 bd3d 08eb d33d 7c9b d03d 2dcc 9b3d
000001d0: 42c7 fc3d af4f be3d 45a9 b33d 40c5 b93d
000001e0: 8b87 153d 6a62 cb3d a63b f23d 56a7 8b3d
000001f0: b0d5 fe3d 883d 423d 0fd1 ae3d 1919 b43c

bn3.running_mean f4 [128]
-0.8014585 -0.8814895 0.4533654 -0.15288837 -1.1133538 -0.22663498 -0.4054606 -0.31805697
0.44904414 0.3211287 -0.038027756 -0.03541317 0.41930068 -0.87349206 0.46435946 -0.6617662
-0.8445172 -0.46447974 -0.21855098 -0.6253306 -0.9282312 0.37928453 -0.0034829236 0.5502919
-1.2073854 -0.5389576 -0.44151375 0.3437246 0.089009576 -0.42675462 0.40227914 0.6043038
0.09843388 -0.42944327 0.14346252 0.12312922 -0.9529135 0.45795703 -0.11121953 -0.97511256
0.25583708 -0.48300368 0.1332238 -0.31431925 -1.0028057 0.5714107 -0.6161425 0.45122
-0.94838333 0.08026669 -0.78333354 0.2582498 -0.097088166 -1.2392014 -0.28074002 0.14373007
-0.09821543 0.42747536 -0.18533261 -0.6463373 -0.5234045 0.026711805 0.29695043 -0.9581536
0.13118364 -0.11208365 -0.46889123 -0.88331306 0.20981447 0.075218014 0.8505926 -1.0497695
-0.24153954 -0.3619811 -0.9163399 -0.42292878 -0.008657381 0.5625013 -0.35292435 -0.029335048
-0.81161106 -1.1162907 0.054395687 -0.19710696 0.6105966 0.15773381 0.002350645 -0.3045465
-0.41750827 -0.07447903 0.2063412 0.7600562 -0.07909723 -0.7983993 0.2413575 0.45507565
-0.17386709 -0.048300426 0.13600361 -0.02524103 -0.04185681 0.41495568 0.47275087 -0.21862486
-0.18232565 -0.808179 -0.5287924 -0.22193667 -0.3652068 0.15698111 -0.5537284 -0.2953397
-0.36084875 0.59488165 -0.17238659 -0.6897956 -0.41739225 0.60268706 0.78425986 -0.68015563
-0.2084201 0.268377 -0.15052907 -0.46311137 0.13469453 -0.63103586 0.37510332 0.96407634
00000000: 622c 4dbf 4ca9 61bf 821f e83e c58e 1cbe
00000010: 6182 8ebf 0013 68be 8898 cfbe 5dd8 a2be
00000020: 1de9 e53e fb6a a43e fec2 1bbd 660d 11bd
00000030: 94ae d63e 2d9d 5fbf 86c0 ed3e 8269 29bf
00000040: 4732 58bf 4ad0 edbe d4cb 5fbe ab15 20bf
00000050: 8fa0 6dbf 9531 c23e c341 64bb eedf 0c3f
00000060: 9b8b 9abf 20f9 09bf 170e e2be acfc af3e
00000070: a74a b63d 957f dabe 88f7 cd3e a7b3 1a3f
00000080: b497 c93d fddf dbbe d7e7 123e 2c2b fc3d
00000090: 24f2 73bf 5879 ea3e 11c7 e3bd faa0 79bf
000000a0: 14fd 823e 424c f7be d26b 083e 74ee a0be
000000b0: f05b 80bf f947 123f 84bb 1dbf 4f06 e73e
000000c0: 40c9 72bf dd62 a43d 8c88 48bf 5139 843e
000000d0: 29d6 c6bd 279e 9ebf 28bd 8fbe fa2d 133e
000000e0: 2c25 c9bd 0dde da3e d5c7 3dbe 5c76 25bf
000000f0: d6fd 05bf b7d2 da3c e309 983e 8e49 75bf
00000100: 0155 063e 1d8c e5bd 8312 f0be ce20 62bf
00000110: 9bd9 563e e70b 9a3d 70c0 593f d95e 86bf
00000120: 2456 77be 9655 b9be 4095 6abf 1f8a d8be
00000130: b0d7 0dbc 1600 103f 80b2 b4be 0e50 f0bc
00000140: bec5 4fbf 9de2 8ebf 03ce 5e3d 68d6 49be
00000150: 0f50 1c3f f984 213e 470d 1a3b 85ed 9bbe
00000160: a5c3 d5be 7688 98bd 1c4b 533e 0b93 423f
00000170: bbfd a1bd e663 4cbf 6c26 773e adff e83e
00000180: 370a 32be abd6 45bd 8844 0b3e 47c6 cebc
00000190: 0c72 2bbd 1275 d43e 670c f23e 32df 5fbe
000001a0: 93b3 3abe d2e4 4ebf f05e 07bf 5e43 63be
000001b0: 63fc babe a8bf 203e 25c1 0dbf c436 97be
000001c0: 2bc1 b8be 2a4a 183f 1c86 30be 7296 30bf
000001d0: 70b4 d5be b349 1a3f 41c5 483f ae1e 2ebf
000001e0: 146c 55be b668 893e 4b24 1abe ef1c edbe
000001f0: 5ded 093e 918b 21bf 8b0d c03e b5cd 763f

bn3.running_var f4 [128]
0.117243804 0.10824038 0.13010266 0.1366047 0.15065794 0.1628358 0.11595131 0.13961843
0.15170091 0.15344542 0.14046128 0.18910469 0.2643953 0.09228017 0.14305349 0.11391303
0.12674113 0.19090883 0.12823443 0.102264814 0.08816247 0.122560054 0.16813372 0.16234173
0.12565012 0.11772765 0.1213395 0.29549578 0.1354049 0.16328864 0.1138276 0.1424672
0.12215876 0.12437317 0.13151205 0.19186793 0.11964498 0.15547529 0.16581206 0.10363369
0.2049888 0.21208242 0.14453532 0.20210907 0.09724152 0.18627411 0.12223287 0.1286292
0.08204496 0.10455492 0.123212144 0.15268339 0.12305999 0.121280655 0.13015488 0.11425174
0.15491089 0.20340633 0.1024065 0.14272225 0.124408424 0.15069792 0.15119992 0.120333664
0.26390404 0.10563759 0.10567928 0.09971018 0.119348034 0.1594818 0.21954224 0.12748355
0.104555175 0.12933931 0.11740864 0.0950371 0.13572946 0.15378755 0.1588361 0.21983963
0.13364089 0.11059142 0.18493839 0.13463004 0.15688623 0.117651284 0.11383915 0.09687687
0.13689089 0.12331649 0.11651064 0.20263346 0.13742906 0.11571105 0.14234138 0.11457214
0.15841106 0.14458849 0.15678006 0.14384717 0.2138765 0.1593951 0.113010325 0.13053401
0.14340052 0.102232665 0.09834622 0.13812822 0.10074474 0.1379635 0.14323202 0.14067903
0.1571235 0.1725544 0.10396241 0.12307406 0.16191699 0.1619003 0.24070527 0.13080883
0.10470662 0.22492997 0.1120689 0.121412374 0.1897765 0.11633682 0.10701751 0.1660384
00000000: 851d f03d 22ad dd3d a239 053e 1ae2 0b3e
00000010: 1346 1a3e 6ebe 263e e177 ed3d 22f8 0e3e
00000020: 7c57 1b3e cc20 1d3e 15d5 0f3e a9a4 413e
00000030: d25e 873e 63fd bc3d 9d7c 123e 3c4b e93d
00000040: 6dc8 013e 9b7d 433e e34f 033e 3770 d13d
00000050: 868e b43d c400 fb3d 3f2b 2c3e e93c 263e
00000060: 6daa 003e 321b f13d d880 f83d 394b 973e
00000070: 95a7 0a3e 2335 273e 721e e93d ece2 113e
00000080: 5f2e fa3d 5cb7 fe3d 18ab 063e 0779 443e
00000090: 6d08 f53d ea34 1f3e a3ca 293e e63d d43d
000000a0: 96e8 513e 222c 593e 1101 143e aef5 4e3e
000000b0: 9026 c73d a4be 3e3e 3a55 fa3d 5fb7 033e
000000c0: 3007 a83d e420 d63d a656 fc3d 0959 1c3e
000000d0: e006 fc3d fe61 f83d 5247 053e d1fc e93d
000000e0: f6a0 1e3e c049 503e 80ba d13d c825 123e
000000f0: d8c9 fe3d 8e50 1a3e 27d4 1a3e 7f71 f63d
00000100: 6e1e 873e 8558 d83d 616e d83d da34 cc3d
00000110: be6c f43d 324f 233e aecf 603e 0c8b 023e
00000120: 0621 d63d 8671 043e f173 f03d d0a2 c23d
00000130: aafc 0a3e 7c7a 1d3e eea5 223e a41d 613e
00000140: 28d9 083e c17d e23d 7d60 3d3e 75dc 093e
00000150: c9a6 203e 28f3 f03d 8024 e93d 6167 c63d
00000160: 202d 0c3e 5b8d fc3d 219d ee3d 257f 4f3e
00000170: 34ba 0c3e eaf9 ec3d f0c1 113e cca4 ea3d
00000180: 8236 223e 010f 143e f48a 203e ac4c 133e
00000190: 7102 5b3e 7838 233e f571 e73d b5aa 053e
000001a0: 96d7 123e 5c5f d13d be69 c93d 7c71 0d3e
000001b0: 4253 ce3d 4e46 0d3e 6aab 123e 2a0e 103e
000001c0: fce4 203e 1ab2 303e 3eea d43d 410e fc3d
000001d0: 91cd 253e 31c9 253e 717b 763e c0f2 053e
000001e0: 6d70 d63d 0b54 663e 6184 e53d 0da7 f83d
000001f0: c554 423e 0042 ee3d ff2b db3d f805 2a3e

fc1.weight f4 [64, 128]
0.07944013 -0.07408822 0.14634378 -0.07680316 0.05998375 0.048792597 -0.026314514 -0.024433937
0.0753311 -0.09430152 0.17035201 0.09649334 -0.046017606 -0.19291405 -0.078332916 -0.023926118
-0.09315494 0.15244724 0.15016672 0.010833593 -0.08518591 0.15076396 -0.008970562 0.09413075
0.039730303 -0.10871168 0.03857883 0.06508659 0.1790903 0.09375323 0.14228898 -0.030642303
-0.13427706 0.06417122 -0.045344133 0.06923422 -0.056154102 0.120765574 0.052875966 -0.029070767
0.02097207 0.05253925 0.06466506 -0.042262267 -0.10181327 0.012111938 0.04135465 0.13814865
-0.05986026 -0.068296745 0.037138797 -0.0075863386 0.14607252 -0.09786599 -0.120057575 0.14584516
0.09941934 -0.004899162 -0.094429836 -0.13672982 0.08748594 0.14387731 0.07374463 -0.0062340805
0.08555989 0.18672727 -0.06766366 -0.070058405 0.16698804 0.019101294 -0.055206206 -0.040846184
0.08657285 0.0013814983 -0.10818813 -0.02752523 0.22790526 -0.038277246 -0.050485123 -0.044009946
-0.024665799 -0.1426248 0.112886466 0.03007008 0.052038092 0.12504393 0.05073504 0.057560407
-0.100127876 0.20785603 -0.047514085 0.04196004 0.21942143 -0.1281408 0.013492301 0.15771954
0.044511545 0.1254888 0.03002496 0.013927632 0.109206535 0.018457584 0.096994504 0.20081213
0.12991752 -0.20027182 -0.07958436 0.13646162 -0.038449626 0.029677885 0.13603418 0.05092746
0.11916137 0.18762769 0.15309086 -0.021619314 0.06295084 0.09783142 0.14482625 0.17229845
-0.15628026 0.123180956 0.14788699 -0.115533136 0.052030273 0.13760632 0.2278973 -0.004530423
0.2302693 0.16970529 0.094811134 0.0007189872 0.038523577 0.093864925 -0.011986174 -0.06720562
0.11435395 -0.016658518 0.07130923 -0.046572655 -0.02773695 0.018119538 0.01508372 0.07043105
0.16021104 -0.016772129 0.23972964 0.17290817 0.028304093 0.12723246 0.029905716 0.062204827
0.035674863 0.0336658 -0.0735095 -0.049312826 -0.0063329698 -0.00879837 0.0232163 -0.08755267
-0.0067569395 0.12981103 0.11917408 -0.10384773 0.126336 0.117774956 -0.0165723 0.082152694
0.032170907 0.052241646 -0.03889072 -0.05293712 0.12524535 -0.056339208 0.08146205 0.12579328
0.0423444 0.004606855 0.17352593 -0.038623948 0.17431015 0.010351038 0.06262602 0.07445808
0.23390368 -0.07971969 0.04484732 -0.058939327 0.09966062 0.15666316 -0.097391434 0.10935385
-0.06671195 -0.040542386 -0.03908923 0.093978174 -0.078603156 -0.047738075 -0.047092535 0.08292128
0.11875243 -0.016557576 0.12279782 0.13653001 0.12858205 -0.08426419 -0.046974722 -0.04611666
-0.08746288 0.13143133 -0.06352253 -0.16152273 -0.09207873 0.09875935 0.16081853 0.20737478
-0.14606516 -0.10246063 0.060617432 -0.036461465 -0.10311308 0.14761735 -0.025535075 -0.033362314
-0.08196012 0.011328115 -0.053629305 -0.0140010975 -0.13820906 -0.048860744 -0.027671717 0.08408628
-0.106083624 -0.016002195 0.01808266 -0.01704713 0.11789169 0.12128171 0.16294567 0.08753981
0.115795024 0.086581245 0.15617473 -0.06697826 0.017836982 0.06956178 -0.014222199 0.23874371
0.00089254824 0.010228249 0.12096554 0.061606877 -0.063291684 0.064659186 -0.024354722 -0.103133656
00000000: 82b1 a23d 91bb 97bd 25db 153e fa4a 9dbd
00000010: 85b1 753d bfda 473d 8991 d7bc ae29 c8bc
00000020: 3147 9a3d 2821 c1bd c270 2e3e 4d9e c53d
00000030: f57c 3cbd 438b 45be 026d a0bd b500 c4bc
00000040: 04c8 bebd 211b 1c3e 4ec5 193e 627f 313c
00000050: f375 aebd de61 1a3e 44f9 12bc 9fc7 c03d
00000060: 3ebc 223d 3ba4 debd d604 1e3d 1e4c 853d
00000070: 7363 373e b201 c03d 34b4 113e 9105 fbbc
00000080: ed7f 09be 336c 833d c5ba 39bd acca 8d3d
00000090: d801 66bd f153 f73d 7894 583d d125 eebc
000000a0: 9ecd ab3c 6633 573d 1d6f 843d 331b 2dbd
000000b0: 7a83 d0bd 2671 463c 7e63 293d d776 0d3e
000000c0: 0830 75bd 2adf 8bbd da1e 183d d296 f8bb
000000d0: 0994 153e f76d c8bd bfe0 f5bd 6f58 153e
000000e0: 5e9c cb3d 2689 a0bb 6e64 c1bd e702 0cbe
000000f0: d42b b33d 9354 133e 6d07 973d 4247 ccbb
00000100: 063a af3d 6f35 3f3e 3f93 8abd c87a 8fbd
00000110: eafe 2a3e 517a 9c3c e71f 62bd 544e 27bd
00000120: 1b4d b13d 6413 b53a bd91 ddbd 977c e1bc
00000130: ff5f 693e 9ac8 1cbd 7dc9 4ebd c643 34bd
00000140: ee0f cabc 3c0c 12be 0531 e73d 8755 f63c
00000150: e525 553d 840b 003e 8ccf 4f3d 76c4 6b3d
00000160: d80f cdbd 36d8 543e 219e 42bd 4ade 2b3d
00000170: 03b0 603e 5837 03be d00e 5d3c 3b81 213e
00000180: bd51 363d 2380 003e e8f6 f53c b930 643c
00000190: ada7 df3d 5c34 973c 0ea5 c63d b2a1 4d3e
000001a0: 1909 053e 0e14 4dbe 20fd a2bd 98bc 0b3e
000001b0: 5b7d 1dbd 091f f33c 8b4c 0b3e 5099 503d
000001c0: e00a f43d 7921 403e dac3 1c3e fd1a b1bc
000001d0: 5fec 803d d75b c83d 554d 143e 016f 303e
000001e0: ef07 20be 4c46 fc3d b06f 173e a39c ecbd
000001f0: b21d 553d ace8 0c3e e95d 693e f173 94bb
00000200: b7cb 6b3e 39c7 2d3e 572c c23d 6a7a 3c3a
00000210: e6ca 1d3d 413c c03d a861 44bc 1aa3 89bd
00000220: 6732 ea3d 7277 88bc 930a 923d f8c2 3ebd
00000230: 9a38 e3bc 6d6f 943c b521 773c 283e 903d
00000240: 5d0e 243e b465 89bc b07b 753e d70e 313e
00000250: fcdd e73c 3a49 023e d5fc f43c 7dca 7e3d
00000260: ce1f 123d 26e5 093d 268c 96bd 3ffc 49bd
00000270: cd84 cfbb 0a27 10bc 1c30 be3c d04e b3bd
00000280: 5169 ddbb 2fed 043e 8a11 f43d 1eae d4bd
00000290: 395e 013e ff33 f13d a2c2 87bc ac3f a83d
000002a0: a4c5 033d 56fb 553d e04b 1fbd 98d4 58bd
000002b0: 5140 003e f1c3 66bd 93d5 a63d f4cf 003e
000002c0: 5271 2d3d 1af5 963b c8b0 313e 2534 1ebd
000002d0: 5c7e 323e 6697 293c 1242 803d 7a7d 983d
000002e0: 7284 6f3e 1444 a3bd d3b1 373d 5d6a 71bd
000002f0: de1a cc3d 4f6c 203e 2975 c7bd e9f4 df3d
00000300: 46a0 88bd c60f 26bd 071c 20bd a177 c03d
00000310: b1fa a0bd 0089 43bd 1ae4 40bd a2d2 a93d
00000320: 7934 f33d c1a3 87bc 6c7d fb3d 86ce 0b3e
00000330: 03ab 033e b492 acbd 9168 40bd d3e4 3cbd
00000340: bd1f b3bd ef95 063e 1a18 82bd 3766 25be
00000350: c693 bcbd 5842 ca3d 9dad 243e 0e5a 543e
00000360: 1b92 15be e1d6 d1bd fc49 783d 9e58 15bd
00000370: f32c d3bd 0129 173e ef2e d1bc eca6 08bd
00000380: b5da a7bd 8f99 393c 67aa 5bbd dc64 65bc
00000390: ad86 0dbe 3422 48bd ccaf e2bc 6d35 ac3d
000003a0: 5f42 d9bd 0917 83bc 1622 943c 6ca6 8bbc
000003b0: 3371 f13d 8c62 f83d 3bdb 263e 1248 b33d
000003c0: f125 ed3d 8251 b13d 45ec 1f3e e62b 89bd
000003d0: dd1e 923c 6876 8e3d 3a04 69bc 3b79 743e
000003e0: e6f9 693a 6394 273c c8bc f73d 7e57 7c3d
000003f0: 129f 81bd 096c 843d 8e83 c7bc bd37 d3bd
