runs/20260226_210340/best.pt (torch, 215157 bytes, 18 tensors)

conv1.weight f4 [32, 3, 7]
0.15658067 0.17732915 -0.017918145 0.16106176 -0.04236056 0.02826061 -0.107972786 0.21774904
0.19217496 -0.050567582 0.1844717 0.16080621 0.23669745 0.11959801 0.07004201 -0.0752472
0.16073222 0.047011126 -0.09134128 0.073063545 -0.08720464 0.022929389 -0.018372916 0.23497748
-0.15581897 -0.04415092 -0.005025892 -0.07238044 0.017932806 -0.23706754 0.22264741 -0.18104348
0.16810307 0.04581416 -0.041954294 0.0856408 0.05485045 0.18817824 0.011459903 -0.08474164
-0.022863658 -0.050544206 0.11882253 0.23759818 0.17049156 -0.034324795 0.17451705 0.13100731
0.16028735 -0.12337533 -0.18690442 -0.056150485 -0.1338198 0.2077065 0.093596764 0.11467861
0.05088116 0.0018065248 0.17845981 -0.13952813 0.0048582377 -0.13136367 0.059972543 -0.029910335
0.08605705 -0.022405239 0.19118723 -0.08595791 -0.072919406 -0.10947359 0.23823722 0.18633416
0.23863377 -0.15491371 -0.1940892 -0.13854665 -0.15676303 0.043318044 0.08389717 0.14281017
-0.11878698 -0.14548492 0.07408722 -0.10610508 0.15391499 -0.054530434 0.12746875 -0.15319523
-0.104991004 0.06937529 0.05435357 -0.015934113 0.19322272 0.2184778 -0.18543732 -0.11943264
0.23780651 -0.054505605 -0.07776797 -0.15826514 -0.023592507 0.086062595 -0.027275544 -0.12105745
-0.003930813 -0.13153103 -0.15326512 -0.078769565 -0.15589961 -0.15168536 0.22454794 0.06488537
0.11501415 -0.22179921 -0.12635724 0.01798899 0.12753664 -0.11010512 -0.01961549 -0.03925108
-0.004924311 -0.086921915 -0.1491004 -0.23607121 -0.22269931 -0.13276263 -0.05941954 -0.15346245
0.18429302 -0.046685264 0.1879782 0.08480654 -0.14466876 0.22405711 -0.011433509 -0.064170815
-0.19620256 -0.18777177 0.08154782 -0.05170996 0.022503274 -0.17625736 0.17899726 -0.1203906
0.027978282 0.12481719 0.21968476 0.15455866 0.18816203 -0.13721897 0.0695455 -0.09110338
-0.008376115 -0.16887537 0.18325302 -0.22187144 0.06901436 0.106141865 0.01852363 -0.23803203
0.16363236 0.01868065 -0.01625241 -0.15133102 0.123218074 0.01750996 0.01786759 0.23146255
0.08680861 -0.09255775 -0.08581995 0.01848432 0.17093086 0.0011843068 -0.08538747 -0.09183635
-0.22213742 0.096285895 0.18984275 -0.22266331 0.14006953 0.09446802 0.017307539 -0.052283227
0.12442222 0.11783914 0.08077404 -0.055409055 -0.109681495 -0.02456383 -0.036890388 -0.059618585
0.13070302 0.18124557 -0.05001447 -0.09584243 0.05107222 0.09275928 0.0954967 0.051622733
-0.14955214 -0.039918106 0.18678547 0.1081068 0.027471753 -0.0446499 -0.22408873 -0.23357823
-0.0977744 0.010378301 0.10994013 0.107699335 -0.1878278 -0.139229 -0.049483594 0.18752606
0.022698559 -0.03664005 0.11883412 -0.042466372 -0.14326763 0.19658089 -0.025176184 0.08870801
-0.113306955 0.23854427 0.2384786 0.13911441 -0.11987942 -0.17491479 -0.17627127 0.13679536
0.10416103 0.1896146 0.13099349 0.039357994 -0.04518981 -0.21541432 -0.07115202 -0.11306336
-0.025758298 -0.07670426 -0.008776606 -0.08702666 -0.025584646 -0.23664823 -0.23432045 0.051543772
-0.08912757 0.11738879 -0.019222304 -0.12669232 -0.023148587 -0.06519348 -0.06560969 -0.17511971
00000000: af56 203e c695 353e 13c9 92bc 60ed 243e
00000010: 4482 2dbd cb82 e73c d620 ddbd 9bf9 5e3e
00000020: 83c9 443e f41f 4fbd 26e6 3c3e 62aa 243e
00000030: d160 723e cdef f43d 2f72 8f3d 341b 9abd
00000040: fd96 243e bd8e 403d 2311 bbbd 57a2 953d
00000050: 5998 b2bd 6ad6 bb3c cc82 96bc f09d 703e
00000060: 028f 1fbe 98d7 34bd 3db0 a4bb 323c 94bd
00000070: d2e7 923c d5c1 72be affd 633e 7663 39be
00000080: 3623 2c3e a1a7 3b3d 44d8 2bbd 7264 af3d
00000090: deaa 603d ccb1 403e 51c2 3b3c 068d adbd
000000a0: 914c bbbc 7107 4fbd 3a59 f33d f04c 733e
000000b0: 5795 2e3e 2898 0cbd 99b4 323e c826 063e
000000c0: 5e22 243e 34ac fcbd df63 3fbe 0dfe 65bd
000000d0: 0f08 09be 03b1 543e a9af bf3d 9edc ea3d
000000e0: c368 503d eac8 ec3a 2bbe 363e 76e0 0ebe
000000f0: da31 9f3b 3384 06be c5a5 753d 8506 f5bc
00000100: ae3e b03d 318b b7bc 96c6 433e b30a b0bd
00000110: c556 95bd b133 e0bd 75f4 733e 62ce 3e3e
00000120: 695c 743e b3a1 1ebe 52bf 46be 2cdf 0dbe
00000130: 7d86 20be 436e 313d 48d2 ab3d d43c 123e
00000140: 9746 f3bd 00fa 14be 0abb 973d 9f4d d9bd
00000150: e49b 1d3e 4e5b 5fbd 2b87 023e 36df 1cbe
00000160: 8605 d7bd a214 8e3d d9a1 5e3d 4288 82bc
00000170: 2ddc 453e a5b8 5f3e 48e3 3dbe 1a99 f4bd
00000180: 8d83 733e 4541 5fbd d044 9fbd 4210 22be
00000190: 1345 c1bc 9641 b03d f670 dfbc f8ec f7bd
000001a0: 0dce 80bb 12b0 06be 88f1 1cbe f051 a1bd
000001b0: 26a4 1fbe 6853 1bbe e5ef 653e 9fe2 843d
000001c0: 8a8c eb3d 551f 63be cb63 01be a55d 933c
000001d0: f798 023e cb7e e1bd aab0 a0bc bec5 20bd
000001e0: 1d5c a1bb 1e04 b2bd c6ad 18be a7bc 71be
000001f0: 4a0b 64be edf2 07be e761 73bd 4325 1dbe
00000200: 4fb7 3c3e 0c39 3fbd 5b7d 403e 0daf ad3d
00000210: 0c24 14be 3a6f 653e 9d53 3bbc fd6b 83bd
00000220: 53e9 48be 3e47 40be 8b02 a73d d3cd 53bd
00000230: c958 b83c cf7c 34be 0f4b 373e 598f f6bd
00000240: b632 e53c 28a0 ff3d 0bf5 603e a044 1e3e
00000250: 8cad 403e 2183 0cbe df6d 8e3d 6994 babd
00000260: f93b 09bc aaed 2cbe aea6 3b3e 4432 63be
00000270: 6757 8d3d e860 d93d debe 973c abbe 73be
00000280: 3e8f 273e 2a08 993c c623 85bc 85f6 1abe
00000290: c259 fc3d 0c71 8f3c 0d5f 923c 8504 6d3e
000002a0: b6c8 b13d eb8e bdbd 5fc2 afbd 6e6c 973c
000002b0: 8008 2f3e be3a 9b3a a0df aebd b214 bcbd
000002c0: fe77 63be 8a31 c53d 2366 423e da01 64be
000002d0: 636e 0f3e 7378 c13d 8ac8 8d3c f026 56bd
000002e0: 14d1 fe3d a655 f13d dc6c a53d 9bf4 62bd
000002f0: b1a0 e0bd 163a c9bc 601a 17bd 9e32 74bd
00000300: 03d7 053e 7098 393e f9db 4cbd 0949 c4bd
00000310: 1b31 513d 94f8 bd3d c693 c33d 5c72 533d
00000320: 3224 19be 2b81 23bd b144 3f3e 1967 dd3d
00000330: 710c e13c d0e2 36bd 8477 65be 222f 6fbe
00000340: f23d c8bd c009 2a3c 4a28 e13d 7891 dc3d
00000350: ee55 40be 0c92 0ebe 4faf 4abd d506 403e
00000360: 54f2 b93c e113 16bd 4e5f f33d 38f1 2dbd
00000370: c0b4 12be 804c 493e 493e cebc 8cac b53d
00000380: 7a0d e8bd f344 743e bc33 743e 0274 0e3e
00000390: 5783 f5bd dd1c 33be 7580 34be 1514 0c3e
000003a0: 6152 d53d 542a 423e 2823 063e d935 213d
000003b0: f318 39bd 9295 5cbe 26b8 91bd c38d e7bd
000003c0: 1103 d3bc 2017 9dbd c1cb 0fbc 093b b2bd
000003d0: e496 d1bc ea53 72be b3f1 6fbe 901f 533d
000003e0: 8488 b6bd 8969 f03d 1878 9dbc a2bb 01be
000003f0: 1ba2 bdbc 2984 85bd 605e 86bd 9552 33be

bn1.weight f4 [32]
1.1039348 0.9963367 0.9962128 1.0891083 0.9809311 0.948601 1.0272206 1.0476772
0.99307543 0.9631331 1.0511968 0.995167 1.0226752 0.9548345 0.9634524 1.0068716
0.99026227 0.9510152 1.0026714 1.1302783 0.9972489 0.9976377 1.0930654 1.0380913
1.0227671 1.0820487 1.0598155 0.96825576 1.0245608 0.8892139 1.0118332 1.011199
00000000: bc4d 8d3f ec0f 7f3f cd07 7f3f e767 8b3f
00000010: 4d1e 7b3f 84d7 723f f77b 833f 491a 863f
00000020: 313a 7e3f e48f 763f 9e8d 863f 44c3 7e3f
00000030: 05e7 823f 0970 743f d1a4 763f 2be1 803f
00000040: d481 7d3f bb75 733f 8957 803f f6ac 903f
00000050: b44b 7f3f 2f65 7f3f 91e9 8b3f 2de0 843f
00000060: 08ea 823f 9280 8a3f 09a8 873f 9cdf 773f
00000070: cf24 833f 86a3 633f c083 813f f86e 813f

bn1.bias f4 [32]
-0.0138924755 -0.004610039 -0.053571083 0.01570657 -0.015076265 0.007495726 -0.003565197 -0.027673366
-0.11573509 -0.12473691 -0.016201336 -0.08449971 -0.012775443 -0.0087859165 -0.07712176 0.016106637
-0.041333914 -0.073653795 -0.048483495 0.00046430423 -0.03763532 0.015018831 -0.041069124 0.039891075
0.049750187 0.0245357 0.060149517 -0.06573236 0.0071539446 -0.04016626 0.010814336 -0.037906826
00000000: 449d 63bc cf0f 97bb 5a6d 5bbd 11ab 803c
00000010: 7002 77bc b59e f53b 15a6 69bb 41b3 e2bc
00000020: 8506 edbd 1176 ffbd aab8 84bc 2f0e adbd
00000030: 1750 51bc cef2 0fbc 03f2 9dbd 11f2 833c
00000040: c04d 29bd cdd7 96bd a196 46bd dc6d f339
00000050: 7e27 1abd 8b11 763c 1938 28bd d364 233d
00000060: dac6 4b3d 18ff c83c 575f 763d b09e 86bd
00000070: a36b ea3b 6085 24bd 9d2e 313c 3044 1bbd

bn1.running_mean f4 [32]
0.013544705 0.0017556213 0.0007441745 -0.0006564882 0.0011402303 -0.008623397 -0.0010577713 0.002527247
0.0002340548 0.001272654 0.002305095 -0.007146522 0.009226766 -0.0016666873 0.003593446 -0.00401284
-0.00035184235 0.0009777028 0.0005660886 -0.0010175795 0.00045277947 0.0001920472 0.006304843 -0.0006835205
-0.0019388819 0.0007280627 0.0071964455 0.0024303084 0.00073506654 0.0013856682 -0.0003234659 0.0010284096
00000000: 9cea 5d3c e01c e63a b514 433a 2d18 2cba
00000010: c873 953a 2649 0dbc eaa4 8aba 2ba0 253b
00000020: 9b6c 7539 2fcf a63a 1411 173b 5f2d eabb
00000030: dd2b 173c bf74 daba 0580 6b3b 247e 83bb
00000040: 7b77 b8b9 4326 803a 9065 143a 4d60 85ba
00000050: 0863 ed39 4760 4939 db98 ce3b 492e 33ba
00000060: 1522 feba 76db 3e3a 29d0 eb3b cf45 1f3b
00000070: 7bb1 403a 4f9f b53a dc96 a9b9 b3cb 863a

bn1.running_var f4 [32]
0.57832015 0.19964285 0.6645212 0.4692993 0.2602819 0.5260755 0.39619684 0.24680232
0.22773223 0.3223143 0.34917778 0.4551325 0.4647672 0.4100138 0.3420267 0.45208642
0.4779411 0.36569327 0.20808828 0.23315153 0.21210262 0.32892776 0.49741635 0.34816802
0.53112656 0.29249072 0.54455525 0.5173939 0.2659607 0.20960347 0.3992575 0.17105925
00000000: ca0c 143f 2d6f 4c3e 101e 2a3f ff47 f03e
00000010: ab43 853e e2ac 063f 50da ca3e bfb9 7c3e
00000020: a332 693e 6106 a53e 6ec7 b23e 2107 e93e
00000030: f7f5 ed3e 54ed d13e 201e af3e df77 e73e
00000040: b2b4 f43e 263c bb3e 1815 553e 46bf 6e3e
00000050: 6e31 593e 3869 a83e 5bad fe3e 1443 b23e
00000060: e9f7 073f 58c1 953e f967 0b3f ed73 043f
00000070: 002c 883e 4ba2 563e 7b6b cc3e 282a 2f3e

conv2.weight f4 [64, 32, 5]
0.07634458 0.022449076 -0.0366244 0.07436437 -0.07078864 0.021459319 -0.07156958 -0.007615831
0.050325457 0.0106678475 0.015690865 0.05426543 0.012793991 0.12656116 0.011893434 0.00969554
-0.071068496 -0.024621375 0.0851587 0.12377684 0.010445445 0.12696962 0.0030403456 0.042620663
0.04991511 0.082329616 -0.011606813 0.07993219 0.027704855 -0.03434397 -0.0039308476 -0.03340078
0.045378026 -0.083160974 -0.043246433 -0.047514528 -0.007346365 -0.0004478352 0.059188064 0.08052191
0.042137925 -0.104135334 0.11118585 0.115460865 0.036258843 -0.03171082 0.015992573 0.029281635
-0.042367645 0.010625924 0.0112940455 0.043082498 -0.03739784 0.015018514 0.048689634 -0.12704706
-0.12684293 -0.10627915 0.045501217 -0.10186509 -0.124387205 -0.015578566 0.018314041 0.016926477
-0.12637815 -0.012756637 0.031475347 0.020653402 0.02838871 0.012337563 0.02504945 0.065689445
-0.11714325 -0.05440373 0.014488934 -0.05799716 -0.06529867 0.04291318 0.014446915 0.046396654
-0.05271835 0.026873695 0.064886875 -0.06992695 -0.0084989555 -0.053145885 -0.09360673 0.0435052
-0.022597345 -0.062161695 0.049254823 -0.02966913 -0.06503712 0.003627741 0.05862993 -0.07619202
-0.05764599 0.07731919 0.0029559822 0.040383972 -0.10272936 -0.05575792 -0.017475229 -0.03562545
-0.02676311 0.014866291 0.0024987499 0.008227511 0.0069844336 -0.021087896 0.0094843265 -0.010999473
-0.07792592 -0.105962455 0.026720572 0.029227663 -0.073625594 0.05985177 -0.036727294 0.045357615
0.031536352 -0.076906055 0.04593715 -0.12544793 -0.046385694 0.025812494 -0.0795858 0.08328431
-0.0035484608 -0.0036074673 0.0067772083 0.056653555 -0.0076592714 -0.054859467 0.011018328 0.04677012
0.06060079 -0.05980404 -0.068702385 -0.020276155 0.0070353798 0.031344395 -0.0031522904 -0.057780582
0.033524573 -0.024158608 -0.031143425 0.0460378 0.014490358 0.0650495 -0.08568097 -0.0869355
-0.020201426 -0.005742039 0.016737659 -0.02633359 0.114275955 0.023834769 0.06491604 0.0027698562
-0.127057 -0.09568278 -0.1129438 -0.055946596 -0.12587011 0.03032362 -0.023105565 -0.053815737
0.011593842 -0.064274 -0.053895835 -0.06043959 0.0028293782 -0.036462218 0.03314207 -0.06408115
-0.018484937 0.06776722 0.010421688 -0.12392584 -0.025347374 0.067143135 -0.05024516 0.056285013
0.059952233 0.033715986 0.06270445 0.057577297 -0.011932149 -0.10524161 0.06767569 -0.055705275
-0.070677176 0.08546311 0.06632247 0.0105281 -0.11948907 -0.00089295924 9.078819e-05 0.11831734
0.062529095 0.002940043 -0.034662385 0.020010017 0.039422236 0.009303833 0.045334868 -0.038958814
-0.03210746 0.0027662097 -0.02304948 0.061252277 0.009672995 0.023838371 0.047106013 -0.037103545
-0.086858645 -0.0033646917 -0.00061177264 0.0063527175 -0.011500854 0.03219035 0.095318176 0.07919136
-0.029908508 -0.045502186 -0.021028683 -0.06376968 0.046370327 0.027939562 0.061218098 -0.03279533
0.00397295 0.021992823 -0.07724993 -0.02599034 -0.009766446 -0.069560885 -0.08191147 0.02252804
0.071731135 0.0059018177 0.038470965 -0.03251349 -0.05184869 0.0674142 -0.04076143 -0.010713446
-0.05206416 0.045425974 -0.08873037 -0.033185355 0.10202676 -0.0073616416 0.0057561155 0.08172214
00000000: 8c5a 9c3d 20e7 b73c 7803 16bd 594c 983d
00000010: a2f9 90bd 74cb af3c 1293 92bd 398e f9bb
00000020: 1122 4e3d 32c8 2e3c 218a 803c 6d45 5e3d
00000030: e39d 513c 4099 013e aedc 423c 0bda 1e3c
00000040: 5c8c 91bd c4b2 c9bc af67 ae3d b67e fd3d
00000050: 5f23 2b3c 5304 023e 8940 473b 0193 2e3d
00000060: c973 4c3d 6e9c a83d 812a 3ebc 7db3 a33d
00000070: 4bf5 e23c 43ac 0cbd 57ce 80bb 42cf 08bd
00000080: 4fde 393d 4d50 aabd 2c23 31bd 989e 42bd
00000090: c7b9 f0bb 6ccb eab9 2f6f 723d ace8 a43d
000000a0: d198 2c3d e844 d5bd 68b5 e33d bf76 ec3d
000000b0: 2784 143d 34e3 01bd db02 833c 0ae0 ef3c
000000c0: b289 2dbd 5b18 2e3c a90a 393c 4677 303d
000000d0: 7a2e 19bd 3710 763c c86e 473d a018 02be
000000e0: 1de3 01be e2a8 d9bd 7c5f 3a3d a59e d0bd
000000f0: b8be febd 3e3d 7fbc 5407 963c 65a9 8a3c
00000100: 4669 01be 3701 51bc 4bec 003d 5331 a93c
00000110: 718f e83c 7d23 4a3c 8134 cd3c 3088 863d
00000120: cde8 efbd 72d6 5ebd fe62 6d3c 6e8e 6dbd
00000130: 4fbb 85bd bbc5 2f3d c1b2 6c3c 6b0a 3e3d
00000140: 32ef 57bd 3926 dc3c 69e3 843d dc35 8fbd
00000150: 343f 0bbc 80af 59bd e3b4 bfbd 8232 323d
00000160: 111e b9bc 439d 7ebd 6dbf 493d ad0c f3bc
00000170: 2e32 85bd 65bf 6d3b f025 703d 900a 9cbd
00000180: 341e 6cbd 8659 9e3d 27b9 413b aa69 253d
00000190: c563 d2bd 6b62 64bd 3628 8fbc feeb 11bd
000001a0: 4f3e dbbc be91 733c 11c2 233b afcc 063c
000001b0: addd e43b 86c0 acbc 2664 1b3c 2237 34bc
000001c0: a097 9fbd d802 d9bd 1ae5 da3c da6e ef3c
000001d0: 04c9 96bd 2127 753d 5c6f 16bd e8c8 393d
000001e0: 432c 013d ec80 9dbd 9828 3c3d 6c75 00be
000001f0: edfe 3dbd b974 d33c e1fd a2bd f790 aa3d
00000200: 4b8d 68bb 426b 6cbb 5813 de3b 8f0d 683d
00000210: a0fa fabb 52b4 60bd 3886 343c 0692 3f3d
00000220: 8938 783d 15f5 74bd d6b3 8cbd 2e1a a6bc
00000230: 0b89 e63b fb62 003d a896 4ebb 55ab 6cbd
00000240: 1051 093d 46e8 c5bc 7f20 ffbc 2292 3c3d
00000250: f768 6d3c ac38 853d 8179 afbd 3d0b b2bd
00000260: 767d a5bc b727 bcbb 6a1d 893c 8ab9 d7bc
00000270: 8309 ea3d 2241 c33c b3f2 843d 7a86 353b
00000280: 3b1b 02be 55f5 c3bd 144f e7bd 4228 65bd
00000290: 18e4 00be 3e69 f83c e247 bdbc e46d 5cbd
000002a0: 19f4 3d3c 16a2 83bd e1c1 5cbd 818f 77bd
000002b0: 176d 393b 6859 15bd fbbf 073d fa3c 83bd
000002c0: b96d 97bc 8ac9 8a3d babf 2a3c d5cc fdbd
000002d0: 4ca5 cfbc 5782 893d decd 4dbd 1d8b 663d
000002e0: 7990 753d c619 0a3d 316b 803d 2cd6 6b3d
000002f0: 0f7f 43bc ea88 d7bd 8d99 8a3d 372b 64bd
00000300: 32bf 90bd 4807 af3d 13d4 873d 0d7e 2c3c
00000310: afb6 f4bd 7b15 6aba 8a65 be38 5d50 f23d
00000320: 410f 803d bdad 403b 25fa 0dbd 0cec a33c
00000330: 3679 213d 1b6f 183c 0eb1 393d 4793 1fbd
00000340: 1d83 03bd 4c49 353b 43d2 bcbc abe3 7a3d
00000350: 7b7b 1e3c b048 c33c 3cf2 403d e3f9 17bd
00000360: f2e2 b1bd 2982 5cbb 5e5f 20ba 752a d03b
00000370: 146e 3cbc 07da 033d 2d36 c33d 142f a23d
00000380: b002 f5bc 8060 3abd 5844 acbc ae99 82bd
00000390: d0ee 3d3d 82e1 e43c d4bf 7a3d 6554 06bd
000003a0: 852f 823b 4b2a b43c 3635 9ebd b2e9 d4bc
000003b0: 7203 20bc f075 8ebd 33c1 a7bd b98c b83c
000003c0: c6e7 923d 0964 c13b bb93 1d3d de2c 05bd
000003d0: 4b5f 54bd 7510 8a3d 75f5 26bd 7387 2fbc
000003e0: 3b41 55bd 9610 3a3d 45b8 b5bd 5eed 07bd
000003f0: 68f3 d03d ed39 f1bb cc9d bc3b f05d a73d

bn2.weight f4 [64]
0.9574085 0.9841475 0.9496183 0.93382674 1.0098773 0.94792616 0.9778984 1.009541
0.9240986 0.955324 1.0513997 1.0817069 0.98511565 1.005111 0.9362106 0.97636193
1.0309047 0.98707134 1.0049343 1.0195029 0.95799375 1.0036552 1.0184073 1.0060167
1.0543807 1.0172172 1.0665623 0.924864 0.97953343 0.99104565 1.0361559 0.95035577
0.93576974 1.0080996 1.0005082 0.99491495 0.988375 0.9546437 0.97091633 1.0255387
0.9976264 1.0091591 0.9779923 1.0277364 1.0140005 0.9755822 0.9200697 0.9837619
0.9620871 1.011518 1.026793 0.9984101 1.0067785 1.0081332 1.0497859 0.99481815
1.0578029 1.001845 1.0408057 0.96107924 1.0430858 0.9811564 0.9922842 1.0448592
00000000: b918 753f 17f1 7b3f 2f1a 733f 450f 6f3f
00000010: a943 813f 4aab 723f 8d57 7a3f a438 813f
00000020: ba91 6c3f 1d90 743f 4494 863f 5f75 8a3f
00000030: 8a30 7c3f 7aa7 803f 7fab 6f3f dbf2 793f
00000040: aff4 833f b5b0 7c3f b0a1 803f 127f 823f
00000050: 143f 753f c677 803f 2c5b 823f 28c5 803f
00000060: f2f5 863f 2c34 823f 1d85 883f e3c3 6c3f
00000070: b4c2 7a3f 2bb5 7d3f c2a0 843f 844a 733f
00000080: 9b8e 6f3f 6809 813f a710 803f bfb2 7e3f
00000090: 2506 7d3f 8863 743f f98d 783f da44 833f
000000a0: 7264 7f3f 202c 813f b45d 7a3f de8c 833f
000000b0: c5ca 813f c1bf 793f b089 6b3f d2d7 7b3f
000000c0: 574b 763f 6c79 813f f46d 833f ce97 7f3f
000000d0: 1ede 803f 820a 813f 625f 863f 67ac 7e3f
000000e0: 1666 873f 753c 803f 1f39 853f 4a09 763f
000000f0: d683 853f 112d 7b3f 5606 7e3f f2bd 853f

bn2.bias f4 [64]
-0.10679888 -0.1488933 -0.18710336 -0.11526649 -0.16879627 -0.03923163 -0.084872894 -0.11609571
-0.12647189 -0.13413052 -0.094117075 -0.13077658 -0.09164376 -0.13720421 -0.076476514 -0.08574904
-0.0923308 -0.08861019 -0.07321429 -0.10769073 -0.09475489 -0.09941674 -0.015521717 -0.11721897
-0.16631593 -0.07735089 -0.052284423 -0.022640789 -0.06726336 -0.044838227 -0.045626063 -0.05456179
-0.14551781 -0.093407005 -0.113963194 -0.12212817 0.0027961999 -0.08033743 -0.109706126 -0.12226889
-0.14085115 -0.020522114 -0.09107701 -0.11484417 -0.13459617 -0.09032595 -0.06270818 -0.062550634
-0.119534634 -0.15972635 -0.087274484 -0.08401987 -0.09745189 -0.05123371 -0.15221907 -0.066490084
-0.097271696 -0.10773743 -0.2032735 -0.15265879 -0.039179605 -0.075455464 -0.023813922 -0.14715278
00000000: 5fb9 dabd 7c77 18be 0698 3fbe d610 ecbd
00000010: eed8 2cbe 58b1 20bd d7d1 adbd 96c3 edbd
00000020: d981 01be 8359 09be 74c0 c0bd 4cea 05be
00000030: b9af bbbd 437f 0cbe b89f 9cbd 319d afbd
00000040: ee17 bdbd 4279 b5bd 60f1 95bd f58c dcbd
00000050: da0e c2bd 019b cbbd cd4e 7ebc 8010 f0bd
00000060: b94e 2abe 256a 9ebd 3128 56bd 2d79 b9bc
00000070: 5fc1 89bd 4aa8 37bd 65e2 3abd 2f7c 5fbd
00000080: 9f02 15be 2c4c bfbd 8965 e9bd 561e fabd
00000090: 7340 373b f387 a4bd 9bad e0bd 1d68 fabd
000000a0: 493b 10be fe1d a8bc 9586 babd 6c33 ebbd
000000b0: 94d3 09be d0fc b8bd 256d 80bd 8c1a 80bd
000000c0: 93ce f4bd 4e8f 23be f7bc b2bd 9c12 acbd
000000d0: db94 c7bd 70da 51bd 51df 1bbe f42b 88bd
000000e0: 6236 c7bd 71a5 dcbd ee26 50be 9652 1cbe
000000f0: cb7a 20bd 6588 9abd 6a15 c3bc 38af 16be

bn2.running_mean f4 [64]
-0.08855979 -0.3190059 -0.19751963 0.6175603 -0.6129364 0.29183257 -0.60933924 -0.27472228
-0.15921563 -0.3883445 -0.17980805 -0.4939143 0.24124412 -0.5884359 0.22020969 -0.6383898
-1.0654728 -0.47999543 -0.9941991 -0.41863966 -0.16266835 -0.44022813 0.32352057 -0.7315832
-0.12933676 -0.57822233 -0.18234959 0.603809 -0.58129174 -0.40760916 -0.27342668 0.51731366
-0.6054384 -0.4177076 -0.67722166 -0.070019655 0.7657913 -0.5033693 -0.73125637 -0.38084602
-0.742793 -0.24390635 -0.8899067 -0.7319695 -0.6447071 -0.19105512 -0.07494749 0.1911105
-0.30968437 -0.62935144 0.40446383 -0.40974215 -0.76737314 -0.0057222857 -0.7065077 0.32502246
-0.4647576 -0.84183073 -0.4469085 0.40253115 -0.53085047 -0.068870716 -0.32336187 -0.5567374
00000000: d65e b5bd be54 a3be 9642 4abe 6f18 1e3f
00000010: 66e9 1cbf 146b 953e a8fd 1bbf 66a8 8cbe
00000020: 6c09 23be 17d5 c6be 9a1f 38be 56e2 fcbe
00000030: b308 773e bca3 16bf a67e 613e 846d 23bf
00000040: 6a61 88bf f6c1 f5be d583 7ebf f057 d6be
00000050: 8892 26be 9565 e1be 7da4 a53e 0949 3bbf
00000060: db70 04be 6106 14bf dab9 3abe 3a93 1a3f
00000070: 89cf 14bf 26b2 d0be 95fe 8bbe ab6e 043f
00000080: 03fe 1abf c5dd d5be 665e 2dbf 7766 8fbd
00000090: e60a 443f cfdc 00bf 9e33 3bbf 40fe c2be
000000a0: af27 3ebf 96c2 79be edd0 63bf 5a62 3bbf
000000b0: 860b 25bf f4a3 43be 127e 99bd 79b2 433e
000000c0: f38e 9ebe 2d1d 21bf e215 cf3e b9c9 d1be
000000d0: 9172 44bf 0382 bbbb b0dd 34bf 5869 a63e
000000e0: b5f4 edbe 3882 57bf 31d1 e4be 9018 ce3e
000000f0: d1e5 07bf 170c 8dbd b08f a5be 5886 0ebf

bn2.running_var f4 [64]
0.18419604 0.15289265 0.17838536 0.22832203 0.2301251 0.22597039 0.28585315 0.2793283
0.26767448 0.25691494 0.5055604 0.29822102 0.25278375 0.29443237 0.22157672 0.43261203
0.5199208 0.36545548 0.30178565 0.20240292 0.32361302 0.26715326 0.1987419 0.542704
0.19914338 0.38390005 0.32655197 0.29782447 0.47405782 0.32684535 0.35983965 0.36313972
0.28464225 0.27115235 0.32535082 0.24853031 0.37366623 0.4396201 0.378057 0.33321908
0.35053766 0.6166457 0.44920507 0.37321478 0.37139493 0.22754946 0.4607735 0.22938019
0.20994177 0.22563823 0.18998127 0.33744428 0.48188972 0.40816852 0.4922691 0.26073107
0.32680154 0.33589953 0.19705226 0.36579072 0.39537668 0.2810509 0.30830768 0.27468514
00000000: e39d 3c3e e48f 1c3e a7aa 363e 40cd 693e
00000010: eaa5 6b3e c864 673e 585b 923e 1e04 8f3e
00000020: a10c 893e 5b8a 833e 686c 013f 6db0 983e
00000030: df6c 813e d7bf 963e 02e5 623e 537f dd3e
00000040: 8819 053f fb1c bb3e a683 9a3e b642 4f3e
00000050: 9bb0 a53e 50c8 883e ff82 4b3e a6ee 0a3f
00000060: 3eec 4b3e 8c8e c43e d231 a73e 737c 983e
00000070: b5b7 f23e 4658 a73e e73c b83e 73ed b93e
00000080: a1bc 913e 7bd4 8a3e 6294 a63e bb7e 7e3e
00000090: 2e51 bf3e e315 e13e b090 c13e b19b aa3e
000000a0: ac79 b33e 7edc 1d3f 35fe e53e 0216 bf3e
000000b0: 7a27 be3e ba02 693e 81ea eb3e a4e2 6a3e
000000c0: fafa 563e b50d 673e 738a 423e 7fc5 ac3e
000000d0: 40ba f63e 77fb d03e b20a fc3e 8b7e 853e
000000e0: 8852 a73e 06fb ab3e 11c8 493e ec48 bb3e
000000f0: d06e ca3e e7e5 8f3e 81da 9d3e 88a3 8c3e

conv3.weight f4 [128, 64, 3]
-0.0011917723 0.05879169 -0.030079117 0.064164884 0.055771597 0.015362879 -0.02518035 -0.048589725
-0.04153049 0.020638604 -0.0003828176 -0.016047025 -0.07811575 -0.02047176 -0.11189492 -0.06649668
-0.0781971 -0.044437904 0.015581878 0.031553213 -0.050140653 0.08667153 0.087519415 0.098577596
-0.052188378 -0.08049196 -0.036464754 0.089736596 0.09054055 0.059050333 -0.11740936 -0.0587045
-0.10263764 0.02680023 -0.099392936 -0.01564357 -0.0058472324 0.01987118 0.008128091 0.025488181
-0.060465474 -0.06326186 -0.05893672 0.029078431 -0.08796319 0.042391796 0.052212622 0.008539886
-0.038064525 -0.031893633 -0.11829862 0.05410145 0.007627705 0.08267155 -0.049026158 0.009278721
-0.07944752 -0.016439091 0.088001736 0.035352744 0.018318815 0.03502273 0.016858011 0.011519652
-0.053555906 -0.025165237 -0.11669584 -0.09440297 -0.11773945 0.022437466 0.017394949 -0.010525045
-0.038828373 0.0008045071 -0.052456506 -0.052816834 -0.030376699 -0.05299654 0.06272912 -0.042752076
0.031692777 -0.05897011 -0.035929378 -0.040526886 0.045116715 -0.02954318 0.0192447 -0.011917388
0.008004544 -0.016564514 -0.010700287 0.09334289 0.08404699 -0.027049437 0.059529874 0.054762278
-0.074985 -0.030979302 -0.09369994 0.08110025 0.0023992006 0.0021809326 -0.016922912 -0.034120765
-0.058242917 -0.025661021 0.018297566 0.015620216 -0.11851258 -0.070587605 -0.06166456 -0.010457494
-0.035523985 0.017432481 -0.027840085 -0.009213579 -0.0170605 -0.09752905 -0.004032135 -0.03734095
0.003753836 -0.046586283 -0.03044347 -0.005334375 -0.07879924 -0.058202993 0.010320616 -0.013044436
-0.024867352 0.055053808 0.024673317 0.0010389729 -0.012556158 0.10120642 -0.022166036 -0.088972285
-0.08821217 -0.05520064 -0.0019061676 0.020990167 0.0051230984 0.033447023 0.025913747 -0.011175678
-0.0136210015 0.007320654 0.0726562 0.061680354 0.019717075 0.06514238 0.02250516 0.045162216
0.0086967 0.04225864 0.0009530372 -0.033706583 0.07167432 0.041294534 0.042239897 -0.04091721
-0.07131674 -0.10542911 0.0037138117 -0.05351955 -0.008821533 0.020445857 0.042041615 0.032528885
-0.042881843 -0.09546807 -0.059443407 -0.07981134 -0.077236176 -0.10500598 -0.022619775 -0.053733665
-0.037964765 0.07473087 0.041298527 0.08603767 0.053877342 -0.059233718 0.037737183 -0.014663843
0.04129163 0.045437474 0.0011084019 -0.0056277676 0.041898437 -0.070501275 -0.03389918 0.04606309
-0.030498145 0.030562382 -0.042921875 0.018642958 0.025843559 0.011912185 0.022099972 -0.024922505
0.007683414 -0.016816322 -0.03491706 -0.021284815 -0.04318782 0.019110283 -0.06572146 -0.03453007
-0.04959041 0.015420835 0.0064738155 0.033488166 -0.003644286 0.020321025 0.056102302 0.04319621
-0.06659395 -0.057924297 -0.043281693 0.015532202 -0.0026959574 -0.01586302 -0.09401061 -0.10627805
-0.098767124 -0.04690743 -0.108906634 -0.07664571 -0.026458891 0.03020058 -0.010526047 -0.015574954
-0.07667363 -0.028755099 -0.051500876 -0.06524781 -0.03264439 -0.0022013756 0.028996417 -0.05493773
-0.056174766 -0.047554605 -0.08573113 0.01042332 -0.04308518 0.032625746 -0.0019331193 -0.017436221
-0.09537092 -0.0033221738 0.08527391 0.040897567 0.031377513 0.013629846 0.033356197 0.009838612
00000000: 3e35 9cba 8ecf 703d 7b68 f6bc e168 833d
00000010: c270 643d 96b4 7b3c 0547 cebc 0506 47bd
00000020: e01b 2abd 4a12 a93c e9b4 c8b9 0d75 83bc
00000030: 26fb 9fbd 64b4 a7bc 2a29 e5bd 692f 88bd
00000040: cd25 a0bd 8504 36bd 224b 7f3c f13d 013d
00000050: 4960 4dbd d880 b13d 613d b33d 0de3 c93d
00000060: 7bc3 55bd f8d8 a4bd 115c 15bd d2c7 b73d
00000070: 536d b93d c3de 713d 5274 f0bd 2174 70bd
00000080: af33 d2bd 288c db3c 868e cbbd f226 80bc
00000090: 249a bfbb e3c8 a23c af2b 053c 97cc d03c
000000a0: a5aa 77bd 6f8f 81bd a167 71bd e435 ee3c
000000b0: 0c26 b4bd 05a3 2d3d e7dc 553d e1ea 0b3c
000000c0: 8ce9 1bbd e6a2 02bd 8c46 f2bd 7b99 5d3d
000000d0: d4f1 f93b b44f a93d a7cf 48bd c705 183c
000000e0: 62b5 a2bd 46ab 86bc 413a b43d 0ace 103d
000000f0: 5711 963c fe73 0f3d d019 8a3c ecbc 3c3c
00000100: 705d 5bbd 5427 cebc 3bfe eebd 5856 c1bd
00000110: 6121 f1bd c7ce b73c da7f 8e3c 3d71 2cbc
00000120: 800a 1fbd 8fe5 523a a2dc 56bd 7756 58bd
00000130: 8ed8 f8bc e612 59bd 2078 803d cd1c 2fbd
00000140: 49d0 013d a48a 71bd af2a 13bd 85ff 25bd
00000150: 4ecc 383d 8a04 f2bc 10a7 9d3c 2641 43bc
00000160: 7e25 033c 4eb2 87bc 4250 2fbc 8f2a bf3d
00000170: d420 ac3d c896 ddbc 99d5 733d 694e 603d
00000180: bc91 99bd 4ec8 fdbc c1e5 bfbd e317 a63d
00000190: e83b 1d3b faed 0e3b eba1 8abc 37c2 0bbd
000001a0: 2090 6ebd 1037 d2bc c7e4 953c efeb 7f3c
000001b0: b9b6 f2bd 3c90 90bd fa93 7cbd e955 2bbc
000001c0: 9981 11bd 90ce 8e3c e410 e4bc 8df4 16bc
000001d0: 76c2 8bbc 50bd c7bd 0020 84bb d3f2 18bd
000001e0: eb02 763b 42d1 3ebd 9664 f9bc fbcb aebb
000001f0: 7f61 a1bd 4366 6ebd cd17 293c 55b8 55bc
00000200: 9eb6 cbbc 1a80 613d b21f ca3c 252e 883a
00000210: 58b8 4dbc 5045 cf3d 8c95 b5bc 1a37 b6bd
00000220: 95a8 b4bd 111a 62bd 5fd8 f9ba 92f3 ab3c
00000230: aadf a73b bfff 083d 1149 d43c 311a 37bc
00000240: 9f2a 5fbc 19e2 ef3b c6cc 943d 8aa4 7c3d
00000250: b485 a13c 5e69 853d be5c b83c 04fc 383d
00000260: 9b7c 0e3c 6517 2d3d 3ed5 793a ea0f 0abd
00000270: fcc9 923d 7524 293d be03 2d3d ce98 27bd
00000280: 830e 92bd 38eb d7bd 6c63 733b 5137 5bbd
00000290: 3188 10bc 127e a73c d433 2c3d 023d 053d
000002a0: dfa4 2fbd c384 c3bd ee7a 73bd 2174 a3bd
000002b0: 002e 9ebd 600d d7bd 1b4d b9bc d517 5cbd
000002c0: f180 1bbd 800c 993d a528 293d 8534 b03d
000002d0: 7dae 5c3d 0e9f 72bd 4e92 1a3d 9e40 70bc
000002e0: 6a21 293d a51c 3a3d cc47 913a 2369 b8bb
000002f0: b29d 2b3d f962 90bd ded9 0abd a7ac 3c3d
00000300: 3fd7 f9bc f65d fa3c d9ce 2fbd 1eb9 983c
00000310: dfb5 d33c 532b 433c 000b b53c 482a ccbc
00000320: 26c5 fb3b 62c2 89bc 3105 0fbd 7e5d aebc
00000330: b6e5 30bd 2b8d 9c3c f998 86bd 676f 0dbd
00000340: 501f 4bbd aca7 7c3c 4d22 d43b e32a 093d
00000350: f9d4 6ebb 4778 a63c 87cb 653d 82ee 303d
00000360: 6962 88bd 0742 6dbd 2548 31bd c77a 7e3c
00000370: a9ae 30bb 2af3 81bc a288 c0bd 4ea8 d9bd
00000380: 6b46 cabd 0122 40bd 710a dfbd 6df8 9cbd
00000390: 51c0 d8bc 3567 f73c 7175 2cbc 182e 7fbc
000003a0: 1007 9dbd d08f ebbc 95f2 52bd a5a0 85bd
000003b0: 20b6 05bd f444 10bb e589 ed3c 6306 61bd
000003c0: 8317 66bd 9ec8 42bd cd93 afbd 93c6 2a3c
000003d0: 167a 30bd 93a2 053d b860 fdba 68d6 8ebc
000003e0: d451 c3bd d4b8 59bb 16a4 ae3d 3584 273d
000003f0: b585 003d b84f 5f3c 82a0 083d 2132 213c

bn3.weight f4 [128]
1.2256355 1.1757479 1.0861199 1.201805 1.1284997 1.1960479 1.1595565 1.2115897
1.1691712 1.0980086 1.210162 1.0887754 1.1007009 1.1748992 1.076756 1.1417226
1.1918148 1.1593232 1.3064348 1.1841028 1.1367943 1.1989388 1.1206194 1.1756841
1.1599462 1.125526 1.1648314 1.225547 1.2098733 1.1497653 1.1858368 1.1112763
1.1163235 1.213745 1.1057949 1.2203395 1.1515787 1.2276226 1.1215721 1.210254
1.0632008 1.1459174 1.0927147 1.1480763 1.0981265 1.0989987 1.2114673 1.2063762
1.1976795 1.0696906 1.179499 1.2221985 1.2538222 1.2080393 1.1059935 1.217988
1.2551666 1.0701631 1.1033136 1.197761 1.1126678 1.2960427 1.1931908 1.1520389
1.1569461 1.2309922 1.1048454 1.2141006 1.231174 1.1155983 1.0994548 1.177309
1.1580527 1.1937817 1.2190909 1.1168178 1.2210333 1.0731249 1.1459383 1.0908699
1.1922287 1.2141324 1.1764632 1.2007341 1.1057174 1.1875654 1.1128886 1.1853454
1.1880985 1.242043 1.2088028 1.1029949 1.2087494 1.2293557 1.0962534 1.2003866
1.252043 1.2502602 1.1840566 1.0606574 1.2122205 1.082476 1.2217714 1.2254008
1.2773933 1.1914386 1.1812091 1.2111143 1.1053164 1.1921023 1.161164 1.1074754
1.1558076 1.1965988 1.1740814 1.1696125 1.2883298 1.1535791 1.1415818 1.2247086
1.1014627 1.115371 1.2080317 1.1281245 1.2114524 1.1229402 1.150137 1.0967287
00000000: a0e1 9c3f e87e 963f fa05 8b3f bfd4 993f
00000010: ae72 903f 1918 993f 596c 943f 5f15 9b3f
00000020: 67a7 953f 8c8b 8c3f 97e6 9a3f fe5c 8b3f
00000030: c4e3 8c3f 1963 963f 24d3 893f f723 923f
00000040: 638d 983f b464 943f 4139 a73f ae90 973f
00000050: 7a82 913f d476 993f 7570 8f3f d17c 963f
00000060: 1e79 943f 3c11 903f 3219 953f b9de 9c3f
00000070: 21dd 9a3f 822b 933f 80c9 973f 4d3e 8e3f
00000080: b0e3 8e3f ff5b 9b3f b08a 8d3f 1634 9c3f
00000090: ee66 933f bd22 9d3f ad8f 8f3f 9ae9 9a3f
000000a0: f716 883f 6cad 923f 13de 8b3f 2af4 923f
000000b0: 698f 8c3f fdab 8c3f 5c11 9b3f 896a 9a3f
000000c0: 904d 993f 9feb 883f d3f9 963f 0071 9c3f
000000d0: 3f7d a03f 08a1 9a3f 3291 8d3f 08e7 9b3f
000000e0: 4da9 a03f 1bfb 883f 6139 8d3f 3c50 993f
000000f0: e66b 8e3f bae4 a53f 7aba 983f 0376 933f
00000100: cf16 943f 2791 9d3f 936b 8d3f a667 9b3f
00000110: 1c97 9d3f edcb 8e3f efba 8c3f 10b2 963f
00000120: 123b 943f d7cd 983f 2c0b 9c3f e3f3 8e3f
00000130: d24a 9c3f 285c 893f 1bae 923f a0a1 8b3f
00000140: f39a 983f b168 9b3f 5996 963f a8b1 993f
00000150: 2688 8d3f 2502 983f 2273 8e3f 66b9 973f
00000160: 9d13 983f 44fb 9e3f 0dba 9a3f f02e 8d3f
00000170: 4db8 9a3f 875b 9d3f 0852 8c3f 45a6 993f
00000180: f242 a03f 8708 a03f 2b8f 973f 9fc3 873f
00000190: 0b2a 9b3f 938e 8a3f 0163 9c3f efd9 9c3f
000001a0: a081 a33f 0f81 983f dc31 973f cb05 9b3f
000001b0: 027b 8d3f cf96 983f 06a1 943f c1c1 8d3f
000001c0: 81f1 933f 262a 993f 4d48 963f ddb5 953f
000001d0: fee7 a43f 7ba8 933f 5a1f 923f 40c3 9c3f
000001e0: bbfc 8c3f 7ac4 8e3f c8a0 9a3f 6266 903f
000001f0: df10 9b3f 81bc 8f3f b037 933f 9b61 8c3f

bn3.bias f4 [128]
0.076833196 0.022270959 0.00066143787 0.11990385 0.058763444 0.081026435 0.03824507 0.064555354
0.07837983 0.020752423 0.11385448 0.052703086 0.056395665 0.049189463 0.0056557585 0.04391222
0.062158927 0.09883069 0.09062772 0.09331752 0.06924278 0.093623385 0.0789362 0.09316161
0.09257871 0.060423892 0.07453897 0.08919113 0.11072884 0.08610168 0.0992578 0.027243137
0.0517352 0.10019873 0.0077574383 0.12346061 0.059607316 0.13069633 0.086072825 0.09483297
0.05673615 0.077155925 0.029825889 0.0923872 0.037131984 0.008035734 0.023286985 0.05975778
0.088624455 0.0076774377 0.05008975 0.11684644 0.11403062 0.093289904 0.06449617 0.118646525
0.11384422 0.058325533 0.05628992 0.08944985 0.07432005 0.14818788 0.09334068 0.04077104
0.0819393 0.11920165 0.06632431 0.09192579 0.12873344 0.05212891 0.016701506 0.10135614
0.056394704 0.034259148 0.084318265 0.03860752 0.11531918 0.0106952535 0.033387017 0.061762035
0.07030993 0.10466184 0.110506006 0.07432887 0.036900867 0.09225175 0.037649613 0.08884847
0.06199301 0.08002372 0.11043088 -0.027177228 0.11803007 0.06344933 0.036984436 0.13222371
0.089028165 0.104044765 0.102525234 0.0050541037 0.1014428 0.0154484175 0.10847286 0.12721562
0.10611653 0.057529956 0.085776314 0.08774269 0.04826475 0.066999294 0.09743025 -0.009166709
0.09455791 0.10035511 0.10641526 0.076178014 0.12457412 0.09545915 0.0965279 0.08983834
0.03017102 0.10149146 0.11648442 0.07350157 0.1293521 0.04848736 0.0850997 0.020339109
00000000: b95a 9d3d 9671 b63c 5864 2d3a 2690 f53d
00000010: f0b1 703d 30f1 a53d dda6 1c3d 9935 843d
00000020: 9b85 a03d fc00 aa3c 8a2c e93d 31df 573d
00000030: 24ff 663d e47a 493d f153 b93b 4ddd 333d
00000040: 5c9a 7e3d bf67 ca3d 079b b93d 421d bf3d
00000050: 29cf 8d3d 9ebd bf3d 4da9 a13d 84cb be3d
00000060: e899 bd3d 0b7f 773d e3a7 983d d7a9 b63d
00000070: cdc5 e23d 1456 b03d ac47 cb3d 002d df3c
00000080: 4ae8 533d fe34 cd3d 1c32 fe3b ebd8 fc3d
00000090: cd26 743d 42d5 053e f346 b03d ca37 c23d
000000a0: 2a64 683d ed03 9e3d 6c55 f43c 8035 bd3d
000000b0: b517 183d 50a8 033c 59c4 be3c 93c4 743d
000000c0: bd80 b53d 0493 fb3b e92a 4d3d 304d ef3d
000000d0: e388 e93d c70e bf3d 9116 843d f3fc f23d
000000e0: 2927 e93d c1e6 6e3d 4290 663d 7c31 b73d
000000f0: 1c35 983d 90be 173e 6629 bf3d 89ff 263d
00000100: cbcf a73d ff1f f43d 0ad5 873d 9743 bc3d
00000110: b3d2 033e 2085 553d 99d1 883c cf93 cf3d
00000120: 22fe 663d 5253 0c3d 0eaf ac3d eb22 1e3d
00000130: 762c ec3d 253b 2f3c d3c0 083d 30fa 7c3d
00000140: a7fe 8f3d f258 d63d f950 e23d bc39 983d
00000150: 5d25 173d 7cee bc3d 7b36 1a3d 30f6 b53d
00000160: 62ec 7d3d 7ae3 a33d 9629 e23d c7a2 debc
00000170: c0b9 f13d b9f1 813d fe7c 173d a765 073e
00000180: 6654 b63d 6c15 d53d c0f8 d13d e59c a53b
00000190: 3ec1 cf3d 5c1b 7d3c 0527 de3d d044 023e
000001a0: a053 d93d 88a4 6b3d 7eab af3d 71b2 b33d
000001b0: 42b1 453d ed36 893d 8389 c73d f72f 16bc
000001c0: 94a7 c13d fb86 cd3d 3ef0 d93d 3803 9c3d
000001d0: b720 ff3d 1680 c33d 6bb0 c53d 2afd b73d
000001e0: 3729 f73c c1da cf3d 628f ee3d fe87 963d
000001f0: e074 043e af9a 463d c048 ae3d 349e a63c

bn3.running_mean f4 [128]
-0.70677286 -0.85813916 0.37069035 -0.18062016 -1.032805 -0.13588746 -0.51372355 -0.28002894
0.36244422 0.38043284 -0.11267537 -0.05693433 0.46311677 -0.8531821 0.34716898 -0.5817481
-0.7240934 -0.52790546 -0.17781265 -0.56499624 -0.7474997 0.42172182 0.0900175 0.5108748
-1.0566465 -0.6243841 -0.7177808 0.49415463 0.12345726 -0.2679623 0.31395265 0.5360233
0.057136677 -0.34555855 0.1138305 0.13624763 -0.86903256 0.49833867 0.18207942 -0.93521297
0.12054799 -0.60562545 0.17355971 -0.14489302 -0.90376794 0.47569478 -0.45239925 0.4088139
-0.93555766 0.082438014 -0.6882616 0.09128492 -0.085272074 -1.1102957 -0.2587672 0.1635982
-0.18338892 0.55432403 -0.055196494 -0.66023755 -0.43591368 0.30395642 0.28319544 -0.8782883
0.052958637 -0.083749235 -0.4652631 -0.7582225 0.18469623 -0.0070372843 0.82793087 -1.1849695
-0.3679097 -0.45210278 -0.8190661 -0.50951296 0.03635243 0.4432933 -0.14394811 0.10926871
-0.7350158 -0.9854891 0.054271318 -0.251495 0.54671574 0.1512791 -0.15572786 -0.13570835
-0.48048982 0.03728407 0.25667185 0.6750573 -0.058994263 -0.82048947 0.19529156 0.51389194
-0.20978774 0.005357459 0.16308805 -0.040551078 0.057102222 0.21784808 0.4413425 -0.17395316
-0.12798658 -0.7048503 -0.5162714 -0.2594396 -0.49793488 -0.021181282 -0.43741688 -0.4689559
-0.37215865 0.5043337 -0.15111685 -0.65530676 -0.3385583 0.65950316 0.76267034 -0.36789602
-0.028773516 0.16771828 -0.08863867 -0.4591554 0.038087264 -0.7709504 0.65796715 0.9719094
00000000: 11ef 34bf 02af 5bbf 20cb bd3e 7ef4 38be
00000010: f432 84bf 1526 0bbe 6383 03bf f45f 8fbe
00000020: 4a92 b93e 18c8 c23e 58c2 e6bd f933 69bd
00000030: a41d ed3e 246a 5abf 22c0 b13e 72ed 14bf
00000040: 2f5e 39bf d024 07bf 8514 36be 98a3 10bf
00000050: 245c 3fbf eceb d73e 185b b83d b1c8 023f
00000060: 3140 87bf a3d7 1fbf 7cc0 37bf d601 fd3e
00000070: 29d7 fc3d 5b32 89be 67be a03e d338 093f
00000080: 2608 6a3d 0ded b0be f71f e93d 8084 0b3e
00000090: eb78 5ebf 3f26 ff3e 0773 3a3e 1e6a 6fbf
000000a0: dde1 f63d 450a 1bbf a3b9 313e d65e 14be
000000b0: 565d 67bf 448e f33e e0a0 e7be 0e50 d13e
000000c0: b580 6fbf 43d5 a83d ea31 30bf 97f3 ba3d
000000d0: 20a3 aebd 2b1e 8ebf 227d 84be 4986 273e
000000e0: 4eca 3bbe 2ee8 0d3f b815 62bd 5405 29bf
000000f0: 1430 dfbe 2da0 9b3e fefe 903e 81d7 60bf
00000100: 28eb 583d b884 abbd f736 eebe df1a 42bf
00000110: 0221 3d3e 0599 e6bb 47f3 533f 15ad 97bf
00000120: a95e bcbe 047a e7be 51ae 51bf 716f 02bf
00000130: 49e6 143d 57f7 e23e 2267 13be 46c8 df3d
00000140: ff29 3cbf 0349 7cbf 9a4b 5e3d f4c3 80be
00000150: 90f5 0b3f e9e8 1a3e 2077 1fbe 21f7 0abe
00000160: c302 f6be 2eb7 183d 7e6a 833e 8ed0 2c3f
00000170: f8a3 71bd 990b 52bf 83fa 473e 6c8e 033f
00000180: 99d2 56be a08d af3b 8e00 273e e318 26bd
00000190: 05e4 693d 9113 5f3e a5f7 e13e c720 32be
000001a0: ea0e 03be 1271 34bf 5d2a 04bf 44d5 84be
000001b0: 52f1 febe 5e84 adbc 1bf5 dfbe fd1a f0be
000001c0: 948b bebe 031c 013f 60be 1abe 2fc2 27bf
000001d0: 8357 adbe 33d5 283f 5d3e 433f de5c bcbe
000001e0: 70b6 ebbc 57be 2b3e 3188 b5bd 6b16 ebbe
000001f0: 6401 1c3d 015d 45bf 8970 283f 0ecf 783f

bn3.running_var f4 [128]
0.09232841 0.09566076 0.14371625 0.11241801 0.14514019 0.12727067 0.10477344 0.13276322
0.12678555 0.13751295 0.11373121 0.20696053 0.177075 0.10657929 0.15766019 0.113427
0.1017392 0.16467825 0.12543318 0.09900551 0.074425444 0.10661739 0.17392254 0.11998764
0.117575936 0.099195175 0.09297896 0.16514163 0.11237939 0.12995611 0.1026058 0.1264015
0.12979068 0.1496681 0.15471335 0.12768169 0.096328504 0.13146043 0.12719831 0.097297184
0.14932771 0.15477993 0.14166829 0.19338426 0.10191762 0.15949012 0.09925025 0.116925016
0.088916995 0.1293675 0.1066611 0.14520076 0.108583406 0.1058856 0.12047868 0.11848914
0.14111824 0.19205523 0.10797408 0.12321472 0.11583754 0.130382 0.11109291 0.09246469
0.22156388 0.10146839 0.13526185 0.086732656 0.11932477 0.15029068 0.19760768 0.15546466
0.0866497 0.103402354 0.09656149 0.0913338 0.11913658 0.12907778 0.15718478 0.14491843
0.12399689 0.09071234 0.17964412 0.119642 0.16612577 0.12105686 0.13731273 0.08302709
0.1262558 0.10829009 0.12119907 0.22611877 0.13236527 0.10901655 0.15844041 0.0928368
0.16235141 0.13475421 0.15382646 0.13265887 0.17272572 0.17368014 0.13478558 0.10944011
0.12994197 0.0968372 0.089790046 0.12755482 0.11402422 0.1231351 0.12113182 0.12413039
0.1383267 0.14481364 0.092310354 0.113245524 0.16321227 0.12163616 0.14020056 0.11092493
0.1300593 0.21200882 0.11162272 0.12332385 0.15849146 0.14174342 0.13038504 0.12679732
00000000: ad16 bd3d cae9 c33d 5a2a 133e 6a3b e63d
00000010: a19f 143e 3e53 023e 7593 d63d 15f3 073e
00000020: 12d4 013e 32d0 0c3e e9eb e83d 76ed 533e
00000030: 2653 353e 3e46 da3d ac71 213e 6a4c e83d
00000040: a45c d03d 6aa1 283e 8e71 003e 67c3 ca3d
00000050: 5e6c 983d 385a da3d c018 323e 14bc f53d
00000060: a7cb f03d d726 cb3d c16b be3d e31a 293e
00000070: 2a27 e63d 3713 053e fd22 d23d 656f 013e
00000080: d9e7 043e 9842 193e 2d6d 1e3e fdbe 023e
00000090: e147 c53d 909d 063e 4640 023e bf43 c73d
000000a0: 5de9 183e a17e 1e3e 7e11 113e 8606 463e
000000b0: 2fba d03d 6151 233e b743 cb3d 6276 ef3d
000000c0: 1d1a b63d ea78 043e 2371 da3d 82af 143e
000000d0: fa60 de3d 8dda d83d 87bd f63d 6faa f23d
000000e0: 4d81 103e 20aa 443e 8421 dd3d 0058 fc3d
000000f0: 3b3c ed3d dc82 053e ae84 e33d 215e bd3d
00000100: a4e1 623e a9ce cf3d 1582 0a3e e4a0 b13d
00000110: 8c60 f43d cde5 193e ab59 4a3e 2132 1f3e
00000120: 6675 b13d 9dc4 d33d 08c2 c53d 370d bb3d
00000130: e1fd f33d f72c 043e 0cf5 203e 7f65 143e
00000140: 15f2 fd3d 64c7 b93d a1f4 373e dd06 f53d
00000150: e01c 2a3e a9ec f73d b59b 0c3e 1b0a aa3d
00000160: 3349 013e 32c7 dd3d 3837 f83d ae8b 673e
00000170: c38a 073e 1244 df3d 343e 223e 3821 be3d
00000180: 733f 263e 02fd 093e af84 1d3e bad7 073e
00000190: 03df 303e 35d9 313e 3b05 0a3e 2322 e03d
000001a0: 820f 053e 9552 c63d d8e3 b73d bb9d 023e
000001b0: 8885 e93d 412e fc3d f613 f83d 1338 fe3d
000001c0: 84a5 0d3e 074a 143e 360d bd3d 45ed e73d
000001d0: 1e21 273e 611c f93d bc90 0f3e 9c2c e33d
000001e0: 442e 053e d718 593e 749a e43d 3791 fc3d
000001f0: 964b 223e 3025 113e a883 053e 28d7 013e

fc1.weight f4 [64, 128]
0.07990387 -0.08303139 0.12830117 -0.086219236 0.058847494 0.058362197 -0.033533238 -0.030996827
0.086508304 -0.09111423 0.18307552 0.10332106 -0.032486707 -0.20736326 -0.07072529 -0.021805909
-0.10762501 0.15883128 0.15796888 0.012467118 -0.09796481 0.16213283 0.0038036963 0.101353005
0.042299982 -0.11566031 0.025600435 0.0663316 0.1931143 0.10018697 0.14671828 -0.014009564
-0.13670984 0.08111212 -0.051348418 0.06646162 -0.06542765 0.13832805 0.0748372 -0.043482315
0.03157053 0.073597856 0.08493622 -0.024285374 -0.110577844 0.032162726 0.03601789 0.15012352
-0.06979792 -0.075996935 0.026729537 -0.013205765 0.1650969 -0.11150135 -0.11678288 0.16223487
0.11203291 0.00987904 -0.09131237 -0.1514951 0.09227656 0.15357023 0.08297208 -0.021268267
0.09458913 0.20352231 -0.064346574 -0.08304735 0.17623 0.024453968 -0.044382956 -0.038563542
0.07862873 0.0043385257 -0.121517755 -0.041449208 0.24397379 -0.03231656 -0.03317572 -0.033095203
-0.024077473 -0.15215059 0.10592446 0.026767515 0.05464549 0.13962239 0.049599424 0.062196825
-0.112536974 0.21949117 -0.053648658 0.048505943 0.2309709 -0.13886945 0.008307157 0.18035175
0.04471231 0.13652487 0.031541746 0.008193241 0.104622185 0.011194999 0.09453639 0.21980123
0.1330689 -0.21066375 -0.08941677 0.14062314 -0.044921026 0.027751125 0.14595044 0.057195883
0.12508287 0.19905336 0.17264089 -0.025923463 0.05992147 0.10920011 0.15443443 0.17947179
-0.1495734 0.13887921 0.16512091 -0.12272482 0.055549722 0.14432245 0.24570009 0.010202036
0.24396805 0.17457606 0.08411002 0.0014163931 0.043984093 0.10809182 -0.014351254 -0.07481219
0.14074218 -0.016429992 0.07809256 -0.046049334 -0.029604105 0.0068274993 0.016429482 0.08175462
0.16454943 -0.017984534 0.24807683 0.17792037 0.034102205 0.13249104 0.022702994 0.063916974
0.05019485 0.038989812 -0.08639783 -0.06955644 -0.002815068 -0.010732777 0.055732217 -0.10162841
-0.0073682964 0.16031405 0.11796807 -0.12435324 0.13266215 0.12140913 -0.013061727 0.075004205
0.03444746 0.06983738 -0.03501409 -0.061434545 0.12671985 -0.07482985 0.09744221 0.11686525
0.036556896 0.0041102692 0.17640604 -0.050101392 0.1873689 0.008521915 0.053719267 0.08420249
0.24669674 -0.084032945 0.036105894 -0.071286485 0.10339027 0.15021303 -0.086186945 0.11729884
-0.073290065 -0.030295327 -0.041113723 0.09823706 -0.088027 -0.04988782 -0.04922405 0.08936256
0.12526676 -0.025254596 0.12058574 0.13942364 0.13674021 -0.09221455 -0.05056833 -0.050582733
-0.08564458 0.13389073 -0.0886241 -0.16880819 -0.09504084 0.11410127 0.16385359 0.22709897
-0.15593459 -0.115595914 0.052289885 -0.037342213 -0.11039125 0.15160644 -0.026403887 -0.01838113
-0.09787902 0.0045425673 -0.059449352 -0.015500319 -0.1453601 -0.048080776 -0.033252448 0.10910825
-0.110986635 -0.025520518 0.018282672 -0.021735061 0.1224381 0.15671074 0.17156796 0.089146025
0.118889585 0.10370229 0.18289934 -0.07087479 0.0030768658 0.09279587 -0.0024000462 0.24469563
-0.0010363024 0.024544425 0.12877709 0.057176035 -0.083913796 0.06974213 -0.020847918 -0.10836638
00000000: a4a4 a33d 5d0c aabd 6261 033e b693 b0bd
00000010: 120a 713d 330d 6f3d 265a 09bd 0fed fdbc
00000020: 442b b13d 199a babd 2678 3b3e fe99 d33d
00000030: c810 05bd 0957 54be 6cd8 90bd 4ea2 b2bc
00000040: 806a dcbd aba4 223e 98c2 213e e242 4c3c
00000050: c6a1 c8bd 2606 263e 6f47 793b 2a92 cf3d
00000060: bf42 2d3d 50df ecbd 01b8 d13c ddd8 873d
00000070: c1bf 453e d32e cd3d 513d 163e 5f88 65bc
00000080: aafd 0bbe 1c1e a63d b852 52bd 081d 883d
00000090: effe 85bd dea5 0d3e 3f44 993d 831a 32bd
000000a0: 1a50 013d 79ba 963d 0af3 ad3d 1ff2 c6bc
000000b0: a376 e2bd 10bd 033d 7f87 133d fbb9 193e
000000c0: 36f2 8ebd 48a4 9bbd e7f7 da3c fe5c 58bc
000000d0: 290f 293e d25a e4bd dd2b efbd e620 263e
000000e0: 8371 e53d b2db 213c fb01 bbbd 8821 1bbe
000000f0: 7efb bc3d 8441 1d3e 44ed a93d ca3a aebc
00000100: f2b7 c13d 2768 503e 23c8 83bd bb14 aabd
00000110: a375 343e b053 c83c e7ca 35bd cef4 1dbd
00000120: 1908 a13d 312a 8e3b 4dde f8bd a5c6 29bd
00000130: 44d4 793e 5f5e 04bd 44e3 07bd d68e 07bd
00000140: 1f3e c5bc 5dcd 1bbe ecee d83d 8c47 db3c
00000150: f3d3 5f3d 2cf9 0e3e c428 4b3d 19c2 7e3d
00000160: c979 e6bd 4bc2 603e b2be 5bbd 2bae 463d
00000170: a383 6c3e cb33 0ebe be1a 083c 21ae 383e
00000180: 4124 373d 2dcd 0b3e eb31 013d f23c 063c
00000190: 2844 d63d 3b6b 373c 4b9c c13d 9313 613e
000001a0: 3743 083e 3db8 57be 2420 b7bd 83ff 0f3e
000001b0: 1cff 37bd 5456 e33c 0874 153e 3b46 6a3d
000001c0: b915 003e a5d4 4b3e c6c8 303e 715d d4bc
000001d0: 3770 753d 4fa4 df3d 0f24 1e3e 74c7 373e
000001e0: c529 19be 5a36 0e3e 7515 293e 2757 fbbd
000001f0: 1b88 633d 44c9 133e ce98 7b3e 7126 273c
00000200: c3d2 793e 11c4 323e e041 ac3d 44a6 b93a
00000210: aa28 343d 3e5f dd3d 8621 6bbc 2237 99bd
00000220: b81e 103e 3198 86bc feee 9f3d 3a9e 3cbd
00000230: 4f84 f2bc 37b9 df3b 1f97 863c f76e a73d
00000240: a57f 283e 4d54 93bc da07 7e3e c230 363e
00000250: c1ae 0b3d bbab 073e a1fb b93c e7e6 823d
00000260: 1d99 4d3d c8b3 1f3d 58f1 b0bd 9b73 8ebd
00000270: 017d 38bb 88d8 2fbc 7747 643d 8e22 d0bd
00000280: c071 f1bb 5e29 243e 3e99 f13d e9ac febd
00000290: 96d8 073e 5aa5 f83d db00 56bc ce9b 993d
000002a0: c818 0d3d e606 8f3d ef6a 0fbd caa2 7bbd
000002b0: d9c2 013e 6440 99bd c88f c73d 0c57 ef3d
000002c0: afbc 153d 70af 863b c9a3 343e 1e37 4dbd
000002d0: a2dd 3f3e 819f 0b3c bc08 5c3d 5b72 ac3d
000002e0: 129e 7c3e 7719 acbd c6e3 133d a6fe 91bd
000002f0: 47be d33d 72d1 193e c882 b0bd 603a f03d
00000300: 1a19 96bd e82d f8bc dd66 28bd 8330 c93d
00000310: 8047 b4bd 2c57 4cbd 289f 49bd b803 b73d
00000320: ee45 003e bae2 cebc a8f5 f63d 12c5 0e3e
00000330: a005 0c3e fbda bcbd bd20 4fbd d72f 4fbd
00000340: 6d66 afbd a71a 093e 8d80 b5bd 0edc 2cbe
00000350: c6a4 c2bd edad e93d 3cc9 273e a28c 683e
00000360: 51ad 1fbe 8dbd ecbd eb2d 563d 26f4 18bd
00000370: cf14 e2bd b83e 1b3e f74c d8bc 0694 96bc
00000380: cc74 c8bd d1d9 943b 2a81 73bd 0df5 7dbc
00000390: 47d9 14be 59f0 44bd b833 08bd 2574 df3d
000003a0: f64c e3bd 6810 d1bc 8bc5 953c ba0d b2bc
000003b0: d4c0 fa3d c878 203e 83af 2f3e 3192 b63d
000003c0: 627c f33d de61 d43d f749 3b3e cd26 91bd
000003d0: 3ea5 493b c30b be3d 184a 1dbb 7e91 7a3e
000003e0: 8ad4 87ba 6411 c93c 24de 033e 6b31 6a3d
000003f0: ffda abbd f6d4 8e3d 41c9 aabc 31ef ddbd
