runs/20260226_210340/last.pt (torch, 584195 bytes, 42 tensors)

conv1.weight f4 [32, 3, 7]
0.15758277 0.17782682 -0.017474687 0.16047557 -0.04168387 0.029007643 -0.10698553 0.21964167
0.19184858 -0.05117462 0.18466528 0.15812042 0.23661792 0.11859681 0.07057242 -0.07628865
0.16186982 0.047918826 -0.09074081 0.07501893 -0.086214885 0.023016179 -0.017855376 0.23599353
-0.15598172 -0.043949038 -0.0055372138 -0.07254747 0.018623535 -0.23618384 0.22370227 -0.17904206
0.16968837 0.04711571 -0.03994743 0.085275166 0.054050867 0.18733443 0.011470309 -0.0850114
-0.024099795 -0.05011873 0.11916925 0.2372182 0.17087652 -0.03333682 0.17556785 0.13196838
0.16069536 -0.12199389 -0.1866275 -0.056051325 -0.13403502 0.20806551 0.09384764 0.1143121
0.05125664 0.0018079577 0.1796261 -0.13935804 0.004689073 -0.13111162 0.059976213 -0.029198559
0.086482726 -0.022062685 0.19077982 -0.0855456 -0.072236925 -0.10922673 0.23763166 0.18687801
0.23725991 -0.15546367 -0.19368033 -0.1390754 -0.156915 0.04398328 0.084978566 0.14356737
-0.11909813 -0.14634281 0.07368374 -0.104655944 0.15370266 -0.05562374 0.1272247 -0.15338562
-0.10494882 0.06874614 0.05443896 -0.01662857 0.19179739 0.21799149 -0.1862823 -0.118747994
0.23792365 -0.053490713 -0.07642605 -0.15871574 -0.02366239 0.08480789 -0.028499646 -0.12185562
-0.004687264 -0.13107292 -0.15186365 -0.077757016 -0.15560146 -0.15358381 0.22356528 0.06478032
0.11501963 -0.22134362 -0.12617749 0.019874547 0.12970154 -0.10781011 -0.016814753 -0.04238984
-0.0074609225 -0.087663986 -0.15093254 -0.23752467 -0.22229335 -0.13452794 -0.059244607 -0.15293334
0.1842358 -0.046768103 0.18784116 0.08504354 -0.14461878 0.2233119 -0.012643777 -0.064935505
-0.19723159 -0.18854006 0.08291692 -0.05137845 0.021038927 -0.17641972 0.17944874 -0.12022672
0.026508037 0.123747274 0.22087665 0.1538138 0.18723197 -0.13716066 0.06884506 -0.09021105
-0.0068664188 -0.16803421 0.18496008 -0.22170368 0.06843564 0.10801304 0.018441929 -0.23774481
0.16434294 0.017320866 -0.016964152 -0.15285149 0.12212265 0.016923726 0.018870395 0.23337969
0.08677338 -0.092511274 -0.085168585 0.017821588 0.17119333 0.0029120133 -0.08445604 -0.09382832
-0.22312346 0.0954489 0.18852696 -0.22220871 0.14238562 0.09550017 0.017463626 -0.051377296
0.12493097 0.11851057 0.08222515 -0.054970287 -0.10830658 -0.025268465 -0.037002254 -0.05914441
0.1316033 0.18271096 -0.049631856 -0.09635324 0.051270053 0.09378395 0.09581401 0.050568063
-0.14896166 -0.039057687 0.18588534 0.10498628 0.025872765 -0.04437951 -0.22422263 -0.23365901
-0.09825618 0.010231684 0.109852836 0.10769756 -0.18731903 -0.13845284 -0.048826918 0.18711427
0.023529109 -0.037136797 0.11884208 -0.040788658 -0.1449048 0.19561736 -0.026152054 0.08887521
-0.11228589 0.23768274 0.23771608 0.14021814 -0.11942364 -0.17320056 -0.17777616 0.14178884
0.10945085 0.19370615 0.13443628 0.042736676 -0.041197035 -0.21152385 -0.0675406 -0.10823145
-0.023835592 -0.07472011 -0.00602016 -0.08473511 -0.02577745 -0.23639505 -0.2332169 0.051573195
-0.09077674 0.11527187 -0.017022643 -0.1227345 -0.025084242 -0.066416934 -0.06814335 -0.17768806
00000000: 615d 213e 3c18 363e 1327 8fbc b553 243e
00000010: b5bc 2abd 70a1 ed3c 3b1b dbbd bfe9 603e
00000020: f473 443e 7a9c 51bd e518 3d3e 52ea 213e
00000030: f84b 723e e2e2 f23d 4688 903d 393d 9cbd
00000040: 34c1 253e 8846 443d 51d6 b9bd 86a3 993d
00000050: 6e91 b0bd 6d8c bc3c 7045 92bc 4aa8 713e
00000060: acb9 1fbe e803 34bd 8471 b5bb c593 94bd
00000070: 6290 983c 2dda 71be 3512 653e cd56 37be
00000080: cac2 2d3e 67fc 403d eb9f 23bd bfa4 ae3d
00000090: 7164 5d3d 99d4 3f3e f7ed 3b3c 751a aebd
000000a0: ef6c c5bc 4c49 4dbd 020f f43d 54e9 723e
000000b0: 41fa 2e3e 308c 08bd 0fc8 333e b822 073e
000000c0: 538d 243e efd7 f9bd 481b 3fbe 1396 65bd
000000d0: 7a40 09be 200f 553e 3133 c03d 761c ea3d
000000e0: 7cf2 513d fef8 ec3a e8ef 373e e0b3 0ebe
000000f0: cca6 993b 2042 06be 9ea9 753d d131 efbc
00000100: db1d b13d cebc b4bc c95b 433e 8832 afbd
00000110: f4f0 93bd 44b2 dfbd b755 733e f35c 3f3e
00000120: 43f4 723e de31 1fbe 2354 46be c869 0ebe
00000130: 53ae 20be d027 343d 3e09 ae3d 5303 133e
00000140: b8e9 f3bd e4da 15be 80e7 963d db55 d6bd
00000150: 3b64 1d3e b8d5 63bd 3147 023e 1f11 1dbe
00000160: 68ef d6bd c7ca 8c3d 63fb 5e3d a438 88bc
00000170: 8966 443e 2939 5f3e cac0 3ebe 2632 f3bd
00000180: 42a2 733e 1419 5bbd 4385 9cbd 6186 22be
00000190: a1d7 c1bc c2af ad3d 1778 e9bc 708f f9bd
000001a0: 9f97 99bb fb37 06be 2582 1bbe 123f 9fbd
000001b0: fd55 1fbe 1345 1dbe 4cee 643e 8bab 843d
000001c0: 698f eb3d e7a7 62be ac34 01be f2cf a23c
000001d0: 7bd0 043e 8ccb dcbd 18bf 89bc f8a0 2dbd
000001e0: c17a f4bb 2d89 b3bd 0f8e 1abe ab39 73be
000001f0: dea0 63be b1c1 09be 79aa 72bd 8f9a 1cbe
00000200: 4fa8 3c3e e98f 3fbd 6f59 403e 4f2b ae3d
00000210: f216 14be e0ab 643e d827 4fbc e8fc 84bd
00000220: 14f7 49be a510 41be 59d0 a93d 3672 52bd
00000230: d459 ac3c 5fa7 34be 69c1 373e 6d39 f6bd
00000240: 6227 d93c 366f fd3d 7d2d 623e 5d81 1d3e
00000250: bdb9 3f3e d873 0cbe a4fe 8c3d 92c0 b8bd
00000260: b2ff e0bb 2911 2cbe 2d66 3d3e 4a06 63be
00000270: fc27 8c3d f135 dd3d 8713 973c 6073 73be
00000280: 8449 283e 7de4 8d3c 68f8 8abc 1a85 1cbe
00000290: 711b fa3d a0a3 8a3c 1696 9a3c 16fb 6e3e
000002a0: 3eb6 b13d 8d76 bdbd de6c aebd 94fe 913c
000002b0: 4e4d 2f3e 7ad7 3e3b 4af7 acbd 1029 c0bd
000002c0: 7a7a 64be b67a c33d 360d 413e ae8a 63be
000002d0: 89cd 113e 9895 c33d e10f 8f3c 0071 52bd
000002e0: cfdb ff3d abb5 f23d a965 a83d 8628 61bd
000002f0: d7cf ddbd d0ff cebc ad8f 17bd 6941 72bd
00000300: 04c3 063e 9518 3b3e c64a 4bbd d954 c5bd
00000310: 8c00 523d cd11 c03d 233a c43d 7520 4f3d
00000320: 6889 18be f4fa 1fbd ba58 3e3e 0c03 d73d
00000330: 1ff3 d33c 4ac7 35bd 9e9a 65be 4f44 6fbe
00000340: 893a c9bd cba2 273c 86fa e03d 8a90 dc3d
00000350: 8fd0 3fbe 95c6 0dbe bcfe 47bd e29a 3f3e
00000360: 1ec0 c03c c11c 18bd 7a63 f33d 0212 27bd
00000370: ed61 14be eb4f 483e d53c d6bc 3504 b63d
00000380: 25f6 e5bd 1b63 733e d86b 733e 5895 0f3e
00000390: 6294 f4bd 7d5b 31be f40a 36be 1831 113e
000003a0: c427 e03d e85a 463e aaa9 093e a70c 2f3d
000003b0: 39be 28bd b599 58be ba52 8abd 73a8 ddbd
000003c0: dc42 c3bc db06 99bd c344 c5bb 9a89 adbd
000003d0: 3b2b d3bc 8b11 72be 69d0 6ebe 6a3e 533d
000003e0: 28e9 b9bd a813 ec3d 1273 8bbc 3a5c fbbd
000003f0: 787d cdbc 9a05 88bd be8e 8bbd dcf3 35be

bn1.weight f4 [32]
1.1058344 0.9961921 0.99592763 1.0900024 0.9810363 0.9487996 1.0274994 1.0510552
0.99348134 0.9641435 1.052309 0.99676514 1.0235051 0.95375925 0.96328074 1.0066736
0.9925472 0.95104337 1.0032378 1.1305176 0.997799 0.99911225 1.0932654 1.0378643
1.023974 1.082723 1.0613384 0.96809435 1.0245847 0.8920717 1.0128781 1.009826
00000000: fb8b 8d3f 7206 7f3f 1df5 7e3f 3385 8b3f
00000010: 3225 7b3f 88e4 723f 1a85 833f fa88 863f
00000020: cb54 7e3f 1cd2 763f 10b2 863f 002c 7f3f
00000030: 3702 833f 9129 743f 9199 763f aeda 803f
00000040: 9317 7e3f 9477 733f 196a 803f cdb4 903f
00000050: c16f 7f3f d2c5 7f3f 1ff0 8b3f bdd8 843f
00000060: 9411 833f ab96 8a3f f0d9 873f 08d5 773f
00000070: 9725 833f d05e 643f fda5 813f fa41 813f

bn1.bias f4 [32]
-0.013254908 -0.005580228 -0.05514888 0.017399793 -0.014053603 0.007822298 -0.0060568233 -0.02777553
-0.11595599 -0.12696557 -0.016732397 -0.08162296 -0.013985578 -0.009944971 -0.077635854 0.012370386
-0.04022733 -0.07593286 -0.05171121 0.0032281375 -0.039316647 0.0159883 -0.041157447 0.03626795
0.05399562 0.023569793 0.060471322 -0.06665222 0.0066505815 -0.040706843 0.007542687 -0.035746496
00000000: 1d2b 59bc 58da b6bb cbe3 61bd 038a 8e3c
00000010: 1541 66bc 1929 003c 5178 c6bb 8289 e3bc
00000020: 567a edbd 4303 02be 6112 89bc f029 a7bd
00000030: c423 65bc 3bf0 22bc 8cff 9ebd 29ad 4a3c
00000040: 6ac5 24bd b082 9bbd 22cf 53bd 298f 533b
00000050: 7e0a 21bd e5f9 823c b694 28bd b48d 143d
00000060: 832a 5d3d 7015 c13c c7b0 773d f680 88bd
00000070: 1fed d93b 38bc 26bd a528 f73b eb6a 12bd

bn1.running_mean f4 [32]
0.0013539058 0.0021658675 0.0004135445 -0.00060833944 -0.003452989 -0.008851566 0.0023307677 0.0031216668
0.0009895371 -0.0044611064 0.0005401398 -0.0058289934 0.0007695534 0.002124812 0.0066127884 -0.0018574223
0.006558855 -0.002010408 0.0016476027 -0.00039720893 -5.3577372e-05 0.0017925357 -0.00076466426 -0.00055840163
0.007379363 0.00031347552 -0.00030836102 0.0026781275 -0.0010001289 -0.0003417935 7.399106e-06 0.0007830072
00000000: 8a75 b13a 3af1 0d3b 01d1 d839 f878 1fba
00000010: 8b4b 62bb 2906 11bc cbbf 183b e194 4c3b
00000020: 5bb3 813a 792e 92bb 2b98 0d3a 2401 bfbb
00000030: dbbb 493a 6e40 0b3b 17b0 d83b c074 f3ba
00000040: aaeb d63b 0dc1 03bb 5ff4 d73a 7b40 d0b9
00000050: 44b8 60b8 84f3 ea3a c073 48ba b361 12ba
00000060: 95ce f13b f959 a439 84ab a1b9 8683 2f3b
00000070: c216 83ba bf32 b3b9 d645 f836 b942 4d3a

bn1.running_var f4 [32]
0.5509004 0.1953185 0.69696134 0.47188658 0.26152393 0.5241184 0.3934922 0.23921049
0.21813299 0.31641954 0.35186234 0.44342223 0.45883736 0.4325622 0.3391207 0.44737002
0.47085306 0.34241977 0.20201345 0.22269432 0.21213223 0.32164535 0.49369836 0.3524137
0.5235266 0.2887383 0.5392074 0.529387 0.26886365 0.21418555 0.39260387 0.15763074
00000000: cf07 0d3f 9301 483e 0f6c 323f 1e9b f13e
00000010: 77e6 853e a02c 063f cf77 c93e 98f3 743e
00000020: 415e 5f3e be01 a23e 4d27 b43e 3d08 e33e
00000030: bbec ea3e cb78 dd3e 3aa1 ad3e af0d e53e
00000040: a713 f13e a551 af3e 9ddc 4e3e fb09 643e
00000050: 3139 593e b3ae a43e 08c6 fc3e 926f b43e
00000060: d705 063f 82d5 933e 7f09 0a3f e885 073f
00000070: 7fa8 893e 7553 5b3e 6003 c93e f469 213e

conv2.weight f4 [64, 32, 5]
0.07592282 0.022414025 -0.035357554 0.076218024 -0.07110698 0.022561658 -0.07077974 -0.009534611
0.047640685 0.009439524 0.0147734685 0.052628305 0.011801244 0.12615313 0.0107152965 0.011115576
-0.06979362 -0.025867525 0.08371132 0.12087168 0.0078070727 0.12625805 0.0051036896 0.0416
0.04613584 0.082537726 -0.011035777 0.081012845 0.028668635 -0.03435357 -0.005547861 -0.034754544
0.044466022 -0.082399264 -0.043658264 -0.04959928 -0.008911257 -0.00068144844 0.06347885 0.082198106
0.04225004 -0.1063636 0.1092563 0.11350724 0.036570664 -0.031187898 0.015318598 0.028582698
-0.043164376 0.009095435 0.010331127 0.042764045 -0.0364773 0.013009848 0.045026492 -0.12762474
-0.1276474 -0.108078636 0.044490483 -0.103053436 -0.12719901 -0.014002369 0.020404577 0.019453298
-0.1266473 -0.011630247 0.031940907 0.019564316 0.025484348 0.009624983 0.02324216 0.063510984
-0.11996022 -0.054779045 0.01384812 -0.058204412 -0.06510943 0.04372276 0.012738467 0.044188313
-0.052506864 0.026933977 0.0637804 -0.07214314 -0.009740331 -0.05582388 -0.09284839 0.04520465
-0.021759056 -0.06382884 0.04777107 -0.029810214 -0.065704875 0.003944472 0.057241276 -0.07435977
-0.056338295 0.07491814 0.0003945746 0.039031107 -0.10266722 -0.05562552 -0.020239068 -0.038793445
-0.025565857 0.013713923 0.0029153198 0.008433559 0.004163149 -0.022955682 0.007130966 -0.013258558
-0.07999129 -0.10917106 0.026543861 0.026852693 -0.07647454 0.059465423 -0.03559617 0.043408267
0.02878989 -0.07981601 0.045357537 -0.12671104 -0.04785589 0.024887951 -0.08156842 0.08100844
-0.004106034 -0.0049938387 0.009284014 0.05796207 -0.006744974 -0.05592981 0.008005863 0.046613492
0.060456913 -0.059768073 -0.06965412 -0.020698627 0.007130688 0.0316213 -0.0048480947 -0.057823207
0.034377936 -0.026390484 -0.030769972 0.043817624 0.014536338 0.06512743 -0.08980652 -0.08815629
-0.021144185 -0.0060480842 0.0167663 -0.028291183 0.115740106 0.023156451 0.065632254 0.0023610208
-0.12711248 -0.09680573 -0.116937816 -0.057750262 -0.12714458 0.029452888 -0.026543153 -0.054534256
0.010139104 -0.06285718 -0.05364671 -0.06048183 0.0030748993 -0.03632047 0.03384862 -0.06440472
-0.01732427 0.06935256 0.011726079 -0.12618372 -0.02453759 0.065906845 -0.051047366 0.057124503
0.060279608 0.034467783 0.06322694 0.05802307 -0.011559007 -0.10494666 0.068173066 -0.05533118
-0.07173241 0.085056156 0.06619248 0.009351395 -0.12242759 -0.0014800788 -0.0023517518 0.11689438
0.06163815 0.004076008 -0.033702563 0.021454265 0.038731534 0.0075711496 0.044306763 -0.038254302
-0.032204885 0.0031023556 -0.023567555 0.059648853 0.008396961 0.024662133 0.048957225 -0.03606958
-0.08496768 -0.0022997297 0.0006630256 0.0072658085 -0.010877491 0.03235875 0.094244234 0.07998186
-0.02746261 -0.04652548 -0.020745084 -0.06371595 0.0461354 0.028168337 0.06046461 -0.034492612
0.0018936354 0.021286236 -0.0781204 -0.02708398 -0.009828599 -0.06948085 -0.081681445 0.020713072
0.070660666 0.0054386044 0.03694302 -0.03246465 -0.052535515 0.067427225 -0.041604478 -0.009103904
-0.051943872 0.047718525 -0.09153949 -0.032721065 0.10110847 -0.008235201 0.0068638334 0.081316374
00000000: 6c7d 9b3d 9e9d b73c 15d3 10bd 3218 9c3d
00000010: 89a0 91bd 3ad3 b83c f8f4 90bd 0f37 1cbc
00000020: e122 433d 3ca8 1a3c 6b0c 723c c790 573d
00000030: 015a 413c 492e 013e 368f 2f3c 1b1e 363c
00000040: f5ef 8ebd 22e8 d3bc d770 ab3d 928b f73d
00000050: 79d2 ff3b ca49 013e da3c a73b c364 2a3d
00000060: eff8 3c3d 8a09 a93d 67cf 34bc 10ea a53d
00000070: 7cda ea3c 54b6 0cbd d5ca b5bb c85a 0ebd
00000080: 0122 363d f2c0 a8bd 02d3 32bd 9d28 4bbd
00000090: 8500 12bc 3ba3 32ba 3301 823d 7b57 a83d
000000a0: 610e 2d3d 29d5 d9bd c4c1 df3d 7c76 e83d
000000b0: 1fcb 153d c37d ffbc dbfa 7a3c 4326 ea3c
000000c0: 21cd 30bd 0505 153c e343 293c 5a29 2f3d
000000d0: 3969 15bd 4227 553c b36d 383d 0fb0 02be
000000e0: 00b6 02be 5558 ddbd a73b 363d ae0d d3bd
000000f0: 7540 02be 316a 65bc 8027 a73c 865c 9f3c
00000100: d4af 01be cb8c 3ebc 78d4 023d 5845 a03c
00000110: 8dc4 d03c 1bb2 1d3c 5866 be3c 0c12 823d
00000120: b4ad f5bd fe5f 60bd 3ae3 623c c067 6ebd
00000130: 1858 85bd a316 333d 01b5 503c cefe 343d
00000140: 7011 57bd a5a4 dc3c 4c9f 823d c8bf 93bd
00000150: e995 1fbc 95a7 64bd 4c27 bebd 8328 393d
00000160: 0c40 b2bc b2b8 82bd 99ab 433d 8d34 f4bc
00000170: 4790 86bd a140 813b d475 6a3d ef49 98bd
00000180: fcc2 66bd af6e 993d e8de ce39 15df 1f3d
00000190: 3143 d2bd 96d7 63bd 67cc a5bc e0e5 1ebd
000001a0: 7d6f d1bc 5db0 603c f30e 3f3b e92c 0a3c
000001b0: 066b 883b 8e0d bcbc e1aa e93b 6c3a 59bc
000001c0: 79d2 a3bd 1495 dfbd 8372 d93c 2efa db3c
000001d0: af9e 9cbd 0492 733d 4acd 11bd decc 313d
000001e0: c7d8 eb3c 9476 a3bd d3c8 393d 8ac0 01be
000001f0: 8a04 44bd d1e1 cb3c 580d a7bd c1e7 a53d
00000200: e98b 86bb 5ba3 a3bb fa1b 183c a369 6d3d
00000210: f104 ddbb a816 65bd 062b 033c caed 3e3d
00000220: aba1 773d 5ecf 74bd d2a6 8ebd 2b90 a9bc
00000230: 8ca8 e93b 5685 013d c4dc 9ebb 07d8 6cbd
00000240: e1cf 0c3d db30 d8bc 4f11 fcbc 1c7a 333d
00000250: d229 6e3c 8861 853d 7bec b7bd 498b b4bd
00000260: 9236 adbc 022f c6bb 7b59 893c e9c2 e7bc
00000270: 2609 ed3d 99b2 bd3c 346a 863d 5bbb 1a3b
00000280: c629 02be 1542 c6bd 187d efbd 8a8b 6cbd
00000290: 3032 02be 2f47 f13c 0771 d9bc 505f 5fbd
000002a0: 7c1e 263c 44bb 80bd a7bc 5bbd ccbb 77bd
000002b0: 4084 493b c6c4 14bd daa4 0a3d 9fe6 83bd
000002c0: a1eb 8dbc b708 8e3d bd1e 403c 4e36 01be
000002d0: 0e03 c9bc 2bfa 863d 0b17 51bd 62fb 693d
000002e0: c0e7 763d 172e 0d3d 207d 813d 99a9 6d3d
000002f0: fd61 3dbc 46ee d6bd 529e 8b3d f3a2 62bd
00000300: 71e8 92bd ec31 ae3d ec8f 873d 9836 193c
00000310: 51bb fabd 34ff c1ba d91f 1abb 5266 ef3d
00000320: 4978 7c3d 0990 853b b30b 0abd dbc0 af3c
00000330: f5a4 1e3d 6817 f83b 027b 353d 8bb0 1cbd
00000340: 45e9 03bd e450 4b3b bf10 c1bc 5b52 743d
00000350: 6893 093c 3e08 ca3c 5f87 483d b2bd 13bd
00000360: 8903 aebd 10b7 16bb e5ce 2d3a 0516 ee3b
00000370: 8137 32bc 9c8a 043d 1f03 c13d 88cd a33d
00000380: 44f9 e0bc 8091 3ebd 98f1 a9bc 827d 82bd
00000390: 79f8 3c3d 49c1 e63c bda9 773d 2048 0dbd
000003a0: dc33 f83a 7960 ae3c 97fd 9fbd 39df ddbc
000003b0: 2208 21bc fa4b 8ebd 9a48 a7bd 76ae a93c
000003c0: 8ab6 903d 5236 b23b 9051 173d a7f9 04bd
000003d0: 7b2f 57bd 4917 8a3d 7569 2abd 8a28 15bc
000003e0: 19c3 54bd 8074 433d 0e79 bbbd 8606 06bd
000003f0: f511 cf3d f0ec 06bc 02ea e03b 3389 a63d

bn2.weight f4 [64]
0.9596387 0.9840544 0.9514831 0.93334 1.0095319 0.94722843 0.9767608 1.0100437
0.9239012 0.9555589 1.0515851 1.0810974 0.98458636 1.0055943 0.93644285 0.97653764
1.0304672 0.9871151 1.0056244 1.0198144 0.9586705 1.0043389 1.0194497 1.0060455
1.054903 1.0168493 1.0667685 0.9253549 0.9781071 0.990839 1.0379102 0.9496448
0.9365797 1.0077379 1.0003206 0.9947384 0.98924065 0.9551418 0.9725009 1.0263686
0.99638987 1.0090694 0.97843385 1.0278555 1.0138022 0.9745899 0.91935384 0.9833815
0.9626855 1.0116056 1.0278006 0.9986453 1.0069745 1.0077859 1.0482712 0.9957503
1.0576783 1.0017209 1.0414177 0.96235263 1.0426497 0.98085964 0.99329215 1.0427139
00000000: e2aa 753f fdea 7b3f 6594 733f 5fef 6e3f
00000010: 5738 813f 907d 723f ff0c 7a3f 1d49 813f
00000020: ca84 6c3f 829f 743f 579a 863f 6661 8a3f
00000030: da0d 7c3f 50b7 803f b8ba 6f3f 5ffe 793f
00000040: 59e6 833f 93b3 7c3f 4db8 803f 4789 823f
00000050: 6e6b 753f 2d8e 803f 547d 823f 19c6 803f
00000060: 1007 873f 1e28 823f df8b 883f 0fe4 6c3f
00000070: 3a65 7a3f a0a7 7d3f 3eda 843f ec1b 733f
00000080: b0c3 6f3f 8efd 803f 810a 803f 2da7 7e3f
00000090: e03e 7d3f 2c84 743f d2f5 783f 0c60 833f
000000a0: 6813 7f3f 3029 813f a47a 7a3f c590 833f
000000b0: 45c4 813f b97e 793f c65a 6b3f e4be 7b3f
000000c0: 8f72 763f 4b7c 813f f88e 833f 38a7 7f3f
000000d0: 8ae4 803f 21ff 803f c02d 863f 7ee9 7e3f
000000e0: 0162 873f 6438 803f 2d4d 853f be5c 763f
000000f0: 8c75 853f 9e19 7b3f 6548 7e3f a677 853f

bn2.bias f4 [64]
-0.107448846 -0.15184401 -0.19010904 -0.11513118 -0.17093028 -0.040449146 -0.08664472 -0.117148116
-0.12689081 -0.13642211 -0.095048346 -0.13011283 -0.092357755 -0.1374118 -0.07748686 -0.08703993
-0.09279382 -0.09022318 -0.07497089 -0.111030586 -0.09525349 -0.1017786 -0.015178895 -0.118209325
-0.16720746 -0.07703937 -0.05129117 -0.022390738 -0.06853609 -0.046116337 -0.045722153 -0.05516664
-0.14737575 -0.0947862 -0.115019836 -0.12473208 0.0024797434 -0.0805273 -0.11106221 -0.12307254
-0.14451839 -0.020493925 -0.09226211 -0.11574304 -0.13602898 -0.090989836 -0.06363669 -0.06414418
-0.12081459 -0.16057533 -0.0872747 -0.08435414 -0.09847312 -0.05243244 -0.15412451 -0.06700008
-0.09964477 -0.10928436 -0.20505445 -0.15157568 -0.039383747 -0.076001935 -0.023308992 -0.1499584
00000000: 240e dcbd ff7c 1bbe f2ab 42be e5c9 ebbd
00000010: 5908 2fbe 01ae 25bd c972 b1bd 5aeb efbd
00000020: aaef 01be 3db2 0bbe b5a8 c2bd 4c3c 05be
00000030: 1026 bdbd aeb5 0cbe 6eb1 9ebd fe41 b2bd
00000040: b00a bebd eec6 b8bd 578a 99bd 0164 e3bd
00000050: 4314 c3bd 4c71 d0bd e6b0 78bc bb17 f2bd
00000060: 6f38 2bbe d1c6 9dbd b116 52bd c86c b7bc
00000070: a65c 8cbd 7ce4 3cbd 2747 3bbd 6af6 61bd
00000080: abe9 16be 441f c2bd 858f ebbd 8873 ffbd
00000090: 3183 223b 7feb a4bd 9574 e3bd 750d fcbd
000000a0: a1fc 13be e0e2 a7bc ebf3 bcbd b00a edbd
000000b0: 2e4b 0bbe e158 babd f453 82bd 065e 83bd
000000c0: a46d f7bd dc6d 24be 14bd b2bd ddc1 acbd
000000d0: 46ac c9bd 66c3 56bd d1d2 1dbe 5737 89bd
000000e0: 8f12 ccbd 7bd0 dfbd cbf9 51be a836 1bbe
000000f0: da50 21bd e7a6 9bbd 80f2 bebc b28e 19be

bn2.running_mean f4 [64]
-0.18811014 -0.33066458 -0.21724015 0.6339211 -0.60445416 0.31667218 -0.60977477 -0.25520247
-0.17615753 -0.4035393 -0.16188177 -0.4850089 0.25776783 -0.5982976 0.18627939 -0.6366238
-1.0381627 -0.48337334 -0.9880351 -0.4107598 -0.20020656 -0.46596378 0.29656205 -0.7218746
-0.13618472 -0.5572927 -0.18841524 0.5914983 -0.5842011 -0.38530907 -0.2557907 0.4765175
-0.6245025 -0.39185518 -0.68341374 -0.07027597 0.7168252 -0.52791435 -0.70689714 -0.34531158
-0.7141223 -0.25674406 -0.8690544 -0.7276554 -0.64523566 -0.19522859 -0.07366498 0.17463954
-0.3269607 -0.63450843 0.43583798 -0.3925443 -0.72095215 0.0026450192 -0.6613516 0.32907686
-0.43939552 -0.8491819 -0.4410344 0.3640466 -0.54189175 -0.046495903 -0.30457464 -0.6113144
00000000: f29f 40be de4c a9be 3474 5ebe a748 223f
00000010: 82bd 1abf db22 a23e 331a 1cbf e6a9 82be
00000020: a462 34be b49c cebe 56c4 25be 1653 f8be
00000030: 25fa 833e 082a 19bf 06c0 3e3e c7f9 22bf
00000040: 84e2 84bf b67c f7be deef 7cbf 1c4f d2be
00000050: f302 4dbe ce92 eebe fbd6 973e c6cc 38bf
00000060: 0274 0bbe bcaa 0ebf edef 40be 6f6c 173f
00000070: 348e 15bf 3b47 c5be 00f7 82be 1afa f33e
00000080: 65df 1fbf 3ea1 c8be 34f4 2ebf d9ec 8fbd
00000090: db81 373f 6525 07bf 36f7 34bf aecc b0be
000000a0: b8d0 36bf f573 83be 597a 5ebf a047 3abf
000000b0: 2a2e 25bf 01ea 47be aadd 96bd b5d4 323e
000000c0: 6567 a7be 256f 22bf 2826 df3e 91fb c8be
000000d0: 5290 38bf 0f58 2d3b 574e 29bf c37c a83e
000000e0: 73f8 e0be fc63 59bf 43cf e1be 5164 ba3e
000000f0: 6bb9 0abf 7d72 3ebd 35f1 9bbe 1a7f 1cbf

bn2.running_var f4 [64]
0.18256329 0.15799466 0.18295328 0.227516 0.22136629 0.23638354 0.28464773 0.26807797
0.26995254 0.25842446 0.51352686 0.29714957 0.24439101 0.28891522 0.22173145 0.44602615
0.49300018 0.37904018 0.29428935 0.19995348 0.34406456 0.27874035 0.19899386 0.55100286
0.2036821 0.36993462 0.32806844 0.2937583 0.48168564 0.32109028 0.35240066 0.36386895
0.2962274 0.25859797 0.32096112 0.25392497 0.3732626 0.45944265 0.37079033 0.33312678
0.35029706 0.5866044 0.4434552 0.39758888 0.3833132 0.23693918 0.4575555 0.21515314
0.21389334 0.23169293 0.18726352 0.31469217 0.460309 0.42778075 0.47642943 0.25120685
0.34086078 0.3418938 0.19674757 0.36237824 0.40947726 0.2719148 0.3053134 0.28373873
00000000: dff1 3a3e 5ac9 213e 1b58 3b3e f4f9 683e
00000010: d8ad 623e 870e 723e 59bd 913e 8441 893e
00000020: 3837 8a3e 3650 843e 7f76 033f fd23 983e
00000030: a341 7a3e b2ec 933e 920d 633e 8a5d e43e
00000040: 856a fc3e 8e11 c23e 18ad 963e 9bc0 4c3e
00000050: 3b29 b03e 0eb7 8e3e 0cc5 4b3e 860e 0d3f
00000060: 0a92 503e 1268 bd3e 96f8 a73e 7d67 963e
00000070: 809f f63e f265 a43e dc6d b43e 084d ba3e
00000080: 1eab 973e f466 843e 0455 a43e 7402 823e
00000090: 471c bf3e 113c eb3e 3bd8 bd3e 988f aa3e
000000a0: 235a b33e b52b 163f 8f0c e33e c590 cb3e
000000b0: a141 c43e 2fa0 723e b744 ea3e 1b51 5c3e
000000c0: db06 5b3e e940 6d3e 02c2 3f3e 551f a13e
000000d0: 9fad eb3e 1406 db3e 8fee f33e 2f9e 803e
000000e0: 4e85 ae3e b40c af3e 3278 493e a489 b93e
000000f0: 01a7 d13e 6b38 8b3e 0a52 9c3e 3446 913e

conv3.weight f4 [128, 64, 3]
-0.0036302258 0.058102287 -0.0330831 0.06856715 0.055467065 0.019100085 -0.024083288 -0.048680056
-0.04518888 0.02004482 -0.0008198611 -0.01672474 -0.07700451 -0.019200625 -0.11029844 -0.06541952
-0.0774019 -0.04412626 0.016315961 0.032133844 -0.047919642 0.08783842 0.088996775 0.09895398
-0.052136514 -0.082549445 -0.03785837 0.09069751 0.090804406 0.059363116 -0.1182732 -0.05972711
-0.10205429 0.02466715 -0.09750434 -0.013069062 -0.0064321677 0.020161292 0.007647704 0.0260382
-0.06095903 -0.062142786 -0.05919384 0.0290076 -0.08855068 0.044204682 0.053713664 0.010305608
-0.0375789 -0.03173297 -0.11811158 0.0557495 0.007510236 0.08409825 -0.04868782 0.008442263
-0.0792344 -0.016185109 0.088618115 0.037298363 0.017630257 0.03343535 0.017524062 0.0116939
-0.053289693 -0.023744417 -0.11715545 -0.09342073 -0.117995575 0.024284655 0.019219924 -0.009065579
-0.039377425 0.0013066705 -0.0534638 -0.052334774 -0.028019506 -0.051829066 0.065200016 -0.042807154
0.033901643 -0.060219213 -0.035423346 -0.041106477 0.04563211 -0.029645575 0.019342957 -0.0121354805
0.0075626643 -0.016997373 -0.007951383 0.09357717 0.08499644 -0.02650108 0.05898555 0.054489706
-0.07565423 -0.030158097 -0.09346896 0.081522256 0.0025879503 0.0036937431 -0.015943196 -0.034416605
-0.058094278 -0.026520837 0.0177342 0.015571277 -0.11821832 -0.071063675 -0.062375806 -0.010911661
-0.0348133 0.015811682 -0.025065698 -0.010376549 -0.015197301 -0.0973478 -0.0019277196 -0.03675047
0.004088033 -0.045262672 -0.030566962 -0.006127607 -0.07881889 -0.058977157 0.011015427 -0.012716208
-0.024920603 0.055302296 0.025864143 0.0010810439 -0.011147389 0.10141052 -0.020706713 -0.08712895
-0.08775548 -0.052318465 -0.0014552763 0.022320973 0.005816943 0.033944014 0.025279315 -0.010854964
-0.012616241 0.0074193645 0.07274786 0.061000995 0.020807512 0.06395429 0.02355029 0.045447905
0.009472261 0.04276801 0.00020624964 -0.032491956 0.073319644 0.042286687 0.043171555 -0.04112408
-0.072898656 -0.104523 0.0050980416 -0.052817684 -0.008655448 0.021642655 0.04271739 0.032884125
-0.04189291 -0.09621861 -0.058131885 -0.079989195 -0.07683084 -0.10425218 -0.020944735 -0.05189462
-0.03884866 0.07468911 0.041528463 0.086194314 0.054242913 -0.059872106 0.03914296 -0.014311283
0.040190894 0.044915307 0.0015855553 -0.0044045122 0.041948836 -0.06970723 -0.033304073 0.04540191
-0.03257799 0.030830713 -0.04303466 0.022763858 0.02562053 0.014899913 0.02001008 -0.025304241
0.006284357 -0.016703643 -0.03434608 -0.02164794 -0.04270426 0.019670742 -0.065171435 -0.034707796
-0.049485907 0.015282814 0.0077480036 0.033471875 -0.002616815 0.02233383 0.0586139 0.042594995
-0.06585029 -0.058304958 -0.043000877 0.017508237 -0.0019734222 -0.01489409 -0.09564634 -0.10646129
-0.09792957 -0.04795152 -0.109838404 -0.075294435 -0.026840275 0.030781545 -0.010092241 -0.015519154
-0.07776396 -0.029172068 -0.051676504 -0.06461281 -0.033173528 -9.154922e-05 0.030769277 -0.054145016
-0.055661205 -0.04738068 -0.086483955 0.01029544 -0.043695744 0.034106422 -0.0011684565 -0.017435106
-0.09544564 -0.0029683816 0.08638711 0.042386208 0.030142356 0.0116090365 0.03391923 0.010710656
00000000: 15e9 6dbb aafc 6d3d 2582 07bd ef6c 8c3d
00000010: 6f31 633d c877 9c3c 514a c5bc bd64 47bd
00000020: fa17 39bd 0935 a43c f2eb 56ba 5202 89bc
00000030: 8ab4 9dbd a14a 9dbc 26e4 e1bd abfa 85bd
00000040: e384 9ebd bdbd 34bd 0da9 853c c79e 033d
00000050: 6347 44bd a1e4 b33d f143 b63d 62a8 ca3d
00000060: 198d 55bd af0f a9bd 6111 1bbd 9ebf b93d
00000070: a9f7 b93d bd26 733d 3839 f2bd 6aa4 74bd
00000080: d701 d1bd c312 ca3c 5bb0 c7bd 9e1f 56bc
00000090: efc4 d2bb 4b29 a53c 9799 fa3b 104e d53c
000000a0: 2db0 79bd 6f89 7ebd 3d75 72bd 59a1 ed3c
000000b0: 0f5a b5bd f80f 353d dc02 5c3d dad8 283c
000000c0: 55ec 19bd 6efa 01bd 7ce4 f1bd 9659 643d
000000d0: 6d18 f63b b43b ac3d e16c 47bd 6b51 0a3c
000000e0: a545 a2bd a296 84bc 6a7d b53d 2bc6 183d
000000f0: 546d 903c 81f3 083d 9f8e 8f3c c697 3f3c
00000100: 4b46 5abd a783 c2bc 32ef efbd 5e53 bfbd
00000110: aaa7 f1bd 9df0 c63c 1a73 9d3c cb87 14bc
00000120: 394a 21bd 9644 ab3a dcfc 5abd fd5c 56bd
00000130: 2a89 e5bc b74a 54bd 9687 853d 8e56 2fbd
00000140: 73dc 0a3d 6ca8 76bd 1218 11bd 445f 28bd
00000150: bce8 3a3d 47db f2bc 1f75 9e3c e5d3 46bc
00000160: 3ad0 f73b 133e 8bbc 8446 02bc 63a5 bf3d
00000170: 9d12 ae3d cb18 d9bc d59a 713d 9930 5f3d
00000180: 9bf0 9abd 1d0e f7bc a76c bfbd 24f5 a63d
00000190: 9a9a 293b ba12 723b 4e9b 82bc 6df8 0cbd
000001a0: 44f4 6dbd 3a42 d9bc 5047 913c ab1e 7f3c
000001b0: 721c f2bd d589 91bd c67d 7fbd d3c6 32bc
000001c0: 6498 0ebd 8087 813c 9456 cdbc 6702 2abc
000001d0: 1afe 78bc 495e c7bd 89ab fcba a987 16bd
000001e0: e8f4 853b 5a65 39bd 9167 fabc 18ca c8bb
000001f0: cc6b a1bd 0892 71bd 0d7a 343c a457 50bc
00000200: 4b26 ccbc a984 623d 0ae1 d33c d0b1 8d3a
00000210: 8aa3 36bc 52b0 cf3d 20a1 a9bc aa70 b2bd
00000220: 25b9 b3bd e34b 56bd f8be beba 79da b63c
00000230: 0e9c be3b e108 0b3d 9116 cf3c 05d9 31bc
00000240: 5ab4 4ebc 241e f33b d4fc 943d 2edc 793d
00000250: 8474 aa3c 77fa 823d 8aec c03c 9527 3a3d
00000260: 8b31 1b3c 822d 2f3d b744 5839 4916 05bd
00000270: 9c28 963d ce34 2d3d a8d4 303d b971 28bd
00000280: e44b 95bd 2810 d6bd 790d a73b 5b57 58bd
00000290: 95cf 0dbc f04b b13c 6ef8 2e3d 81b1 063d
000002a0: e697 2bbd 430e c5bd b31b 6ebd 60d1 a3bd
000002b0: 7d59 9dbd 2b82 d5bd 4b94 abbc 748f 54bd
000002c0: c61f 1fbd 9bf6 983d c019 2a3d a586 b03d
000002d0: d12d 5e3d 743c 75bd 5e54 203d df79 6abc
000002e0: 359f 243d 1df9 373d 68d2 cf3a ba53 90bb
000002f0: 8bd2 2b3d aac2 8ebd da69 08bd 5af7 393d
00000300: 8070 05bd b190 fc3c 1d45 30bd 457b ba3c
00000310: 25e2 d13c c41e 743c 2eec a33c d74a cfbc
00000320: 02ed cd3b 14d6 88bc 7aae 0cbd 0557 b1bc
00000330: aaea 2ebd 8924 a13c 9a78 85bd c329 0ebd
00000340: bcb1 4abd c564 7a3c f7e2 fd3b ce19 093d
00000350: df7e 2bbb 70f5 b63c 2115 703d 1778 2e3d
00000360: 84dc 86bd 2ed1 6ebd b021 30bd 6f6d 8f3c
00000370: 8854 01bb 5706 74bc 3ae2 c3bd 6008 dabd
00000380: 4c8f c8bd d068 44bd f5f2 e0bd f833 9abd
00000390: 23e0 dbbc 9429 fc3c ed59 25bc 0d44 7ebc
000003a0: b642 9fbd 43fa eebc beaa 53bd b953 84bd
000003b0: f7e0 07bd 1dfe bfb8 da0f fc3c 2ac7 5dbd
000003c0: 01fd 63bd 3e12 42bd 801e b1bd 35ae 283c
000003d0: 4ffa 32bd 2db3 0b3d e526 99ba 11d4 8ebc
000003e0: 0179 c3bd 2e89 42bb baeb b03d 299d 2d3d
000003f0: 1aed f63c d433 3e3c e4ee 0a3d bf7b 2f3c

bn3.weight f4 [128]
1.2292148 1.1786898 1.0881892 1.2069007 1.1311003 1.2006068 1.1626772 1.2151582
1.1751661 1.1002643 1.214975 1.0902742 1.1034288 1.1778556 1.0786453 1.1450008
1.193767 1.1625904 1.3126335 1.1880437 1.1386563 1.2051057 1.1224296 1.1816723
1.1621549 1.127811 1.1675382 1.2332932 1.2144678 1.1543448 1.1912347 1.1142519
1.1193174 1.2168208 1.1074005 1.2271339 1.1535486 1.2360644 1.1260574 1.2133222
1.0646132 1.149846 1.095939 1.1496861 1.0999577 1.1017988 1.2146614 1.2132794
1.2006769 1.0715865 1.1815954 1.2282745 1.2608622 1.2114217 1.108498 1.2231752
1.2604299 1.0720391 1.1052947 1.1999316 1.1157415 1.302535 1.1987624 1.1540751
1.1601446 1.2372134 1.106811 1.2174567 1.2378649 1.1184647 1.1011889 1.1789
1.1600276 1.1964229 1.2213993 1.118206 1.2261168 1.0750871 1.1481614 1.092895
1.1941428 1.217069 1.1836301 1.204219 1.1081073 1.1921968 1.1147118 1.1901246
1.1911027 1.2466601 1.213642 1.1047473 1.2140427 1.2312052 1.0977424 1.2060676
1.2556467 1.253888 1.1890458 1.0624987 1.2184366 1.0840437 1.2261842 1.2321298
1.2815846 1.1940516 1.1844563 1.2145517 1.1067718 1.1945509 1.1642239 1.1107106
1.1588005 1.2028599 1.1783909 1.1725748 1.2937282 1.159591 1.1466551 1.229144
1.1029937 1.1190916 1.2142091 1.130269 1.2174 1.1250596 1.1524996 1.0994177
00000000: e956 9d3f 4fdf 963f c949 8b3f b97b 9a3f
00000010: e5c7 903f 7cad 993f 9bd2 943f 4e8a 9b3f
00000020: d86b 963f 76d5 8c3f 4d84 9b3f 1b8e 8b3f
00000030: 283d 8d3f f9c3 963f 0d11 8a3f 638f 923f
00000040: 5bcd 983f c3cf 943f 6004 a83f d111 983f
00000050: 7dbf 913f e740 9a3f c6ab 8f3f 0a41 973f
00000060: 7ec1 943f 1c5c 903f e471 953f 8ddc 9d3f
00000070: ae73 9b3f 92c1 933f 617a 983f ce9f 8e3f
00000080: cb45 8f3f c9c0 9b3f 4dbf 8d3f b912 9d3f
00000090: 7ba7 933f 5c37 9e3f a622 903f 244e 9b3f
000000a0: 3f45 883f 272e 933f bb47 8c3f ea28 933f
000000b0: 6acb 8c3f be07 8d3f 067a 9b3f bd4c 9b3f
000000c0: c8af 993f bf29 893f 853e 973f 1938 9d3f
000000d0: ef63 a13f de0f 9b3f 43e3 8d3f 0191 9c3f
000000e0: c455 a13f 9438 893f 4c7a 8d3f 5c97 993f
000000f0: 9ed0 8e3f 78b9 a63f 0c71 993f bcb8 933f
00000100: 9e7f 943f 025d 9e3f fcab 8d3f 9fd5 9b3f
00000110: 5b72 9e3f da29 8f3f c2f3 8c3f 32e6 963f
00000120: c97b 943f 6324 993f d056 9c3f 6021 8f3f
00000130: 65f1 9c3f 749c 893f f4f6 923f fce3 8b3f
00000140: acd9 983f ebc8 9b3f 3181 973f d923 9a3f
00000150: 76d6 8d3f e899 983f e0ae 8e3f 0156 983f
00000160: 0e76 983f 8f92 9f3f 9f58 9b3f 5c68 8d3f
00000170: c065 9b3f 2298 9d3f d382 8c3f 6c60 9a3f
00000180: 08b9 a03f 677f a03f a732 983f f5ff 873f
00000190: bbf5 9b3f f2c1 8a3f 9bf3 9c3f 6eb6 9d3f
000001a0: f70a a43f afd6 983f 449c 973f 6e76 9b3f
000001b0: b3aa 8d3f 0be7 983f 4a05 953f c42b 8e3f
000001c0: 9353 943f 50f7 993f 83d5 963f ee16 963f
000001d0: e398 a53f 7a6d 943f 98c5 923f 9754 9d3f
000001e0: e62e 8d3f 653e 8f3f 346b 9b3f a8ac 903f
000001f0: c3d3 9b3f f401 903f 1b85 933f b8b9 8c3f

bn3.bias f4 [128]
0.076868646 0.021696987 0.0008115312 0.12047317 0.05862805 0.081810504 0.038523793 0.0648939
0.08007363 0.021899868 0.11482376 0.05311883 0.058864426 0.049135435 0.00675254 0.043512907
0.061738722 0.099472515 0.09187128 0.09383048 0.0688791 0.09536304 0.079951875 0.095641315
0.09230735 0.060797382 0.074972965 0.092149995 0.112633124 0.08565356 0.10103458 0.029014587
0.053250745 0.100350864 0.0083575025 0.12653767 0.059318203 0.1338359 0.08723468 0.09504953
0.057516173 0.07837947 0.029964712 0.09332246 0.037454724 0.009306253 0.02297602 0.061988313
0.088496424 0.008382108 0.049424335 0.11994704 0.116411604 0.09294747 0.06596976 0.11981693
0.11564517 0.059557635 0.057239637 0.08940436 0.07464157 0.15039141 0.09498651 0.04041953
0.08346873 0.12083156 0.067544505 0.091361314 0.1307812 0.053460985 0.017904919 0.10109717
0.05596731 0.034516837 0.083862014 0.038754106 0.116835035 0.011598993 0.034026567 0.06268743
0.07047953 0.10450061 0.112705395 0.074825235 0.03817458 0.09317009 0.038477708 0.089466356
0.06199206 0.08145188 0.11129061 -0.026490996 0.11978027 0.06295531 0.037431028 0.1349376
0.08963903 0.10450077 0.10493426 0.005964355 0.10406136 0.016447745 0.10939219 0.12891601
0.10702887 0.05741225 0.08604125 0.0883998 0.04877062 0.067012705 0.09759963 -0.009710101
0.09535425 0.102939345 0.107942335 0.076370545 0.12580562 0.09786906 0.09953117 0.09031155
0.030693488 0.10289881 0.11816467 0.07421568 0.13170722 0.04809765 0.08643237 0.022255965
00000000: 4f6d 9d3d e1bd b13c f0bc 543a a3ba f63d
00000010: f723 703d 448c a73d 20cb 1d3d 18e7 843d
00000020: a5fd a33d 5a67 b33c b828 eb3d 2193 593d
00000030: d31b 713d 3d42 493d 6944 dd3b 973a 323d
00000040: bee1 7c3d 3fb8 cb3d 0227 bc3d 322a c03d
00000050: 7c10 8d3d b34d c33d cfbd a33d 98df c33d
00000060: a30b bd3d ad06 793d 6d8b 993d 23b9 bc3d
00000070: 32ac e63d 226b af3d 38eb ce3d 00b0 ed3c
00000080: 741d 5a3d c184 cd3d e8ed 083c 1793 013e
00000090: a5f7 723d 470c 093e 19a8 b23d 54a9 c23d
000000a0: 1496 6b3d 6a85 a03d 8e78 f53c d91f bf3d
000000b0: 206a 193d 4179 183c 3538 bc3c 75e7 7d3d
000000c0: 9d3d b53d 1c55 093c 2c71 4a3d cba6 f53d
000000d0: 3569 ee3d 3e5b be3d 271b 873d 9462 f53d
000000e0: 60d7 ec3d b5f2 733d 1c74 6a3d a219 b73d
000000f0: aedd 983d 3500 1a3e 4a88 c23d f38e 253d
00000100: a7f1 aa3d 8976 f73d c654 8a3d a41b bb3d
00000110: 82eb 053e e8f9 5a3d 56ad 923c 080c cf3d
00000120: fa3d 653d 8761 0d3d d9bf ab3d a0bc 1e3d
00000130: 3547 ef3d b409 3e3c 715f 0b3d 4462 803d
00000140: 9257 903d 6a04 d63d 16d2 e63d f93d 993d
00000150: f35c 1c3d f6cf be3d cd9a 1d3d 233a b73d
00000160: 63eb 7d3d 3ed0 a63d 55ec e33d a503 d9bc
00000170: 5c4f f53d b7ee 803d 4751 193d 152d 0a3e
00000180: ab94 b73d 8004 d63d c6e7 d63d a370 c33b
00000190: 1f1e d53d 6cbd 863c 0309 e03d 8f02 043e
000001a0: f431 db3d 1c29 6b3d 6536 b03d f40a b53d
000001b0: b4c3 473d f53d 893d 51e2 c73d 1e17 1fbc
000001c0: 1749 c33d ddd1 d23d df10 dd3d 2968 9c3d
000001d0: 30d3 003e 936f c83d 00d7 cb3d 43f5 b83d
000001e0: e970 fb3c 9cbc d23d 5200 f23d 64fe 973d
000001f0: 42de 063e 0b02 453d 7403 b13d 2452 b63c

bn3.running_mean f4 [128]
-0.6854616 -0.81247735 0.35104826 -0.18637542 -1.0305048 -0.15669128 -0.5260867 -0.2592414
0.38077202 0.38563722 -0.105271466 -0.055009373 0.45641932 -0.87063324 0.37455478 -0.54586184
-0.72838044 -0.5253816 -0.15294494 -0.5443822 -0.79365736 0.40034243 0.09507461 0.52777606
-1.0577685 -0.5869496 -0.72338384 0.48871934 0.12785687 -0.24152704 0.31276277 0.51955074
0.0916696 -0.35978115 0.1314155 0.08589608 -0.90269834 0.5001657 0.19828835 -0.9155056
0.10764468 -0.5485447 0.19408931 -0.16393916 -0.8649995 0.45951676 -0.41864893 0.42151245
-0.95566064 0.08438133 -0.6773716 0.08283731 -0.10129316 -1.0971936 -0.24212854 0.15449217
-0.16000977 0.5483801 -0.08445399 -0.6540127 -0.43775716 0.28063926 0.25037393 -0.8766578
0.059045535 -0.07674238 -0.46782306 -0.7288693 0.15881391 -0.01509926 0.8145863 -1.1969564
-0.3731881 -0.44632286 -0.80537426 -0.48641053 0.015165646 0.45067957 -0.15998496 0.10081096
-0.74781644 -1.0037392 -0.0055697295 -0.24503049 0.55697924 0.11307354 -0.13004644 -0.09781556
-0.45627373 0.023816196 0.26916218 0.6977325 -0.080411546 -0.80437666 0.19887902 0.5225082
-0.20500302 0.02027493 0.18841971 -0.0012363979 0.05496067 0.22790329 0.4430886 -0.14620444
-0.19085084 -0.7320656 -0.5115189 -0.27626964 -0.47124547 -0.00516731 -0.44318908 -0.4456775
-0.35231534 0.5184473 -0.15632994 -0.64373934 -0.31997743 0.61311764 0.76746356 -0.33291745
-0.030221544 0.1941388 -0.07975586 -0.44387007 0.029588748 -0.7287963 0.649104 0.94832367
00000000: 697a 2fbf 84fe 4fbf 99bc b33e 33d9 3ebe
00000010: 95e7 83bf ae73 20be 9ead 06bf 4abb 84be
00000020: 8df4 c23e 3e72 c53e 9198 d7bd 8251 61bd
00000030: cbaf e93e d2e1 5ebf a5c5 bf3e 9abd 0bbf
00000040: 2477 3abf 697f 06bf 999d 1cbe a25c 0bbf
00000050: 212d 4bbf aff9 cc3e 7ab6 c23d 551c 073f
00000060: f564 87bf 5442 16bf af2f 39bf 6c39 fa3e
00000070: e9ec 023e dd52 77be 7122 a03e 4701 053f
00000080: 45bd bb3d 3c35 b8be c991 063e 49ea af3d
00000090: 3d17 67bf dc0a 003f 1a0c 4b3e 935e 6abf
000000a0: d074 dc3d 6d6d 0cbf 59bf 463e abdf 27be
000000b0: 9b70 5dbf c845 eb3e 2759 d6be 7bd0 d73e
000000c0: 2da6 74bf 1ed0 ac3d 3a68 2dbf 9ca6 a93d
000000d0: ca72 cfbd d770 8cbf 8bf0 77be 3233 1e3e
000000e0: 9ad9 23be a362 0c3f 37f6 acbd 606d 27bf
000000f0: b521 e0be f3af 8f3e 0331 803e a56c 60bf
00000100: bbd9 713d 1c2b 9dbd 8186 efbe 2e97 3abf
00000110: 1da0 223e e362 77bc ba88 503f de35 99bf
00000120: 8312 bfbe 6e84 e4be 022d 4ebf cd0a f9be
00000130: 5479 783c 79bf e63e 19d3 23be fa75 ce3d
00000140: e670 3fbf 877a 80bf 4782 b6bb 46e9 7abe
00000150: 3196 0e3f 1a93 e73d e52a 05be 8653 c8bd
00000160: b69c e9be 2f1a c33c a0cf 893e 999e 323f
00000170: cfae a4bd a1eb 4dbf f1a6 4b3e 19c3 053f
00000180: 50ec 51be 9c17 a63c 19f1 403e a10e a2ba
00000190: 711e 613d 7b5f 693e 82dc e23e 9eb6 15be
000001a0: 676e 43be a768 3bbf e7f2 02bf 3773 8dbe
000001b0: 1647 f1be 8a52 a9bb aee9 e2be d72f e4be
000001c0: ad62 b4be f6b8 043f f514 20be 1acc 24bf
000001d0: 15d4 a3be 47f5 1c3f 7e78 443f 2874 aabe
000001e0: 2c93 f7bc 52cc 463e 0a57 a3bd f042 e3be
000001f0: 1a64 f23c 6592 3abf ae2b 263f 57c5 723f

bn3.running_var f4 [128]
0.08765345 0.08751263 0.14172065 0.105497114 0.13570492 0.12403769 0.103122786 0.12769307
0.11180134 0.13281183 0.10108741 0.2066478 0.17166452 0.104493976 0.14225388 0.10302591
0.095795795 0.15437211 0.110745765 0.09423771 0.0749219 0.103820205 0.16571155 0.11727522
0.11327951 0.09353221 0.091308534 0.14119458 0.104861505 0.13328627 0.09606731 0.12760514
0.12799597 0.14476521 0.14025316 0.123788305 0.09432061 0.113461964 0.1384834 0.09185623
0.14116709 0.14609744 0.14085709 0.17265143 0.09862344 0.16414252 0.088055894 0.10542505
0.089054905 0.11636939 0.10249134 0.13838226 0.100975096 0.104349606 0.11950838 0.10730737
0.13130173 0.20915665 0.09803188 0.11924366 0.11184556 0.12658982 0.10703852 0.09100086
0.22327207 0.09641358 0.12425485 0.086338565 0.10901059 0.13985382 0.19140851 0.1419205
0.080171 0.109005295 0.09354466 0.083774626 0.118464924 0.1281464 0.15696806 0.15272556
0.12262656 0.09140742 0.15596111 0.12229964 0.13934487 0.11194082 0.12511738 0.08180603
0.1255355 0.106480025 0.115632564 0.2182042 0.1202662 0.10292481 0.1401706 0.08608704
0.15192644 0.12830813 0.14692216 0.13724731 0.16074744 0.15968703 0.13221227 0.10337117
0.1264127 0.09703561 0.08795816 0.12138844 0.11045152 0.12175319 0.12807599 0.11855972
0.1427777 0.1340124 0.097198665 0.11322322 0.15215491 0.11761254 0.13775837 0.10207975
0.13070895 0.21806233 0.09665803 0.13053367 0.14701219 0.13270219 0.12910607 0.13259721
00000000: a783 b33d d239 b33d 381f 113e df0e d83d
00000010: 3bf6 0a3e 7907 fe3d 0a32 d33d f9c1 023e
00000020: 1af8 e43d d3ff 073e ea06 cf3d 7b9b 533e
00000030: d3c8 2f3e f000 d63d 00ab 113e 40ff d23d
00000040: 9630 c43d b913 1e3e adce e23d b3ff c03d
00000050: a770 993d b09f d43d 4ab0 293e fe2d f03d
00000060: 16ff e73d d18d bf3d f8ff ba3d 5095 103e
00000070: a1c1 d63d 327c 083e f0be c43d ecaa 023e
00000080: 6011 033e 553d 143e 869e 0f3e b984 fd3d
00000090: 2a2b c13d bf5e e83d 98ce 0d3e 1e1f bc3d
000000a0: 1b8e 103e 919a 153e d73c 103e 89cb 303e
000000b0: 16fb c93d fa14 283e a656 b43d 17e9 d73d
000000c0: 6b62 b63d 1353 ee3d fbe6 d13d 14b4 0d3e
000000d0: 08cc ce3d 3fb5 d53d cfc0 f43d f7c3 db3d
000000e0: f673 063e 292d 563e f0c4 c83d 0536 f43d
000000f0: 490f e53d c3a0 013e 0337 db3d a95e ba3d
00000100: 6fa1 643e 7c74 c53d 5479 fe3d 46d2 b03d
00000110: f240 df3d d735 0f3e 9800 443e 9c53 113e
00000120: b130 a43d 2b3e df3d 5894 bf3d 0892 ab3d
00000130: bd9d f23d cf38 033e 3cbc 203e 1764 1c3e
00000140: a223 fb3d d033 bb3d 45b4 1f3e 3c78 fa3d
00000150: 6cb0 0e3e 3b41 e53d c51e 003e eb89 a73d
00000160: 618c 003e 3312 da3d c4d0 ec3d ec70 5f3e
00000170: 204e f63d 3eca d23d e288 0f3e 674e b03d
00000180: 9b92 1b3e 3563 033e c372 163e 8f8a 0c3e
00000190: fa9a 243e ff84 233e a762 073e 44b4 d33d
000001a0: 5572 013e 9bba c63d 6823 b43d 819a f83d
000001b0: 6834 e23d bd59 f93d 5a26 033e 70cf f23d
000001c0: 5134 123e 8c3a 093e 1810 c73d 93e1 e73d
000001d0: 7fce 1b3e d8de f03d 8810 0d3e 300f d13d
000001e0: 91d8 053e bb4b 5f3e a5f4 c53d 9eaa 053e
000001f0: 5d8a 163e 15e3 073e 6234 043e 90c7 073e

fc1.weight f4 [64, 128]
0.080189615 -0.08384219 0.1280378 -0.08714748 0.059354067 0.05954454 -0.03495174 -0.032354146
0.08935338 -0.09256988 0.18501243 0.10453744 -0.03185632 -0.20981559 -0.0713972 -0.021434387
-0.1092586 0.15853074 0.16144365 0.013709318 -0.09965071 0.16467518 0.003028459 0.103760965
0.041001532 -0.116491586 0.02475669 0.06775112 0.19587207 0.101176575 0.14927599 -0.013593039
-0.13919012 0.08283382 -0.05314254 0.06717112 -0.06718297 0.14357394 0.07741664 -0.046387024
0.031232107 0.074520715 0.08764612 -0.023982689 -0.112108 0.033008132 0.03643256 0.15355808
-0.07240468 -0.07833969 0.026153892 -0.01260901 0.16982411 -0.114216425 -0.1182765 0.16565707
0.11552054 0.009733233 -0.09395626 -0.1536074 0.0916345 0.1567266 0.08461015 -0.023030447
0.097266145 0.2059101 -0.065403566 -0.08579481 0.17969355 0.024256155 -0.04525455 -0.03968349
0.07789212 0.0038618778 -0.123733655 -0.043423418 0.24719016 -0.034018643 -0.033443294 -0.034004297
-0.024840804 -0.15428625 0.10584763 0.026549334 0.0528883 0.14231925 0.048562128 0.064399496
-0.11414668 0.22169797 -0.052849185 0.047756195 0.23317893 -0.1401198 0.006250778 0.18479496
0.043724433 0.1376331 0.033111062 0.007199558 0.10568262 0.008954253 0.095071584 0.22412287
0.13285129 -0.21328008 -0.09156085 0.14024235 -0.046744287 0.027787866 0.14641324 0.057715427
0.12513092 0.2025905 0.1759453 -0.027561523 0.060492516 0.1116625 0.15627441 0.18137172
-0.15219498 0.14236803 0.16901542 -0.124852166 0.056833234 0.14632136 0.24771743 0.01041916
0.24624088 0.17613086 0.08467914 0.0028025045 0.045345638 0.1101482 -0.015352993 -0.07667977
0.14279814 -0.017368034 0.07693109 -0.04678988 -0.030808823 0.0051639 0.015325971 0.08386938
0.16592029 -0.01860115 0.24943726 0.18040313 0.03453827 0.1336289 0.021546418 0.06463816
0.051039256 0.03957853 -0.087744094 -0.07372094 -0.0039222795 -0.010152419 0.05806688 -0.10443033
-0.00817101 0.16163872 0.11764628 -0.12827456 0.13351569 0.122432396 -0.012678975 0.07435737
0.033910625 0.07042189 -0.034879263 -0.062538676 0.12704065 -0.07783713 0.099905424 0.11831739
0.036031134 0.0035093958 0.17749974 -0.053016663 0.18957047 0.008708196 0.052091345 0.08557831
0.24943249 -0.08571149 0.034762196 -0.07163918 0.10344012 0.15031244 -0.08665708 0.11840529
-0.07464436 -0.031281747 -0.04246308 0.098781146 -0.0904169 -0.05141895 -0.050573204 0.08881608
0.12687758 -0.025793515 0.12153814 0.14019641 0.13676225 -0.094000995 -0.05231615 -0.051148187
-0.08662506 0.13452357 -0.0931428 -0.1695496 -0.096799344 0.11684071 0.16361056 0.22976302
-0.15664847 -0.11687905 0.05207577 -0.038853023 -0.11198737 0.15284452 -0.026901789 -0.019021058
-0.09928394 0.0037305814 -0.06108037 -0.01622642 -0.14841859 -0.048561372 -0.033818956 0.11118047
-0.11279802 -0.02646446 0.018125053 -0.023341961 0.12266744 0.1576564 0.17287602 0.089531824
0.11901499 0.10498064 0.18409927 -0.0717245 0.0007655345 0.09327856 -0.0027580657 0.24732673
-0.002034126 0.024507716 0.13166799 0.056580324 -0.087195836 0.07079983 -0.021210859 -0.11004374
00000000: 743a a43d 74b5 abbd 571c 033e 617a b2bd
00000010: 401d 733d fae4 733d 8e29 0fbd c885 04bd
00000020: e8fe b63d 4795 bdbd e673 3d3e ba17 d63d
00000030: c67b 02bd e6d9 56be b238 92bd 2b97 afbc
00000040: f9c2 dfbd e255 223e 7c51 253e 0c9d 603c
00000050: ac15 ccbd 9ca0 283e 1c79 463b a180 d43d
00000060: 39f1 273d 2493 eebd 8bce ca3c 19c1 8a3d
00000070: b092 483e aa35 cf3d cedb 183e 56b5 5ebc
00000080: db87 0ebe c7a4 a93d feab 59bd 0391 893d
00000090: 3a97 89bd 0c05 133e 9e8c 9e3d 5200 3ebd
000000a0: 7ada ff3c 519e 983d cf7f b33d 5877 c4bc
000000b0: e198 e5bd 8933 073d 4f3a 153d 543e 1d3e
000000c0: e848 94bd 8f70 a0bd b040 d63c 0596 4ebc
000000d0: 5fe6 2d3e 4dea e9bd f33a f2bd 02a2 293e
000000e0: 0896 ec3d 2378 1f3c 246c c0bd 424b 1dbe
000000f0: deaa bb3d f07c 203e 1648 ad3d 59aa bcbc
00000100: 7933 c73d 19da 523e 4ef2 85bd 30b5 afbd
00000110: 9601 383e d8b4 c63c d65c 39bd 288b 22bd
00000120: e785 9f3d 8f17 7d3b 1268 fdbd c1dc 31bd
00000130: 6b1f 7d3e 2257 0bbd d6fb 08bd 1748 0bbd
00000140: f17e cbbc 37fd 1dbe a4c6 d83d fd7d d93c
00000150: 67a1 583d 23bc 113e 15e9 463d e2e3 833d
00000160: bcc5 e9bd cb04 633e 6378 58bd 009c 433d
00000170: 75c6 6e3e 917b 0fbe 54d3 cc3b e43a 3d3e
00000180: 6418 333d b1ef 0c3e 779f 073d 45ea eb3b
00000190: 2170 d83d dcb4 123c e4b4 c23d 7780 653e
000001a0: 2b0a 083e 1866 5abe 4184 bbbd b19b 0f3e
000001b0: f076 3fbd 61a3 e33c 5aed 153e 0367 6c3d
000001c0: 5222 003e e273 4f3e 012b 343e b4c8 e1bc
000001d0: 00c7 773d 4faf e43d 6606 203e 82b9 393e
000001e0: 00d9 1bbe edc8 113e 6112 2d3e 7eb2 ffbd
000001f0: f7c9 683d 44d5 153e a3a9 7d3e 20b5 2a3c
00000200: 9226 7c3e a65b 343e 426c ad3d 39aa 373b
00000210: 59bc 393d 6195 e13d 1f8b 7bbc 490a 9dbd
00000220: ad39 123e 6847 8ebc 0c8e 9d3d bfa6 3fbd
00000230: c962 fcbc ef35 a93b c819 7b3c b6c3 ab3d
00000240: 02e7 293e 7061 98bc 7b6c 7f3e 99bb 383e
00000250: 0078 0d3d 04d6 083e 1d82 b03c 0361 843d
00000260: 8a0e 513d 191d 223d 2db3 b3bd 01fb 96bd
00000270: 7786 80bb 5556 26bc 89d7 6d3d 92df d5bd
00000280: b3df 05bc 9f84 253e 88f0 f03d 685a 03be
00000290: 56b8 083e d6bd fa3d 7abb 4fbc ad48 983d
000002a0: dee5 0a3d 5a39 903d 8fdd 0ebd 4714 80bd
000002b0: f216 023e 1369 9fbd 379b cc3d 6350 f23d
000002c0: 6295 133d e4fd 653b 7ec2 353e 0028 59bd
000002d0: c31e 423e d2ac 0e3c bc5d 553d ae43 af3d
000002e0: 3b6b 7f3e 8189 afbd ce62 0e3d 90b7 92bd
000002f0: 6ad8 d33d 81eb 193e 4479 b1bd 797e f23d
00000300: 24df 98bd 4a21 00bd c4ed 2dbd c54d ca3d
00000310: 7f2c b9bd ad9c 52bd d925 4fbd 34e5 b53d
00000320: 32ec 013e ec4c d3bc fde8 f83d a68f 0f3e
00000330: 670b 0c3e 9883 c0bd 7649 56bd c380 51bd
00000340: 7b68 b1bd 8cc0 093e a7c1 bebd 699e 2dbe
00000350: bc3e c6bd 2f4a ef3d 8789 273e ff46 6b3e
00000360: 7568 20be 495e efbd 674d 553d 5924 1fbd
00000370: a259 e5bd 4683 1c3e 2461 dcbc 0dd2 9bbc
00000380: 6155 cbbd c57c 743b 692f 7abd 45ed 84bc
00000390: 0bfb 17be 4ae8 46bd bf85 0abd 96b2 e33d
000003a0: a602 e7bd ffcb d8bc fe7a 943c a437 bfbc
000003b0: 1139 fb3d ae70 213e 6906 313e 765c b73d
000003c0: 22be f33d 1700 d73d 8584 3c3e 4be4 92bd
000003d0: 27ae 483a d408 bf3d aac0 34bb 3843 7d3e
000003e0: f94e 05bb 68c4 c83c f9d3 063e c5c0 673d
000003f0: bb93 b2bd 80ff 903d 65c2 adbc 9d5e e1bd
